ckpts/mtfnn_co.pt (torch, 17071 bytes, 8 tensors)

lin1.weight f4 [32, 9]
0	0xbcd71612	-0.026255641
1	0x3e250190	0.16113877
2	0x3e62b504	0.22139364
3	0x3ecbce81	0.39805987
4	0xbfc15c46	-1.5106285
5	0xbde9ac08	-0.114097655
6	0xbd8c6e0b	-0.068569265
7	0x3c8bd3b3	0.01706872
8	0x3f1458f9	0.5794826
9	0xbd1c7fc8	-0.0382078
10	0xbc7af876	-0.015318027
11	0xbcaba7f5	-0.020954112
12	0xbd0489f7	-0.032358136
13	0xbcb868aa	-0.022510845
14	0xbc7c292c	-0.0153906755
15	0xbcd8bc2b	-0.026456913
16	0xbcba98b9	-0.022777902
17	0xbc3e440c	-0.011612903
18	0xbae504ea	-0.0017472778
19	0xbbc75310	-0.0060829
20	0x3c6ebd29	0.0145714665
21	0xbba5028d	-0.0050357045
22	0xbbbf984e	-0.0058470136
23	0xbc8c7454	-0.017145313
24	0x3c6bc249	0.014389583
25	0xbcbf35e2	-0.023341123
26	0xbc67394c	-0.014112782
27	0xbe3ad298	-0.18244398
28	0x3e93d0dd	0.28870288
29	0x3ea4d947	0.3219702
30	0x3f268682	0.6504899
31	0xbf8cd741	-1.100319
32	0xbec92f1d	-0.39293757
33	0xbf1bcb76	-0.6085733
34	0x3e70cd8e	0.23515913
35	0x3f4e7627	0.80649036
36	0x3a8551a8	0.001017143
37	0x3cb8769d	0.022517497
38	0xbbf55ca3	-0.00748785
39	0x3ad28da9	0.0016063947
40	0xbb7f7cef	-0.0038984378
41	0x3b95c37f	0.004570424
42	0x3c242614	0.010018844
43	0xbbb8002a	-0.005615254
44	0xbb213e60	-0.0024603829
45	0xbd83d6ba	-0.0643744
46	0xbc9ba498	-0.018999383
47	0xbe50ee5c	-0.20403427
48	0x3f5268a3	0.8219091
49	0xbf11bea8	-0.56931543
50	0xbe2bd11a	-0.16778985
51	0xbee3995e	-0.44452947
52	0x3f68c919	0.9093185
53	0x3f91bbc3	1.1385425
54	0xbefc1f74	-0.49242747
55	0xbc730fe3	-0.014835331
56	0x3f3980f3	0.72462386
57	0x3ecc7ea6	0.39940375
58	0xbfc62b19	-1.5481902
59	0xbde5f4f5	-0.112283625
60	0xbe134043	-0.14379983
61	0x3dea31c3	0.114352725
62	0x3f08176e	0.5316075
63	0x3ab8c197	0.001409578
64	0x3c767305	0.015042071
65	0xbb2f5c70	-0.0026757978
66	0x3c010f89	0.007877239
67	0xbace586f	-0.0015742908
68	0x3b113c1e	0.0022161077
69	0x3bc26701	0.005932689
70	0x3c14c30a	0.009079704
71	0xbb82c07f	-0.0039902325
72	0x3ccdae35	0.025107482
73	0x3b42cd8e	0.002972457
74	0xbd05f6c7	-0.03270605
75	0x3aece78f	0.0018074381
76	0x3bca568f	0.0061748694
77	0x3c1ac564	0.009446476
78	0xbb1a966c	-0.0023588194
79	0x3b0bcb8d	0.0021331043
80	0x3c93e8db	0.01805537
81	0xba4d68a4	-0.0007835722
82	0xbc015555	-0.00789388
83	0xbba31d44	-0.004977854
84	0x3c083652	0.008313732
85	0xbb067e09	-0.00205219
86	0xbb76815d	-0.0037613728
87	0xbb1cfbde	-0.0023953835
88	0xbc345d0f	-0.011008515
89	0xbc1dbe3e	-0.009627877
90	0xbfd0880c	-1.6291518
91	0xbed0a9f6	-0.4075467
92	0x3f556e51	0.83371454
93	0x3f420df3	0.75802535
94	0xbf279457	-0.65460724
95	0xbe9f542c	-0.31118906
96	0xbe4b87ec	-0.19876069
97	0x3d80ca84	0.06288627
98	0x3e850731	0.2598205
99	0xbf509571	-0.8147803
100	0xbcc0cfb3	-0.023536539
101	0x3ec9f80f	0.39447066
102	0x3f4af147	0.7927441
103	0xbf451186	-0.76979864
104	0x3d8198d1	0.063279755
105	0xbf318414	-0.6934216
106	0x3d2c7141	0.042100195
107	0x3eb92604	0.36161816
108	0x39ee6039	0.0004546659
109	0xbc457326	-0.012051379
110	0x3c42493d	0.011858282
111	0x39f6fb2c	0.00047107914
112	0xba2cb3f7	-0.0006588096
113	0xbc7ff0fc	-0.01562142
114	0x3c7c9523	0.015416416
115	0xbb3ca921	-0.0028787332
116	0xbc8301a9	-0.015992003
117	0xbe92d0ac	-0.2867483
118	0x3e7f2356	0.24915823
119	0x3f397f78	0.72460127
120	0x3ea9cf57	0.33166
121	0xbfd906f5	-1.6955248
122	0x3d1283c0	0.035770178
123	0xbdc8bbac	-0.098014206
124	0x3b94f169	0.00454538
125	0x3f033183	0.51247424
126	0x3c526b0b	0.012842904
127	0x3aae5076	0.0013299126
128	0x3c9acd24	0.018896647
129	0x3b6ed262	0.0036441316
130	0xb9a62742	-0.00031691237
131	0x3a225c22	0.00061935384
132	0xbb554542	-0.0032542502
133	0x3b22f8c6	0.0024867519
134	0xba8544ae	-0.0010167563
135	0xbc246f72	-0.010036336
136	0xbc3d7038	-0.0115624
137	0x3bced005	0.006311419
138	0x3a054c69	0.00050849334
139	0x3b2ce1b4	0.0026379647
140	0x3b357952	0.002769072
141	0xbb76500f	-0.003758434
142	0x3bc6a334	0.006061936
143	0xbac385ca	-0.0014917192
144	0xbec3406e	-0.38135093
145	0x3ec0171c	0.3751763
146	0x3e996973	0.29963264
147	0x3f309e0c	0.6899116
148	0xbf547bc2	-0.8300134
149	0xbf0cb35c	-0.5496118
150	0xbf4aa4ab	-0.79157513
151	0x3eeff7d8	0.46868777
152	0x3f5d23ed	0.86382943
153	0xbf98c569	-1.1935245
154	0x3fa56ba7	1.2923478
155	0x3f8723d7	1.0557812
156	0x3f53bfb1	0.8271437
157	0xbf1c8b83	-0.6115038
158	0xbd7872ba	-0.060656287
159	0x3f695ba2	0.91155446
160	0xbe6dcda0	-0.23222971
161	0xbe90bb6f	-0.28268
162	0xbde4659c	-0.11152193
163	0x3e40134e	0.18757364
164	0x3e2b65d3	0.16738062
165	0x3f98c8cd	1.193628
166	0xbf9b4b18	-1.2132292
167	0xbec43a15	-0.38325563
168	0xbe666637	-0.2249993
169	0x3e91087a	0.2832678
170	0x3f0121f5	0.5044244
171	0xbe933470	-0.28750944
172	0x3eb16fdc	0.34655654
173	0x3f0b4cd9	0.54414135
174	0x3f2e3a98	0.68058157
175	0xbf39783b	-0.7244908
176	0xbf0baec0	-0.5456352
177	0xbf7bba2f	-0.9833097
178	0x3dd2f698	0.1030094
179	0x3f4648ff	0.77455133
180	0xbdf78126	-0.1208518
181	0x3e5816ee	0.21102497
182	0x3ea2b263	0.31776723
183	0x3f93478d	1.150621
184	0xbf9363bc	-1.1514812
185	0xbec7b7f2	-0.39007527
186	0xbe42203b	-0.18957607
187	0x3e2c855e	0.1684775
188	0x3ed78a82	0.4209786
189	0xbc1e9844	-0.009679858
190	0xbad30235	-0.001609868
191	0xbbc4a1eb	-0.0060007474
192	0x3c17f5c4	0.009274904
193	0xbb076a54	-0.0020662742
194	0xbaa0e1d9	-0.0012274339
195	0x3cbb9190	0.022896558
196	0x3cb604f0	0.022219151
197	0xbd1783ed	-0.03699105
198	0xbf6291fe	-0.88504016
199	0x3f40b53f	0.7527656
200	0x3fa2a43a	1.2706368
201	0x3f35b4d9	0.70979077
202	0xbf5fe7eb	-0.87463254
203	0xbf13da9f	-0.57755464
204	0xbe5ec2eb	-0.21754043
205	0x3e220b36	0.15824589
206	0x3e11d8be	0.14242837
207	0xbfd28846	-1.6447837
208	0x3dbdf3c3	0.092750095
209	0x3fac7f67	1.347638
210	0x3f674dc6	0.9035305
211	0xbf13dff5	-0.57763606
212	0xbe370b66	-0.17875442
213	0xbc1b8780	-0.009492755
214	0x3d117e93	0.0355211
215	0x3deb1de5	0.11480311
216	0xbea12814	-0.3147589
217	0x3e94f4fd	0.2909316
218	0xbda6cc7a	-0.081444696
219	0x3f1743b9	0.5908771
220	0x3e5491b2	0.20758703
221	0xbe706df2	-0.23479441
222	0xbfd7d091	-1.6860524
223	0x3e99c7c4	0.30035222
224	0x3f4c2a13	0.797517
225	0xbb1586a2	-0.0022815843
226	0xbc88249f	-0.016619025
227	0x3b624a49	0.003452914
228	0xbb8a8c10	-0.0042281225
229	0xbace0c86	-0.0015720285
230	0xbc0371ed	-0.0080227675
231	0x3c8b42c3	0.016999608
232	0x3c3e229e	0.011604933
233	0x3b92e877	0.0044832784
234	0x3a6a5483	0.0008938985
235	0xbb98183b	-0.0046415604
236	0x3b330d79	0.0027321263
237	0x3c6a3827	0.014295614
238	0x3c8095a7	0.01569636
239	0xbb827bbd	-0.003982036
240	0x3ac2c7ca	0.0014860567
241	0xbab07140	-0.0013461486
242	0xbc27dfbb	-0.010246213
243	0xb96b9e1e	-0.0002247025
244	0x3c5fca52	0.013659077
245	0xbc75fc54	-0.015013773
246	0x3bb17022	0.0054149786
247	0x3c0e7307	0.008694417
248	0x3b7651ea	0.0037585446
249	0x3c7f5aeb	0.015585641
250	0x3bf9e167	0.007625747
251	0xbc18ef50	-0.0093344
252	0xbf544908	-0.82923937
253	0x3ecbeaa5	0.39827457
254	0x3df115f7	0.117717676
255	0x3ef96d1c	0.48716056

lin1.bias f4 [32]
0	0x3bfd5eb5	0.007732237
1	0xbcbbe060	-0.022934139
2	0xbdba36e6	-0.09092502
3	0x3d2738a3	0.040825497
4	0xbe562ede	-0.20916316
5	0x3e2e0789	0.16995062
6	0x3d4bcee0	0.04975784
7	0xbcdd6d70	-0.027029723
8	0xbe80dcf3	-0.2516857
9	0xbe8423c4	-0.25808537
10	0x3db9114f	0.090365045
11	0xbceaef71	-0.028678628
12	0xbe1f0b70	-0.15531707
13	0x3d022178	0.0317702
14	0xbe2d2be3	-0.16911273
15	0xbe735f83	-0.23766904
16	0x3dcd6c17	0.10030382
17	0x3e37bdcc	0.17943496
18	0xbc4eadcc	-0.012614679
19	0x3d2a1a4f	0.041528996
20	0xbc2e0a6e	-0.010622604
21	0xbe6bfd63	-0.23045878
22	0x3cbf3a5b	0.023343256
23	0x3d43cc4e	0.047802262
24	0x3e03f44d	0.12886162
25	0xbe9cbdf0	-0.3061366
26	0xbe2e4c08	-0.17021191
27	0xbe8352aa	-0.25649005
28	0x3e173a95	0.14768441
29	0x3d8536fd	0.06504629
30	0xbb8471b2	-0.004041874
31	0x3d94640e	0.072456464

lin2.weight f4 [64, 32]
0	0x3e765ecc	0.240596
1	0xbd0ff37c	-0.035144314
2	0xbb11b1bc	-0.0022231182
3	0x3eeeb4d3	0.46622333
4	0x3a0cdd9b	0.0005373598
5	0x3ee95d9b	0.45579228
6	0x3e12fef2	0.14355066
7	0x3bacf90e	0.005278713
8	0xbc18e3f2	-0.00933169
9	0x3b868586	0.0041052727
10	0x3cc68f78	0.024238333
11	0x3e8ff674	0.28117716
12	0xbbbd625d	-0.005779548
13	0x3e908f59	0.28234366
14	0x39ee868c	0.00045495143
15	0x3af80987	0.0018923738
16	0x3f16e30d	0.589402
17	0x3da161df	0.078799956
18	0x3f4043ee	0.7510365
19	0x3ed36eb2	0.4129539
20	0x3f1aeeae	0.60520446
21	0xbaa4c045	-0.0012569508
22	0x3eafb1c6	0.34315318
23	0x3dedf7ba	0.11619516
24	0x3df76702	0.12080194
25	0xbbaed436	-0.005335356
26	0x3be9a325	0.007130044
27	0x3acf49f5	0.0015814888
28	0x3ee26a94	0.44221938
29	0xbe2eb59e	-0.17061469
30	0x3f057abc	0.521404
31	0x3e795eab	0.24352519
32	0x3bd64373	0.0065388023
33	0x3c020f5b	0.007938231
34	0xba7b6ceb	-0.000959112
35	0x3c8a95ff	0.016917227
36	0xbbbc5d5b	-0.0057484335
37	0xbbdb2822	-0.006688134
38	0x3c47a7f9	0.012186044
39	0xb9ab63c6	-0.0003269
40	0xba591041	-0.0008280315
41	0xbb7e27b9	-0.0038781
42	0xbc24bbc4	-0.010054532
43	0xbb53efea	-0.0032339045
44	0x3ba16f09	0.0049265665
45	0xbaf681c3	-0.0018806983
46	0xbb97570f	-0.0046185325
47	0xbb966437	-0.0045895833
48	0xbc338c77	-0.010958782
49	0x3c06e7ef	0.008234008
50	0xbbdc2e0f	-0.006719358
51	0x3c54b3aa	0.012982288
52	0xbca050ed	-0.019569838
53	0xbbdd328f	-0.006750412
54	0x3b67dbf3	0.0035378903
55	0xbc1f239e	-0.009713082
56	0xbb7209be	-0.0036932076
57	0x3a1cbd9c	0.0005979182
58	0x3b8a1376	0.0042137457
59	0x3c359f1e	0.0110853
60	0xbc5313b9	-0.01288312
61	0xbbd80d15	-0.0065933564
62	0x3b3530b5	0.002764744
63	0x3c22601e	0.009910611
64	0x3e6c4c8f	0.2307608
65	0xbcdbabc2	-0.026815299
66	0x3b435124	0.0029803002
67	0x3ee7e462	0.4529143
68	0x3bc67f4a	0.0060576545
69	0x3f048d87	0.51778454
70	0x3e34aac8	0.17643273
71	0xbbb818c2	-0.0056181857
72	0x3b8c1561	0.0042750095
73	0xbbb0baa7	-0.0053933444
74	0x3e014bbb	0.12626545
75	0x3e915bbf	0.2839031
76	0xbba7bcb4	-0.0051189307
77	0x3e5ca269	0.2154633
78	0x3ac698a6	0.0015151694
79	0xbb91ec3d	-0.0044532106
80	0x3f182904	0.59437585
81	0x3b7c1c1a	0.0038468898
82	0x3f45d70e	0.7728127
83	0x3ed22e12	0.41050774
84	0x3f1b72ce	0.60722053
85	0xbc595642	-0.013265194
86	0x3ea118db	0.31464276
87	0x3e1137ce	0.14181444
88	0x3de5edfb	0.11227032
89	0xbc35b9fc	-0.011091705
90	0xbb5843a4	-0.0032999301
91	0xbba39a4d	-0.0049927593
92	0x3efd6ae3	0.4949561
93	0xbe6ea7b8	-0.23306167
94	0x3ef93963	0.48676595
95	0x3e566996	0.20938715
96	0xba36bc73	-0.000697083
97	0xbab542d7	-0.0013829124
98	0xbbac3619	-0.0052554724
99	0xbc1bf876	-0.009519687
100	0xbb061c4d	-0.0020463646
101	0x3c0c73e9	0.008572557
102	0x3c2db17d	0.010601399
103	0xbc0d7daf	-0.008635922
104	0x3b33aa19	0.0027414619
105	0x3bd83225	0.0065977746
106	0xbb555774	-0.0032553347
107	0xba2ccff0	-0.00065922644
108	0xbc10a91f	-0.008829384
109	0x3c64a489	0.013955244
110	0x3c2f453d	0.01069766
111	0x3bb49cd2	0.0055118585
112	0xbb2b3637	-0.0026124844
113	0x3c07405f	0.008255093
114	0x3b0af405	0.0021202576
115	0x3b3bbe95	0.0028647531
116	0xbc03d44d	-0.008046222
117	0x3b9e3b12	0.004828819
118	0xbc3bbb06	-0.011458164
119	0xbbd18482	-0.00639397
120	0xbbdf183d	-0.0068083094
121	0x3b68ab87	0.003550263
122	0xbcb11a1c	-0.021618895
123	0xbb3ce870	-0.0028825067
124	0xbbe098a2	-0.0068541327
125	0xbafd9027	-0.0019345329
126	0x3bc77561	0.0060869907
127	0xbc4f5014	-0.012653369
128	0xbbb6cc13	-0.0055785268
129	0xbc93cf15	-0.01804308
130	0x3b29705e	0.002585433
131	0xbc876e70	-0.016532153
132	0x3b92dfad	0.0044822306
133	0x3b39b2de	0.0028335373
134	0x3a8ff2fd	0.001098245
135	0xbbb745dd	-0.005593045
136	0xba904b64	-0.0011008796
137	0xbc94d472	-0.018167708
138	0x3c16364b	0.009168218
139	0xbb877841	-0.0041342084
140	0x3c449467	0.0119982725
141	0xbc6d799e	-0.014494328
142	0xbba556e2	-0.0050457576
143	0x3c2dd467	0.010609723
144	0x3aad6039	0.0013227529
145	0x3ac5c0fb	0.001508742
146	0x3bfc1014	0.0076923463
147	0xbc2ad927	-0.01042775
148	0x391b4593	0.0001480787
149	0xbb36cc73	-0.0027892857
150	0xbb8b9df5	-0.0042607733
151	0x3c742165	0.01490054
152	0xbb7bcfa5	-0.0038423326
153	0x3ac525d3	0.001504118
154	0xbb5ac43b	-0.0033381123
155	0x3b7191c5	0.0036860567
156	0xbc013c37	-0.0078878915
157	0xbbc70930	-0.0060740933
158	0xbcbfa4ef	-0.023394076
159	0xbb65deea	-0.0035075494
160	0xbb7dce12	-0.0038727564
161	0xbc9686a7	-0.018374754
162	0xbc363f4d	-0.0111234905
163	0xbc312277	-0.01081144
164	0xbb83aaef	-0.0040181796
165	0x3b89cacd	0.004205084
166	0x3bc403ad	0.0059818835
167	0x3c0d2990	0.008615866
168	0x3c0b951c	0.008519437
169	0xbbbb4837	-0.005715396
170	0x3bb359de	0.0054733595
171	0xbb8d78cf	-0.00431738
172	0xba896bef	-0.0010484437
173	0xbbac977e	-0.0052670827
174	0xbb091d90	-0.0020922162
175	0xbc209c25	-0.009802853
176	0xbac01f05	-0.0014657682
177	0xba895918	-0.0010478823
178	0xbbff03a5	-0.007782417
179	0x3a4190fd	0.00073839707
180	0x3a1924d8	0.0005841977
181	0x3c3c3fa7	0.011489785
182	0x3b2f7c02	0.0026776795
183	0x3b88492d	0.004159114
184	0xbcb4e18d	-0.022080207
185	0x3c99a117	0.018753571
186	0xbbc91b62	-0.0061372975
187	0x3c10dd2d	0.008841795
188	0xbc955c54	-0.018232502
189	0x3b47f858	0.0030513015
190	0xbc90dde9	-0.01768394
191	0xbb5350fb	-0.0032244313
192	0x3e7703e9	0.24122585
193	0xbb7eee59	-0.003889939
194	0xbb992d16	-0.004674564
195	0x3ef6d155	0.48206583
196	0xbbc46ba5	-0.0059942775
197	0x3ed4d9c7	0.415724
198	0x3dee9be7	0.1165083
199	0xbc47aa97	-0.012186668
200	0xbc8ba210	-0.01704505
201	0xbbb54174	-0.0055314843
202	0x3d44a646	0.048010133
203	0x3e8eb8bc	0.27875316
204	0xbaf214d4	-0.0018469342
205	0x3e8fc957	0.28083298
206	0xbb674298	-0.0035287496
207	0xbad3ddf7	-0.0016164173
208	0x3f1a7dae	0.6034802
209	0x3ddadcf1	0.106866725
210	0x3f3afaae	0.73038757
211	0x3ed5b6c4	0.41741002
212	0x3f1c7983	0.6112291
213	0x3c414d20	0.011798173
214	0x3eb7f4dc	0.35929
215	0x3de5dff6	0.11224358
216	0x3e136aab	0.1439616
217	0xbc341f0a	-0.010993728
218	0x3a8504f0	0.0010148566
219	0x3c80702e	0.015678491
220	0x3ee3d2db	0.44496807
221	0xbe0b2090	-0.1358664
222	0x3f04eb2e	0.51921356
223	0x3e88418c	0.26612508
224	0x3e4c238a	0.19935432
225	0xbc34532a	-0.011006156
226	0x39f60d95	0.00046930896
227	0x3ee5081a	0.44732744
228	0x3bece795	0.007229755
229	0x3ea10d6e	0.3145556
230	0x3dd676f6	0.10471909
231	0xbc668ec0	-0.01407212
232	0xbbe9e7a2	-0.0071382085
233	0x3a5f22f2	0.0008511982
234	0x3d30cf14	0.043166235
235	0x3e9553e5	0.2916557
236	0xbbc17ce1	-0.0059047793
237	0x3e970f34	0.29503787
238	0xbac068a4	-0.0014679623
239	0xbc2b7add	-0.010466305
240	0x3f163cc2	0.5868646
241	0x3e2e84cb	0.17042844
242	0x3f2094e8	0.6272721
243	0x3edd6f82	0.43249136
244	0x3f066ad0	0.5250673
245	0xbbd46c67	-0.006482649
246	0x3ed1622b	0.4089521
247	0x3df40b3b	0.119162045
248	0x3e1fb7cf	0.15597461
249	0x3c07e924	0.008295331
250	0xbad15d61	-0.0015973264
251	0x3c566160	0.013084739
252	0x3ee87e0d	0.4540867
253	0xbde6d277	-0.11270612
254	0x3ee681af	0.45020816
255	0x3e905a1b	0.28193745

lin2.bias f4 [64]
0	0xbe47b560	-0.19502783
1	0xbddcf2d2	-0.10788502
2	0xbe230c77	-0.15922724
3	0xbe33551f	-0.1751294
4	0xbd30e47c	-0.04318665
5	0xbc960460	-0.018312633
6	0xbe516418	-0.20448339
7	0xbe5809f5	-0.21097548
8	0xbe7e2e94	-0.24822456
9	0xba6b60af	-0.00089789456
10	0x3e30dce6	0.17271766
11	0xbe1160fe	-0.14197156
12	0xbe2d956c	-0.16951531
13	0xbe5868c9	-0.21133722
14	0xbdbff6ef	-0.09373271
15	0x3d7bcdd8	0.061475605
16	0xbd4b7998	-0.049676508
17	0x3d945ed2	0.07244648
18	0xbe0fe4a8	-0.14052069
19	0xbe2d7754	-0.16940051
20	0xbe643586	-0.22286043
21	0xbd7e7939	-0.062127326
22	0x3dadda1b	0.08488866
23	0xbe4cc9cc	-0.19998854
24	0xbe15544a	-0.14582935
25	0xbddc92df	-0.10770201
26	0xbe04ed4c	-0.12981147
27	0xbe6fea46	-0.23429212
28	0xbe79ddff	-0.24401091
29	0xbe55909b	-0.20855944
30	0x3e374c33	0.17900161
31	0xbdedc056	-0.11608951
32	0xbdf2911a	-0.11844082
33	0x3eb4a51d	0.3528222
34	0xbe23f6bf	-0.16012095
35	0xbc671bcd	-0.014105749
36	0xbe21063e	-0.15725037
37	0xbd1fdb50	-0.039027512
38	0xbe5ddf8e	-0.2166731
39	0xbe6aa197	-0.22913204
40	0xbde80487	-0.113289885
41	0xbcde96e9	-0.027171569
42	0xbe628403	-0.22120671
43	0xbd97f57b	-0.074198686
44	0xbd6853ca	-0.056720532
45	0xbd76db8c	-0.06026797
46	0xbe60370a	-0.21895996
47	0xbdd188b6	-0.10231154
48	0xbd97c934	-0.07411423
49	0xbd7759ef	-0.0603885
50	0xbd038ccc	-0.032116696
51	0xbba50700	-0.005036235
52	0xbe5eefcd	-0.21771164
53	0xbde7100b	-0.11282357
54	0x3e8391c3	0.25697145
55	0xbe2ad6b8	-0.16683471
56	0xbe6a9734	-0.22909242
57	0xbd930e47	-0.071804576
58	0xbe5f1d06	-0.21788415
59	0xbd699b7c	-0.057033047
60	0xbe6c5f33	-0.2308319
61	0xbc9ad400	-0.018899918
62	0xbe7bc259	-0.24585856
63	0xbdba7e12	-0.09106077

lin3.weight f4 [16, 64]
0	0xbc8e7db4	-0.017393924
1	0xba0b8e21	-0.0005323608
2	0xbd2da503	-0.042393696
3	0xbbd62ba1	-0.0065359627
4	0x3c4ca90e	0.012491478
5	0xb785c342	-1.594576e-05
6	0xbd128e9d	-0.035780538
7	0xbd2dafa0	-0.042403817
8	0xbc94e822	-0.018177096
9	0xbd3a4663	-0.045477282
10	0xbd33d097	-0.0439001
11	0x3cdb3884	0.026760347
12	0xba8c577a	-0.0010707222
13	0xbc98190f	-0.018566636
14	0xbccc1954	-0.024914421
15	0xbcf12e99	-0.029441165
16	0xbb8043bb	-0.003914324
17	0x3c5c5dc7	0.013450093
18	0xbcdc3238	-0.026879415
19	0xbd0270d3	-0.03184588
20	0xbd02d28a	-0.031939067
21	0xbc9fad53	-0.019491827
22	0xbcf89aa6	-0.03034718
23	0xbd19b14e	-0.037522607
24	0x3c27bdaa	0.0102380905
25	0x3c6eeb55	0.014582475
26	0x3bb9033c	0.0056461375
27	0xbd0c1396	-0.034198366
28	0xbcedf37c	-0.029046766
29	0xbba2e954	-0.0049716625
30	0xbd0cdcc2	-0.03439022
31	0xbc19c60d	-0.009385598
32	0xb808e042	-3.2633783e-05
33	0xbca70cce	-0.020391848
34	0x3b47a187	0.0030461268
35	0xbd22f5c6	-0.03978517
36	0x3b27097b	0.0025487829
37	0x3be9f3d2	0.0071396613
38	0xbd2d3df2	-0.042295404
39	0xbd213503	-0.039357197
40	0x3bc2c0dc	0.005943401
41	0xbc9e4fb3	-0.019325113
42	0xbccf1c9f	-0.025282202
43	0x3b864052	0.004097023
44	0xbc369d2b	-0.01114587
45	0x3bd04713	0.006356129
46	0xbcc64047	-0.024200572
47	0xbd0baa47	-0.034097936
48	0xbcd61102	-0.026131157
49	0xbcef3574	-0.029200293
50	0x3c328722	0.010896476
51	0xbac7fe55	-0.0015258292
52	0xbcf1a5be	-0.029497977
53	0x3b424755	0.0029644568
54	0xbce8c144	-0.028412469
55	0xbccaf78f	-0.024776248
56	0xbcc9cd55	-0.024634043
57	0xba336918	-0.00068439683
58	0xbc48d40c	-0.012257587
59	0xbcc4e221	-0.024033608
60	0xbd3f81dd	-0.046754707
61	0x3b0ab217	0.0021163279
62	0xbd0e4138	-0.034730166
63	0xbc4da374	-0.012551177
64	0xbd776e79	-0.06040809
65	0xbbdba7ec	-0.0067033675
66	0xbd7e58a9	-0.06209627
67	0xbbf84338	-0.0075763725
68	0xbbb61886	-0.0055571226
69	0x3cc39dfe	0.023879047
70	0xbd63766c	-0.055532858
71	0xbd8da6a8	-0.06916553
72	0xbd78bf20	-0.060729146
73	0xbdb5747b	-0.088601075
74	0xbb366454	-0.0027830796
75	0x3ae38893	0.0017359428
76	0x3c90104a	0.017585892
77	0xbd9b591c	-0.07585356
78	0xbd5ad92b	-0.053429764
79	0xbdca1c76	-0.0986871
80	0xbb7ee8af	-0.0038896014
81	0xbdc850a9	-0.0978101
82	0xbd901b24	-0.07036427
83	0xbd31e8ff	-0.043435093
84	0xbd89932d	-0.06717525
85	0xbdc41179	-0.09573645
86	0xbdc6a31d	-0.0969908
87	0xbd78687a	-0.06064651
88	0xbb8df30b	-0.0043319515
89	0xbc56cd02	-0.013110401
90	0x3bf87c41	0.0075831716
91	0xbd976d97	-0.073939495
92	0xbda639cf	-0.08116495
93	0xbd535934	-0.051598743
94	0xbdc75fd9	-0.09735078
95	0x3b72edf9	0.0037068112
96	0xbb95fddd	-0.004577382
97	0xbde3be79	-0.11120314
98	0x3c5868b8	0.013208561
99	0x3c14f9cc	0.009092759
100	0xbb4665a9	-0.0030272997
101	0xbb9488a4	-0.0045328904
102	0xbd8363fa	-0.064155534
103	0xbd8a58e5	-0.067552365
104	0xba9f0c77	-0.0012134452
105	0xbc888526	-0.016665053
106	0xbd935bec	-0.07195267
107	0xbc200103	-0.009765866
108	0xbc6e2339	-0.014534765
109	0x3c32155c	0.01086935
110	0xbd8dfa25	-0.06932477
111	0xbdd39fbf	-0.103332035
112	0xbd733c17	-0.059383478
113	0xbd00e7d2	-0.03147108
114	0x3aeedc93	0.0018223695
115	0xbcc8d27b	-0.024514427
116	0xbd9759f8	-0.07390207
117	0x3990841e	0.00027564255
118	0x3c760115	0.015014906
119	0xbd6442c4	-0.055727735
120	0xbdb2f624	-0.08738354
121	0xbb9ed782	-0.004847468
122	0xbd8f98d1	-0.07011569
123	0xbd3ef7d2	-0.04662306
124	0xbdaf6044	-0.08563283
125	0xbc2c932e	-0.010533137
126	0xbd927aee	-0.07152353
127	0x3c8e8c5f	0.017400919
128	0xbf2577fe	-0.6463622
129	0x3c36c126	0.011154449
130	0xbf36cb14	-0.7140362
131	0xbc0cc3b6	-0.008591583
132	0xbbe8b2b5	-0.0071013817
133	0xbb800399	-0.003906679
134	0xbf20033f	-0.62504953
135	0xbed45b0b	-0.4147571
136	0xbf0011d1	-0.50027186
137	0x3f8bdc87	1.0926675
138	0xbf2eb0c1	-0.68238455
139	0xbcc45102	-0.023964409
140	0x3c1fc0fd	0.009750602
141	0xbe9d970f	-0.3077931
142	0xbf35da74	-0.7103646
143	0x3f92d99f	1.1472663
144	0xbc0f4a7f	-0.008745789
145	0x3f359c7c	0.709419
146	0xbf3fa445	-0.7486003
147	0xbf26a51b	-0.6509568
148	0xbf1cab6b	-0.61199063
149	0x3f93ab8a	1.1536725
150	0x3f96a177	1.1768025
151	0xbf1b77e9	-0.60729843
152	0x3bd285d0	0.006424643
153	0xbc7639cb	-0.015028427
154	0xbbf1b053	-0.007375756
155	0xbf237d67	-0.63863224
156	0xbf1743ec	-0.59088016
157	0xbf294ffd	-0.6613768
158	0x3f93a6c9	1.1535274
159	0xbacda452	-0.001568923
160	0x3c76448b	0.01503099
161	0x3f93855a	1.1525071
162	0x3b70b8ac	0.0036731167
163	0xbcf211a4	-0.029549427
164	0xb93eef01	-0.00018208848
165	0xbcbaedd3	-0.022818482
166	0xbf1834f1	-0.5945578
167	0xbf193406	-0.59845006
168	0x3c1ceb48	0.00957758
169	0xbf3ab461	-0.72931486
170	0x3d18f8b1	0.037346546
171	0x3c1f4d76	0.009723058
172	0xbb7dfcf3	-0.0038755506
173	0xbc15b91f	-0.009138375
174	0xbf2a8a59	-0.6661735
175	0x3f13ea3c	0.5777929
176	0xbf40bbce	-0.7528657
177	0xbf559fa2	-0.83446705
178	0xbad0c87c	-0.001592889
179	0x3c4400bb	0.011963065
180	0xbead1f90	-0.33813143
181	0x3b85e5d9	0.004086238
182	0xbf74dbec	-0.95648074
183	0xbf255ba0	-0.64592934
184	0xbf1ed915	-0.6204999
185	0x3c36a5b5	0.011147906
186	0xbc8e68c3	-0.017383939
187	0xbf49faf7	-0.78898567
188	0xbf132f9d	-0.5749453
189	0x3a7d43fe	0.00096613157
190	0xbf1c92e1	-0.6116162
191	0x3b5dece4	0.0033863122
192	0x3dc7505b	0.097321235
193	0xbc468682	-0.01211703
194	0x3e8de025	0.2771007
195	0xbb5267b9	-0.003210528
196	0xbabbb139	-0.0014319784
197	0x3c6faa9e	0.014628081
198	0x3d73ab92	0.059489794
199	0xbcaa6e88	-0.020804659
200	0xbd6cf175	-0.05784746
201	0xbf8387a9	-1.0275775
202	0x3fb6a717	1.4269742
203	0xbbf103c6	-0.007355186
204	0xbc00c296	-0.007858893
205	0xbd030ed8	-0.031996578
206	0x3ef6f7f9	0.48236063
207	0xbf7a4a60	-0.9776974
208	0xbb9ec77c	-0.0048455577
209	0xc029047a	-2.6408982
210	0x3ebb60eb	0.3659738
211	0x3e79bbf2	0.24388102
212	0x3d092aeb	0.033488195
213	0xbf91f3ac	-1.1402488
214	0xbf5f8794	-0.8731625
215	0x3d961760	0.07328677
216	0x3bad4bd3	0.00528858
217	0xbbdf767c	-0.0068195444
218	0xbc5a6119	-0.013328814
219	0xbc1d89b1	-0.009615348
220	0xbcb286d3	-0.021792805
221	0x3d67bc58	0.056576103
222	0xbf372a4a	-0.71548903
223	0xbb53f4f8	-0.0032342058
224	0x3c82a672	0.015948508
225	0xbef4ee8d	-0.4783825
226	0x3c186032	0.0093002785
227	0xbd08ee90	-0.033430636
228	0xb9b62d5b	-0.00034747538
229	0xbc2b8def	-0.010470851
230	0xb95986cb	-0.00020744947
231	0xbb3fb67c	-0.0029253056
232	0x3b23dddd	0.0025004067
233	0x3faa2b62	1.3294489
234	0xbd305a47	-0.043054845
235	0xbaf5e958	-0.0018761558
236	0x3c16185d	0.009161082
237	0x3c2d6577	0.010583273
238	0x3ceef18a	0.02916791
239	0xbf7068f4	-0.93910146
240	0x3f22f7e1	0.63659483
241	0x3f9da3fb	1.2315668
242	0x38ac79fd	8.224321e-05
243	0xbc5b02ce	-0.013367368
244	0x3c3b1029	0.011417427
245	0x3ad5f99c	0.0016325
246	0x3fc58022	1.5429728
247	0x3e83ac18	0.25717235
248	0x3ca9e823	0.020740574
249	0xbc488bb5	-0.01224034
250	0xbd1bfa2c	-0.03808038
251	0x3f9f8f3a	1.2465584
252	0xbbbd891b	-0.0057841665
253	0x3a5bc8e6	0.0008384123
254	0xbdc1f21e	-0.09470008
255	0xba622310	-0.00086264405

lin3.bias f4 [16]
0	0xbcd9707c	-0.026542895
1	0xbe15df05	-0.14635856
2	0x3f4c56a3	0.798197
3	0x3fb6c4e2	1.4278834
4	0xbef2e580	-0.4744072
5	0xbde164fd	-0.1100559
6	0xbde09b34	-0.10967103
7	0xbd206753	-0.039161038
8	0xbce12888	-0.027485147
9	0xbed438d8	-0.41449618
10	0xbde26c5a	-0.11055823
11	0xbdcc359f	-0.09971165
12	0xbd5c16fb	-0.053732853
13	0xbdf74ec0	-0.12075567
14	0xbee21cda	-0.44162637
15	0xbddc3102	-0.10751535

lin4.weight f4 [3, 16]
0	0xbcb11841	-0.02161801
1	0xbc109870	-0.008825406
2	0xbf214124	-0.6299002
3	0x3f6b23ee	0.918517
4	0xbecfd6cd	-0.40593567
5	0xbb96839f	-0.004593327
6	0x3c04d239	0.008106762
7	0xbbfa433d	-0.00763741
8	0xbbc59f98	-0.006030988
9	0xbefec64e	-0.4976067
10	0x3c29e162	0.010368677
11	0xbe72bb34	-0.23704225
12	0xbd0a24cf	-0.03372651
13	0xbc03c544	-0.008042637
14	0xbf1777b9	-0.5916706
15	0xbcb628d2	-0.022236262
16	0xbd15fa23	-0.036615502
17	0x3d585a81	0.052820686
18	0xbfbad64f	-1.4596652
19	0xbf3b40d1	-0.73145777
20	0x3ed46954	0.4148661
21	0xbb0408db	-0.002014688
22	0xbb37956e	-0.002801265
23	0x3af87bd5	0.0018957803
24	0xba45b521	-0.0007541944
25	0x3ee15327	0.44008753
26	0xbbb44d33	-0.005502367
27	0xbe22b70c	-0.1589014
28	0xbd31dcb0	-0.043423355
29	0xbc0a3f5d	-0.008437959
30	0x3f058d8d	0.52169114
31	0x3caa2aec	0.02077242
32	0xbcdfc3ba	-0.02731501
33	0xbd62d6a9	-0.055380497
34	0x3f657a12	0.8963939
35	0xbfaa2236	-1.329169
36	0xbe72c595	-0.23708184
37	0xbc9488c8	-0.018131629
38	0x3c93f159	0.01805942
39	0xbc0efe24	-0.008727584
40	0x3bd36e5b	0.0064523644
41	0xbe3c40c3	-0.1838408
42	0xbc017d80	-0.007903457
43	0xbf202211	-0.6255198
44	0xbb454e25	-0.0030106392
45	0x3d62e5c1	0.05539489
46	0xbdf0d8ef	-0.11760127
47	0xbcf5ebbe	-0.030019637

lin4.bias f4 [3]
0	0x3f2dd8b4	0.6790879
1	0xbf829b9e	-1.0203741
2	0xbe9a34f5	-0.30118528
