ckpts/mtfnn_nu.pt (torch, 18631 bytes, 10 tensors)

lin1.weight f4 [64, 6]
0.00476383 -0.0007590463 -0.004189079 0.012023014 -0.002889449 0.0050716028 0.0046517802 0.0070802253
-0.003200346 -0.00253576 0.012480439 -0.009362037 0.0076556504 0.006353841 0.014040297 0.0051171086
-0.010968779 0.0063414406 0.007617598 0.019067775 -0.01562619 -0.011437331 0.021787846 0.010650575
0.0049093696 -0.0046210997 -0.003088849 -0.01628341 0.008973449 0.008930391 -0.06410095 -0.049887367
-0.058392942 -0.041110087 -0.07674968 -0.081164934 -0.009963593 -0.004923544 -0.011857582 0.0039600036
0.005064826 -0.0022027018 0.005880746 -0.0042797294 0.013445447 0.0041591018 -0.003562967 -0.0049291467
0.09309425 -0.20552666 0.06899295 -0.2048461 0.08147257 -0.16371514 0.0038297432 -0.008814293
-0.0054170135 -0.0013393979 0.015963787 -0.014800085 -0.10493964 -0.24336801 -0.10005828 -0.25727907
-0.10646699 -0.007622502 -0.011448954 0.005327461 -0.010335323 0.01404557 9.420508e-05 -0.006886781
-0.03604843 -0.09900188 -0.037660137 -0.097740345 -0.044425134 -0.09151651 -0.046328425 -0.11490642
-0.05152887 -0.12062198 -0.05817876 -0.108884685 -0.035849314 -0.058784947 -0.049166612 -0.054421037
-0.026610749 -0.06119317 0.009674215 -0.0011031098 -0.003510357 0.0009086768 -0.016838208 0.019230532
0.17705566 0.09536803 0.17732334 0.120444596 0.17388871 0.07814249 -0.026967017 -0.037299816
-0.051938217 -0.08279681 -0.040260095 -0.05016324 0.19368576 0.07536866 0.17947403 0.09519154
0.17699042 0.032793757 -0.021604199 -0.0042469804 0.01355178 0.0097788945 0.009476182 -0.006762788
-0.03979368 -0.10021175 -0.039862413 -0.09982105 -0.048604757 -0.09407614 -0.015339499 0.016200451
4.3716813e-05 0.0018831505 0.0109851165 0.006719173 0.060510468 -0.077655956 -0.4033207 0.0602434
-0.1958745 -0.101080045 0.017063182 -0.0029607343 0.0033153149 0.0070183408 -0.005663146 -0.013899119
-0.0051099155 0.00042244903 0.0040076543 0.0031985259 -0.008190149 0.007588398 -0.050910335 -0.11390621
-0.056646448 -0.12025063 -0.06308457 -0.108213045 -0.15712723 -0.22410172 -0.11517039 -0.24365501
-0.17076208 -0.033742733 -0.003958785 -0.016536059 -0.0027794503 0.023142068 -0.00052300823 0.0052294536
0.20495363 0.07827498 0.20110944 0.05625892 0.1571561 0.019933427 0.39669153 -0.18516973
0.4065628 -0.14921434 0.32689494 -0.40580577 0.0012657297 0.0007286555 -0.00962292 0.0058116466
-0.011242428 -0.016613446 0.0052305884 -0.012923062 -0.0065212636 -0.015978768 -0.0042388355 -0.018522155
-0.08650224 -0.072196536 -0.09061443 -0.083741374 -0.09555789 -0.08466912 0.010844064 0.008598374
0.009084384 0.0027144023 -0.003779278 -0.013766687 -0.07994231 0.3548228 -0.042815 -0.3508789
-0.044017732 -0.35990238 -0.044382688 -0.09360402 -0.042694528 -0.093420744 -0.05100463 -0.0883433
0.17808732 0.11414022 0.18712367 0.11589542 0.1895139 0.05408827 -0.012468252 0.0055621164
-0.019091964 -0.0004155237 -0.010063525 0.010999087 0.007254953 0.016037524 -0.010222201 0.0043762857
-2.009367e-05 -0.0013063209 -7.39808e-05 0.019028513 -0.014835076 -0.0029121332 0.014529327 -0.0072889864
-0.060117166 -0.1035717 -0.058510676 -0.108632065 -0.06468574 -0.10152863 -0.010615123 -0.005632907
0.009219267 -0.015859244 -0.0049563455 0.0039913715 -0.118516475 -0.067706905 -0.12442967 -0.07810754
00000000: e719 9c3b bcfa 46ba 8b44 89bb 2dfc 443c
00000010: e95c 3dbb b02f a63b f66d 983b 3c01 e83b
00000020: e5bc 51bb fe2e 26bb c17a 4c3c 3b63 19bc
00000030: 40dc fa3b e233 d03b 4609 663c 6bad a73b
00000040: 65b6 33bc dccb cf3b 0b9d f93b 0634 9c3c
00000050: 7f02 80bc a563 3bbc 6d7c b23c c07f 2e3c
00000060: c7de a03b 986c 97bb 496e 4abb c964 85bc
00000070: 5f05 133c c650 123c 5c47 83bd b256 4cbd
00000080: 702d 6fbd 0d63 28bd f02e 9dbd cd39 a6bd
00000090: 573e 23bc ae55 a1bb 4e46 42bc ebc2 813b
000000a0: d7f6 a53b 345b 10bb 46b3 c03b f93c 8cbb
000000b0: 4b4a 5c3c 1349 883b ab80 69bb ae84 a1bb
000000c0: 33a8 be3d 9575 52be 2d4c 8d3d 2dc3 51be
000000d0: 17db a63d f1a4 27be 6efc 7a3b d369 10bc
000000e0: 3481 b1bb bc8e afba 7dc6 823c 0e7c 72bc
000000f0: 98ea d6bd 7735 79be 5beb ccbd 15ba 83be
00000100: 5e0b dabd 2ec6 f9bb 6594 3bbc fb91 ae3b
00000110: 7d55 29bc 641f 663c f88f c538 82aa e1bb
00000120: 85a7 13bd 7fc1 cabd 8441 1abd 172c c8bd
00000130: 21f7 35bd 026d bbbd e0c2 3dbd 0f54 ebbd
00000140: f00f 53bd a808 f7bd da4c 6ebd effe debd
00000150: bbd6 12bd 7cc8 70bd ee62 49bd 98e8 5ebd
00000160: c9fe d9bc b0a5 7abd 9980 1e3c 3996 90ba
00000170: 050e 66bb 4534 6e3a 48f0 89bc 5989 9d3c
00000180: 144e 353e 5050 c33d 4094 353e a8ab f63d
00000190: e20f 323e 2b09 a03d efe9 dcbc b1c7 18bd
000001a0: 2bbd 54bd 6091 a9bd c5e7 24bd f877 4dbd
000001b0: 8f55 463e e25a 9a3d 0ac8 373e c8f3 c23d
000001c0: fa3c 353e bf52 063d 4afb b0bc 412a 8bbb
000001d0: 4908 5e3c a837 203c fd41 1b3c 619a ddbb
000001e0: b3fe 22bd d13b cdbd c546 23bd fb6e ccbd
000001f0: c815 47bd feaa c0bd 8652 7bbc cfb6 843c
00000200: 925c 3738 0cd4 f63a ebfa 333c 822c dc3b
00000210: d3d9 773d 160a 9fbd 0d80 cebe c9c1 763d
00000220: 5393 48be 0e03 cfbd 16c8 8b3c e108 42bb
00000230: c145 593b 1cfa e53b e991 b9bb 21b9 63bc
00000240: 1471 a7bb 267c dd39 a452 833b 5c9e 513b
00000250: fa2f 06bc 19a8 f83b 5b87 50bd a947 e9bd
00000260: 1b06 68bd f645 f6bd 7c32 81bd cd9e ddbd
00000270: f6e5 20be ec7a 65be 74de ebbd b380 79be
00000280: 41dc 2ebe d235 0abd b2b8 81bb a176 87bc
00000290: 7027 36bb 6f94 bd3c 7d1a 09ba d65b ab3b
000002a0: 5ddf 513e a24e a03d a2ef 4d3e c16f 663d
000002b0: 87ed 203e 6d4b a33c 271b cb3e 229d 3dbe
000002c0: 0029 d03e a5cb 18be c65e a73e c6c5 cfbe
000002d0: d7e6 a53a 3e03 3f3a 74a9 1dbc a06f be3b
000002e0: 2932 38bc ec18 88bc 5b65 ab3b 40bb 53bc
000002f0: 53b0 d5bb e8e5 82bc eee5 8abb c6bb 97bc
00000300: 1628 b1bd c7db 93bd 0f94 b9bd 9980 abbd
00000310: dbb3 c3bd 0167 adbd 4dab 313c 32e0 0c3c
00000320: abd6 143c 1de4 313b c3ad 77bb ac8d 61bc
00000330: cbb8 a3bd 56ab b53e c85e 2fbd 66a6 b3be
00000340: f04b 34bd 2045 b8be 9fca 35bd 77b3 bfbd
00000350: 75e0 2ebd 6053 bfbd 3bea 50bd 55ed b4bd
00000360: 865c 363e 59c2 e93d 599d 3f3e 945a ed3d
00000370: ef0f 423e a98b 5d3d a447 4cbc 6a42 b63b
00000380: c066 9cbc a6da d9b9 7ce1 24bc 8435 343c
00000390: f5ba ed3b 2061 833c 057b 27bc f266 8f3b
000003a0: d48e a8b7 db38 abba 2426 9bb8 afe1 9b3c
000003b0: d20e 73bc 7dd9 3ebb 6a0c 6e3c 73d8 eebb
000003c0: 6b3d 76bd 661d d4bd e4a8 6fbd 7d7a debd
000003d0: f579 84bd 3eee cfbd 0eeb 2dbc 4094 b8bb
000003e0: 690c 173c 3feb 81bc d768 a2bb 0dca 823b
000003f0: c4b8 f2bd eba9 8abd fcd4 febd d9f6 9fbd

lin1.bias f4 [64]
-0.30177385 -0.087772995 -0.12679532 -0.07827273 -0.37256372 0.2275219 -0.1811416 -0.03629744
0.2949798 -0.20233487 0.29701164 -0.15910621 0.26838303 0.32961005 0.030290285 -0.101017445
0.48235232 0.04027261 0.4937453 -0.15572727 0.27751487 -0.31217948 0.15526572 -0.38265264
-0.34751073 0.33474788 0.31289476 -0.062850595 0.38369536 0.3269301 -0.36823645 -0.18692465
0.32177737 -0.36759531 0.022868318 0.27053243 0.49067998 -0.021210104 -0.028465718 -0.12702158
0.32078308 -0.01571408 0.36304992 -0.010153894 0.2633639 -0.27068818 0.2621501 -0.3376416
0.037628338 0.292029 0.38941845 0.39839825 -0.047187895 -0.2195568 -0.3729313 0.14031641
-0.36634886 -0.01953283 0.06874719 0.23294118 -0.32397893 -0.22943576 0.24162813 -0.36686778
00000000: 1a82 9abe 54c2 b3bd a2d6 01be 744d a0bd
00000010: acc0 bebe 80fb 683e 2f7d 39be a0ac 14bd
00000020: 9807 973e df30 4fbe e911 983e bdec 22be
00000030: 8069 893e a6c2 a83e 5523 f83c 3ce2 cebd
00000040: e2f6 f63e e4f4 243d 2fcc fc3e f876 1fbe
00000050: 6e16 8e3e fdd5 9fbe fafd 1e3e 0ceb c3be
00000060: edec b1be 1364 ab3e be33 a03e d0b7 80bd
00000070: b873 c43e 6263 a73e 7d89 bcbe 2d69 3fbe
00000080: 01c0 a43e 7435 bcbe 5756 bb3c 3a83 8a3e
00000090: 683a fb3e d0c0 adbc f030 e9bc f211 02be
000000a0: ae3d a43e d0ba 80bc aee1 b93e 855c 26bc
000000b0: a2d7 863e a497 8abe 8a38 863e 5cdf acbe
000000c0: 2c20 1a3d d384 953e db61 c73e dbfa cb3e
000000d0: 1848 41bd 7fd3 60be daf0 bebe 1baf 0f3e
000000e0: 1492 bbbe 5003 a0bc 54cb 8c3d 2288 6e3e
000000f0: 91e0 a5be 35f1 6abe 5d6d 773e 18d6 bbbe

lin2.weight f4 [32, 64]
-0.0045371456 -0.005222321 0.00064050755 -7.862889e-05 0.010765152 -0.18000133 0.012817766 0.009965971
-0.13793966 -0.0009958092 -0.28559494 0.011135587 -0.23830903 -0.242689 -0.007915312 0.004253287
0.21707495 0.0042098165 0.19935869 0.0023052054 -0.22914429 -0.0036166513 -0.5679729 -0.008872209
0.016179165 -0.24788412 -0.18654825 -0.0001891265 0.17946325 0.12980369 0.0060507418 0.004681273
-0.23490693 -0.012640249 -0.7937552 -0.21897346 0.21677339 0.0002695938 0.0069149937 -0.0030323132
-0.21263947 0.01015006 -0.20624495 -0.8392074 -0.21879251 -0.013421244 -0.22632499 -0.0004604923
-0.0053379256 -0.23853226 -0.08537653 -0.25096062 6.222711e-05 0.0058858 -0.0029727316 -0.20502526
-0.0034034445 0.0063077235 0.018724272 -0.14282511 0.0011547537 0.0040563224 -0.32456124 -0.011888083
0.0044154385 -0.017985435 -0.0049672527 0.0012152018 0.0007680194 -0.07694904 0.011711612 0.007997351
0.3322569 0.0030900107 0.16848268 -0.0048366045 0.0067659635 0.0068146964 0.0063095884 -0.014057404
-0.046967715 0.017877057 -0.02421032 -0.002332187 0.030822227 -0.0035903477 0.15758355 -0.015529755
0.0033027912 0.02700289 0.13313536 0.004964462 -0.018260367 0.050430555 0.0025874602 -0.004542807
-0.033140853 0.0063705216 0.8694733 0.03756811 -0.054492444 0.001344531 -0.0006682879 -0.011707601
0.004141867 -0.011927888 -0.060119722 0.79274464 -0.03557307 -0.00096715864 -0.029170725 -0.006095177
0.0073751383 -0.008490215 -0.12172201 0.04235649 -0.012644666 0.016246298 0.008542631 0.102494605
0.0031219784 0.00924159 0.00015749273 0.2886115 0.0024499476 -0.0076387874 0.24162483 -0.00051746645
-0.002494765 0.013729613 -0.006433639 0.01269069 -0.013534667 -0.03364336 -0.0006223259 -0.017106382
0.31245565 0.011818946 0.15190016 -0.012247162 0.008760488 0.051255297 -0.007871371 -0.002388613
-0.020176271 0.016136475 -0.0036280393 0.010092018 0.019434905 0.0065940972 0.24097262 0.004116557
-0.010542126 0.049389366 0.1425596 0.0043096105 0.023796372 0.078075506 0.0057604555 -0.013632487
0.005557989 -0.015393653 0.857619 0.02097044 -0.03348539 0.0032753595 0.0024902662 -0.002456157
0.023969594 -0.012155299 0.0064257453 0.78740495 0.0015608083 -0.014014065 -0.018124683 0.018606618
0.0013274405 0.041864656 -0.042386733 0.0753724 0.011183075 0.0020724083 -0.01505994 0.08816356
-0.009479021 0.0014180994 -0.022317208 0.29216725 0.008597437 0.013475718 0.24756908 0.0011817574
-0.006057738 0.002733725 0.0064328033 0.0046756216 -0.0028552988 0.015157345 -0.004331146 0.020575417
0.015374811 0.017888736 0.01067173 0.005615457 0.015359369 -0.016555134 -0.0050396197 0.014950769
0.015651617 -0.0056872177 -0.0022586153 0.005017386 -0.0012525527 -0.0034052369 -0.0051512825 0.012244629
0.0028738144 -0.013527936 -0.008779949 -0.0061205137 0.0010309985 0.012983966 -0.009347906 -0.012296929
-0.011638285 -0.01077891 0.0032248283 -0.0078477925 -0.0027406802 -0.007742369 7.9857404e-05 -0.009720531
-0.0085614715 0.005893607 -0.0015131412 -0.004253372 -0.004500774 -0.012558429 -0.0030112367 0.0019040663
-0.00051762245 -0.009015104 2.5355357e-05 0.00020895794 -0.0040640924 0.003676472 0.00061731134 -0.011016761
0.005609283 0.0002913744 -0.011435198 3.7928112e-05 0.015642805 -0.0012767443 -0.020838501 0.011731058
00000000: 56ac 94bb 0120 abbb bce7 273a 90e5 a4b8
00000010: 5260 303c 4552 38be 9b01 523c 5048 233c
00000020: 0e40 0dbe d085 82ba 8039 92be 0972 363c
00000030: 4807 74be 7783 78be 3aaf 01bc 285f 8b3b
00000040: e548 5e3e 80f2 893b af24 4c3e ee12 173b
00000050: cda4 6abe 5705 6dbb ac66 11bf be5c 11bc
00000060: 2b8a 843c 56d5 7dbe 8106 3fbe 4250 46b9
00000070: 37c5 373e 42eb 043e 4d45 c63b 5d65 993b
00000080: 718b 70be 0c19 4fbc 8a33 4bbf 943a 60be
00000090: d8f9 5d3e 4458 8d39 2c97 e23b c6b9 46bb
000000a0: 29be 59be 704c 263c e031 53be 4cd6 56bf
000000b0: 250b 60be c7e4 5bbc bdc1 67be 3b6e f1b9
000000c0: c4e9 aebb cd41 74be e4d9 aebd e97d 80be
000000d0: ed7f 8238 abdd c03b 29d2 42bb 24f2 51be
000000e0: 530c 5fbb 05b1 ce3b a563 993c bf40 12be
000000f0: 1b5b 973a e6ea 843b e42c a6be 3cc6 42bc
00000100: 62af 903b 3156 93bc 56c4 a2bb 6847 9f3a
00000110: e954 493a 7597 9dbd 10e2 3f3c 5207 033c
00000120: 941d aa3e c781 4a3b b986 2c3e 617c 9ebb
00000130: 04b5 dd3b d14d df3b aac0 ce3b 0751 66bc
00000140: 3861 40bd e872 923c b954 c6bc 9bd7 18bb
00000150: e57e fc3c 0a4c 6bbb 955d 213e 8370 7ebc
00000160: a473 583b 2a35 dd3c a354 083e edac a23b
00000170: c496 95bc 4590 4e3d 6192 293b d4db 94bb
00000180: b4be 07bd cfbf d03b cd95 5e3f 05e1 193d
00000190: 7833 5fbd f93a b03a 0b30 2fba 3dd1 3fbc
000001a0: 80b8 873b 306d 43bc 1940 76bd 50f1 4a3f
000001b0: 11b5 11bd eb88 7dba 72f7 eebc 0dba c7bb
000001c0: 25ab f13b 8b1a 0bbc 6449 f9bd 007e 2d3d
000001d0: 932b 4fbc f516 853c 64f6 0b3c b1e8 d13d
000001e0: 1b9a 4c3b 0a6a 173c a224 2539 e3c4 933e
000001f0: 4d8f 203b cb4e fabb 806c 773e 96a6 07ba
00000200: 367f 23bb 2cf2 603c 47d1 d2bb 9dec 4f3c
00000210: 82c0 5dbc 9fcd 09bd 9623 23ba af22 8cbc
00000220: 30fa 9f3e 41a4 413c b78b 1b3e 52a8 48bc
00000230: 2688 0f3c 13f1 513d ecf6 00bc 478a 1cbb
00000240: b548 a5bc a430 843c 66c4 6dbb fe58 253c
00000250: f335 9f3c 4c13 d83b 87c1 763e 2fe4 863b
00000260: e2b8 2cbc 814c 4a3d 25fb 113e a237 8d3b
00000270: 9cf0 c23c 0de6 9f3d 34c2 bc3b cb5a 5fbc
00000280: ca1f b63b a935 7cbc eb8c 5b3f 33ca ab3c
00000290: fa27 09bd 6aa7 563b bc33 233b 7af7 20bb
000002a0: e25b c43c 0527 47bc 0f8f d23b 5f93 493f
000002b0: 0994 cc3a 409b 65bc 377a 94bc e86c 983c
000002c0: 83fd ad3a 467a 2b3d b69d 2dbd d85c 9a3d
000002d0: 3739 373c 3ed1 073b f7bd 76bc 198f b43d
000002e0: e54d 1bbc 85df b93a 94d2 b6bc f296 953e
000002f0: 44dc 0c3c 42c9 5c3c c082 7d3e 33e5 9a3a
00000300: fd7f c6bb 4b28 333b 44ca d23b f535 993b
00000310: f71f 3bbb 8356 783c 49ec 8dbb c78d a83c
00000320: a2e6 7b3c 668b 923c 7bd8 2e3c de01 b83b
00000330: dda5 7b3c a29e 87bc 6523 a5bb 12f4 743c
00000340: d237 803c d75b babb 4705 14bb e268 a43b
00000350: b22c a4ba 652a 5fbb 17cc a8bb b29d 483c
00000360: 9b56 3c3b 47a4 5dbc c6d9 0fbc 978e c8bb
00000370: 9222 873a b3ba 543c f627 19bc 0f79 49bc
00000380: 81ae 3ebc 069a 30bc a457 533b 0794 00bc
00000390: fc9c 33bb b3b3 fdbb 1e79 a738 dd42 1fbc
000003a0: 6a45 0cbc 291f c13b 9854 c6ba df5f 8bbb
000003b0: 3b7b 93bb dec1 4dbc 2b58 45bb dd91 f93a
000003c0: 0eb1 07ba 16b4 13bc 37b2 d437 b81b 5b39
000003d0: 142c 85bb f7f0 703b 10d3 213a a57f 34bc
000003e0: 14ce b73b 9cc3 9839 b25a 3bbc 0015 1f38
000003f0: 5725 803c 6e58 a7ba 81b5 aabc a033 403c

lin2.bias f4 [32]
0.28525758 -0.026952391 -0.022338549 -0.05023946 0.009489142 -0.0076914695 -0.12201165 -0.018261952
-0.04491151 -0.011498431 -0.028071938 -0.0043734843 0.04083835 0.0095291985 -0.02247616 0.33438477
-0.08712372 -0.0037915371 -0.015576579 -0.12363683 -0.12169537 -0.0020174999 -0.0025433344 -0.036557186
0.0016866645 -0.09582588 -0.08899832 0.010014099 -0.12458527 -0.043055117 0.0010080242 -0.070845336
00000000: 480d 923e 43cb dcbc 55ff b6bc e4c7 4dbd
00000010: 5978 1b3c b908 fcbb 3ee1 f9bd 179a 95bc
00000020: 22f5 37bd ea63 3cbc 1ff7 e5bc 724f 8fbb
00000030: 1d46 273d 5b20 1c3c ed1f b8bc 7b34 ab3e
00000040: ec6d b2bd 707b 78bb e834 7fbc 4e35 fdbd
00000050: 6c3b f9bd 0838 04bb 12ae 26bb fdbc 15bd
00000060: 1213 dd3a 5c40 c4bd c044 b6bd 2d12 243c
00000070: 9026 ffbd 905a 30bd ae1f 843a 5c17 91bd

lin3.weight f4 [16, 32]
0.33205372 -0.047209922 -0.08725498 -0.0074001243 -0.022241551 -0.08351189 0.0023277232 0.19378498
-0.041896123 -0.004626637 -0.14025742 -0.024573855 -0.021301322 -0.010657951 -0.02717938 0.37915674
0.00960839 0.010030494 0.13408497 0.003731301 0.0037513657 -0.0471134 -0.01611043 0.27597544
0.018001132 0.0027360334 -0.0025050454 -0.0159448 -0.0046148957 0.0023863064 0.030416917 -0.0032920712
0.3627183 0.009578104 -0.039409928 0.010144111 -0.020163093 -0.060327657 -0.009715566 0.228502
-0.013080377 0.05801946 -0.08671323 -0.026595889 -0.028072352 -0.001366588 -0.018737383 0.40573198
-0.004755252 0.02819066 0.23499463 -0.0072700777 0.018581484 -0.010502789 0.00091298594 0.33357754
0.022983227 0.00035609413 0.0055749584 -0.021681406 -0.0019772137 0.00074409106 0.054513995 0.02094809
0.009383972 -0.00021730423 -0.007203346 0.0069986302 0.007934791 0.0054509924 0.009396186 -0.020852253
0.010336863 0.012948008 -0.007643977 0.00868325 0.015096806 -0.0076829945 0.00036861468 0.020259295
-0.009390152 -0.023392426 -0.018307071 0.018956706 -0.0019058558 -0.0035409345 0.0052169827 -0.0050320136
0.010561589 0.010326454 -0.0031910597 0.013651956 0.00032457392 -0.0051342044 0.00013925084 0.0026118066
0.013102006 0.0023346297 -0.00067627255 -0.0065954565 -0.0057815365 -0.0064788386 0.0109437425 -0.010298378
-0.00016774039 -0.0016943922 -0.0019027974 0.0034854885 0.0022806386 -0.030610966 0.004907308 0.0043747122
0.0019523624 -0.004276629 -0.0060754907 0.0075653964 -0.010036009 -0.0070435097 0.0018661802 0.004123017
-0.026227426 -0.0007732638 -0.0007864479 0.005420106 0.0006764161 -0.02486001 -0.01900817 0.0046686837
-0.0014694739 0.010760346 -0.01051145 -0.0026858246 -0.002649916 0.0076105255 0.0034844354 -0.0007497036
0.0077051083 0.005479919 0.01218377 0.0056314045 0.008628029 -0.0056949537 -0.006181601 -0.010641328
0.005016674 0.0020360174 0.0008997984 -0.012570268 -0.0009620109 -0.012327869 0.0057837907 0.0014904966
-0.008896701 0.0046751937 0.008080057 0.0010346767 0.02351793 -0.0038280673 0.005024908 0.020478155
-0.008781522 -0.010510556 0.005292505 -0.00976059 -0.010815635 0.01580302 -0.0048565255 0.00783664
0.018051516 0.00029720174 -0.012046552 -0.013825832 0.0040510856 -0.0015768566 0.014771441 0.015075235
-0.0009164991 0.003875336 -0.0026544335 -0.020634932 0.0153297875 -0.006980347 -0.015334944 0.014686402
0.011812867 0.0009620975 -0.0021426382 -0.006641771 -0.015961112 0.0075536883 0.0066586128 -0.008185434
0.34267917 -0.09149125 -0.113052 0.0062172017 -0.034681644 -0.122462586 -0.019012492 0.12773757
-0.10208855 -0.09415855 -0.21274658 -0.024848815 -0.04553891 -0.021620518 -0.037979662 0.28442824
-0.004120894 -0.0021060247 0.033223502 -0.014317851 0.021914093 -0.05669864 -0.04103467 0.18981522
-0.037768353 -0.0008737298 0.017298073 -0.025915409 0.0055167205 -0.012154722 0.003340055 0.012536336
-0.011164265 -0.0025842476 -0.005590708 -0.004169572 -0.0023830158 -0.0052523487 -0.0025016018 0.0021081092
-0.010759831 0.01754725 -0.012970454 0.01732052 0.0057846587 0.015179783 0.0009900233 0.006203345
-0.006508985 0.0061726677 -0.01467708 -0.0068859393 0.014623101 0.012805599 -0.0030812921 -0.007687641
-0.010504451 -0.0027904012 0.0029653523 -0.00036092306 -0.012628024 2.0928832e-05 -0.0173046 -0.008018941
00000000: f202 aa3e 315f 41bd bdb2 b2bd be7c f2bb
00000010: ea33 b6bc 4808 abbd b78c 183b 926f 463e
00000020: 459b 2bbd 0b9b 97bb a49f 0fbe 1c4f c9bc
00000030: 1c80 aebc b09e 2ebc 4ba7 debc d520 c23e
00000040: 826c 1d3c f156 243c 924d 093e d888 743b
00000050: 79d9 753b fbf9 40bd 05fa 83bc a74c 8d3e
00000060: 1c77 933c 064f 333b b02b 24bb ab9e 82bc
00000070: 8d38 97bb 9463 1c3b e62c f93c cabf 57bb
00000080: 37b6 b93e 7bed 1c3c 4e6c 21bd 7c33 263c
00000090: 122d a5bc 221a 77bd 0a2e 1fbc 6efc 693e
000000a0: 144f 56bc d0a5 6d3d b596 b1bd 9fdf d9bc
000000b0: fdf7 e5bc 161f b3ba 247f 99bc 1abc cf3e
000000c0: f2d1 9bbb 19f0 e63c 6fa2 703e d539 eebb
000000d0: 3238 983c e413 2cbc 7355 6f3a adca aa3e
000000e0: 5247 bc3c 25b2 ba39 24ae b63b 349d b1bc
000000f0: 2494 01bb 1b0f 433a 114a 5f3d 549b ab3c
00000100: 3bbf 193c 29dc 63b9 0c0a ecbb c454 e53b
00000110: ed00 023c 3d9e b23b 76f2 193c 58d2 aabc
00000120: f25b 293c e223 543c 547a fabb 3144 0e3c
00000130: 9858 773c a1c1 fbbb a042 c139 d2f6 a53c
00000140: 27d9 19bc 79a1 bfbc b6f8 95bc 184b 9b3c
00000150: e9cd f9ba 060f 68bb 39f3 aa3b 97e3 a4bb
00000160: 840a 2d3c 4a30 293c 1921 51bb 74ac 5f3c
00000170: 932b aa39 d43c a8bb dd03 1239 d82a 2b3b
00000180: cca9 563c 9600 193b e247 31ba b31e d8bb
00000190: 0b73 bdbb 704c d4bb 624d 333c 87ba 28bc
000001a0: 78e3 2fb9 5e16 deba 4967 f9ba cb6c 643b
000001b0: c476 153b d9c3 fabc 7ccd a03b bf59 8f3b
000001c0: 69e6 ff3a f722 8cbb e914 c7bb 25e7 f73b
000001d0: 136e 24bc 3ecd e6bb 9e9a f43a 601a 873b
000001e0: e6da d6bc dbb4 4aba a029 4eba 259b b13b
000001f0: 8451 313a 38a7 cbbc 06b7 9bbc c2fb 983b
00000200: 5d9b c0ba 2a4c 303c 3738 2cbc a904 30bb
00000210: 37aa 2dbb b761 f93b 205b 643b c287 44ba
00000220: 227b fc3b e490 b33b 6f9e 473c a587 b83b
00000230: 945c 0d3c bc9c babb 078f cabb f758 2ebc
00000240: e962 a43b b46e 053b 73e0 6b3a 86f3 4dbc
00000250: 752f 7cba d5fa 49bc f485 bd3b c45c c33a
00000260: 78c3 11bc 5e32 993b 3762 043c fd9d 873a
00000270: ada8 c03c 50e0 7abb fca7 a43b cec1 a73c
00000280: 5fe0 0fbc 7834 2cbc c06c ad3b e2ea 1fbc
00000290: 1034 31bc 5675 813c 7d23 9fbb 4065 003c
000002a0: c6e0 933c bed1 9b39 e75e 45bc be85 62bc
000002b0: f8be 843b 87ae ceba ea03 723c 1efe 763c
000002c0: 3741 70ba 59f9 7d3b 01f6 2dbb 970a a9bc
000002d0: ca29 7b3c 65bb e4bb 6b3f 7bbc 3c9f 703c
000002e0: c18a 413c 4535 7c3a 816b 0cbb 37a3 d9bb
000002f0: e1c0 82bc ee84 f73b 7e30 da3b 331c 06bc
00000300: a573 af3e c45f bbbd cf87 e7bd abb9 cb3b
00000310: 570e 0ebd aacd fabd 16c0 9bbc a3cd 023e
00000320: cd13 d1bd 33d6 c0bd 3dda 59be be8f cbbc
00000330: 0287 3abd 831d b1bc 9090 1bbd 94a0 913e
00000340: 9008 87bb 3b05 0abb 5e15 083d 6b95 6abc
00000350: 2f85 b33c d53c 68bd f813 28bd ec5e 423e
00000360: fdb2 1abd 040b 65ba b0b4 8d3c 8d4c d4bc
00000370: 9bc5 b43b 9924 47bc d3e4 5a3b 3465 4d3c
00000380: 52ea 36bc 7b5c 29bb 4232 b7bb e8a0 88bb
00000390: 5f2c 1cbb e51b acbb eaf1 23bb 3428 0a3b
000003a0: 014a 30bc 40bf 8f3c 0782 54bc c3e3 8d3c
000003b0: 3c8d bd3b a0b4 783c abc3 813a 6e45 cb3b
000003c0: 5349 d5bb 1744 ca3b 2378 70bc 72a3 e1bb
000003d0: bb95 6f3c 93ce 513c 81ef 49bb 9be8 fbbb
000003e0: dc1a 2cbc 2adf 36bb 5b56 423b 463a bdb9
000003f0: c6e5 4ebc 5390 af37 60c2 8dbc e061 03bc

lin3.bias f4 [16]
0.12954603 0.11579928 -0.10058906 -0.09522509 -0.14392893 -0.104118876 0.17605543 -0.018362671
-0.15711401 0.25032276 -0.15311962 -0.0626555 -0.16170068 0.22909093 -0.013491854 0.2842398
00000000: b7a7 043e 2c28 ed3d a301 cebd 5f05 c3bd
00000010: 1b62 13be 473c d5bd e047 343e 506d 96bc
00000020: 7fe2 20be 4e2a 803e 64cb 1cbe 8751 80bd
00000030: dd94 25be d096 6a3e f00c 5dbc e187 913e

lin4.weight f4 [32, 16]
-0.2073511 -0.2151701 -0.00580499 -0.0013908481 0.0104402015 0.003098255 -0.20250504 0.006532007
-0.007698142 0.11823199 -0.0075443094 0.010480437 0.010603389 0.054021064 0.014271 0.07939592
0.011710491 -0.014447796 -0.0017761381 -0.017122073 -0.00024598648 0.0028425504 -0.011138492 -0.00013402184
0.010501806 -0.0066957846 -0.014489616 -0.0041276813 -0.0138011165 0.015819388 0.01002491 0.0096041085
-0.22300658 -0.23602937 -0.004120715 -0.0053311484 0.01611957 -0.0038296029 -0.2229825 0.008342355
0.0071042385 0.100720614 -0.012746289 -0.0043920195 0.014492225 0.17414245 -0.00093377527 0.20024815
-0.0061512487 -0.0059837596 -0.0047906744 -0.020946898 0.025857827 -0.016116394 -0.00041626746 0.024995739
0.001624945 0.027980145 -0.015314398 0.010165202 0.0034193872 -0.021355819 0.018454062 0.016932422
0.0047946624 0.012131752 0.0041714017 0.0028180736 -0.0033208337 -0.012089054 0.0089655435 0.0050525838
-0.0014704892 -0.0034323826 0.010243841 -0.009950147 -0.0018985843 -0.008626203 -0.00054077804 0.011570145
0.052857947 0.10492128 -0.0014731266 0.0025691094 0.0010905787 -0.009188125 -0.0051571773 -0.010053019
-0.00851868 -0.25537878 -0.0024147183 -0.016305743 -0.016349582 -0.33544323 -0.00751002 -0.3658062
-0.060303345 -0.013787143 -0.007297702 0.0032111963 0.020524394 0.015337232 -0.0928441 -0.010456271
-2.4427727e-05 -0.18120314 0.008560059 -0.011425588 -0.01744303 -0.30389398 -0.001789041 -0.29109973
0.008927917 0.000175582 0.019248005 0.0060468423 0.0041876477 0.007979146 -0.011851847 -0.009980172
-0.015339405 0.0064530764 -0.010493787 -0.0017616922 0.0078108166 0.0010846809 -0.011752752 -0.008787136
0.04140435 0.102404624 0.006499039 0.0067756474 -0.020609094 0.004208593 -0.015293814 -0.005467562
0.0023235157 -0.23181091 0.010074536 -0.005823249 -0.00048928097 -0.41176936 0.009215459 -0.38015062
0.023368452 0.000119883334 -0.0063593513 -0.0018836638 0.01628794 -0.0072248564 0.0055967495 0.009324425
-0.009550435 -0.0122368075 0.0064667985 0.0015457836 -0.01513023 -0.010925491 -0.009673362 0.008350359
0.0013694593 0.012260799 -0.002054945 -0.0059532756 0.016342694 0.0030026427 -0.009950335 0.009991187
0.0005712617 -0.0072370726 0.006757743 -0.012331985 -0.010514457 0.0030283844 0.0046432777 0.0019434602
-0.14343487 -0.1403929 0.008013344 -0.0086006215 0.008713365 -0.007868055 -0.15309383 -0.001448093
0.0079759 -0.030305848 0.01062726 0.00028900555 -0.009463796 -0.011432986 0.022829318 0.014327802
-0.004195745 -0.018304829 0.011651703 -0.0071304617 0.0062308293 0.009669423 0.0051448676 -0.0024143695
-0.0021519836 -0.0002446913 8.995395e-05 0.0075880103 -0.0015810443 -0.005764113 5.853588e-06 -0.01023153
-0.20097381 -0.21632004 0.0054246923 -0.00016201171 -0.01082692 0.010061307 -0.18286946 -0.0003005231
-0.0075830966 0.113204315 -0.0033899364 0.020427432 0.0073698363 0.03269154 0.009490274 0.08475035
-0.031937547 0.01568508 -0.0090136845 -0.019608974 -0.008442417 0.0060391375 -0.1009229 0.0005993828
0.005305584 -0.21529624 0.0011815466 -0.006704252 -0.0029364482 -0.31562704 -0.0006509422 -0.33035025
-0.007976257 -0.01835668 0.0031748835 -0.0042995904 0.011496041 -0.0104373135 0.005623284 0.01027841
-0.0043102177 0.005284957 0.008566677 -0.020274734 0.0060245954 0.0009491039 -0.00045200548 0.0042010588
00000000: d953 54be 8d55 5cbe c937 bebb 1e4d b6ba
00000010: 610d 2b3c 180c 4b3b 7b5d 4fbe 720a d63b
00000020: b240 fcbb 9d23 f23d 4136 f7bb 24b6 2b3c
00000030: d6b9 2d3c 3145 5d3d ead0 693c 549a a23d
00000040: 5cdd 3f3c 73b6 6cbc 4ecd e8ba 9743 8cbc
00000050: bff7 80b9 154a 3a3b 397e 36bc 3788 0cb9
00000060: c40f 2c3c 5068 dbbb db65 6dbc 8041 87bb
00000070: 141e 62bc a997 813c 853f 243c 8d5a 1d3c
00000080: d65b 64be afb1 71be 1007 87bb eab0 aebb
00000090: 300d 843c 13fa 7abb 8655 64be 5fae 083c
000000a0: acca e83b 9c46 ce3d d0d5 50bc eeea 8fbb
000000b0: cc70 6d3c 6652 323e 99c8 74ba da0d 4d3e
000000c0: 6a90 c9bb 6a13 c4bb 17fb 9cbb d498 abbc
000000d0: cbd3 d33c 8706 84bc 793e dab9 ddc3 cc3c
000000e0: 1bfc d43a 9e36 e53c 3ee9 7abc f38b 263c
000000f0: cc17 603b 66f2 aebc f92c 973c ddb5 8a3c
00000100: 8b1c 9d3b 42c4 463c 41b0 883b 6eaf 383b
00000110: 58a2 59bb 2b11 46bc 37e4 123c 2590 a53b
00000120: 6ebd c0ba d3f1 60bb c9d5 273c f105 23bc
00000130: ebd9 f8ba eb54 0dbc 00c3 0dba b590 3d3c
00000140: 9381 583d f8e0 d63d ed15 c1ba 815e 283b
00000150: c0f1 8e3a ca89 16bc 8afd a8bb 6bb5 24bc
00000160: ef91 0bbc 02c1 82be 4040 1ebb 9f93 85bc
00000170: 8fef 85bc 37bf abbe 9d16 f6bb f34a bbbe
00000180: a400 77bd 78e3 61bc 9021 efbb ef72 523b
00000190: c622 a83c 0349 7b3c 0c25 bebd c750 2bbc
000001a0: 25ea ccb7 518d 39be 7d3f 0c3c 6432 3bbc
000001b0: afe4 8ebc fe97 9bbe 417e eaba 060b 95be
000001c0: 6646 123c 6f1c 3839 fead 9d3c 9724 c63b
000001d0: 8938 893b f7ba 023c 402e 42bc e083 23bc
000001e0: 2152 7bbc 5474 d33b 22ee 2bbc 95e8 e6ba
000001f0: e1f1 ff3b da2b 8e3a 9d8e 40bc ebf7 0fbc
00000200: 9c97 293d 84b9 d13d e4f5 d43b 4006 de3b
00000210: 67d4 a8bc 3de8 893b e892 7abc 3c29 b3bb
00000220: 2046 183b d75f 6dbe ab0f 253c f4d0 bebb
00000230: 1743 00ba 6fd3 d2be 70fc 163c 1aa3 c2be
00000240: 326f bf3c e069 fb38 1b62 d0bb 45e5 f6ba
00000250: 496e 853c 7dbe ecbb f064 b73b 79c5 183c
00000260: 6d79 1cbc e47c 48bc 70e7 d33b e49b ca3a
00000270: c9e4 77bc d500 33bc 057d 1ebc f2cf 083c
00000280: 6e7f b33a 85e1 483c 42ac 06bb b213 c3bb
00000290: 1de1 853c fcc7 443b bb06 23bc 13b2 233c
000002a0: b9c0 153a f724 edbb 0f70 dd3b 180c 4abc
000002b0: d444 2cbc dc77 463b a326 983b b4bb fe3a
000002c0: 97e0 12be 28c3 0fbe 674a 033c 9fe9 0cbc
000002d0: 80c2 0e3c 04e9 00bc a1c4 1cbe f0cd bdba
000002e0: 59ad 023c f843 f8bc f61d 2e3c ab85 9739
000002f0: 0a0e 1bbc 6b51 3bbc 8d04 bb3c 28bf 6a3c
00000300: 767c 89bb 02f4 95bc c9e6 3e3c a6a6 e9bb
00000310: fc2b cc3b 806c 1e3c 4796 a83b 663a 1ebb
00000320: 4b08 0dbb e949 80b9 a9a5 bc38 d8a4 f83b
00000330: 0b3b cfba e2e0 bcbb f069 c436 26a2 27bc
00000340: 14cc 4dbe 0083 5dbe 9ec1 b13b b0e1 29b9
00000350: 6563 31bc 2ed8 243c 2242 3bbe 878f 9db9
00000360: a07b f8bb aad7 e73d b229 5ebb 6e57 a73c
00000370: ab7e f13b 90e7 053d 187d 1b3c 9791 ad3d
00000380: f2d0 02bd ff7d 803c 22ae 13bc 00a3 a0bc
00000390: 1052 0abc f5e3 c53b aab0 cebd e61f 1d3a
000003a0: 77da ad3b 9e76 5cbe 20de 9a3a 58af dbbb
000003b0: 6d71 40bb de99 a1be fea3 2aba ab23 a9be
000003c0: d9ae 02bc c060 96bc b511 503b 94e3 8cbb
000003d0: e459 3c3c 4401 2bbc 8643 b83b c766 283c
000003e0: ba3c 8dbb 6f2d ad3b 3f5b 0c3c 3317 a6bc
000003f0: f869 c53b 49cd 783a 26fb ecb9 09a9 893b

lin4.bias f4 [32]
0.5132281 -0.10343984 0.4543424 -0.1048066 -0.23448992 0.48941597 0.52398676 -0.02287677
0.54594153 -0.24434301 -0.114592075 0.4217895 -0.05979541 0.50348926 0.5568801 -0.24764341
0.46384716 0.5286762 0.50909346 0.6195465 0.48152855 -0.2435619 -0.16097161 0.35111988
-0.09759143 -0.028915912 0.5265818 0.42171606 0.4438638 0.5686232 0.59984 -0.0228163
00000000: eb62 033f 44d8 d3bd 919f e83e d8a4 d6bd
00000010: 201e 70be bb94 fa3e ff23 063f 1068 bbbc
00000020: d3c2 0b3f 0e35 7abe 40af eabd cbf4 d73e
00000030: 08ec 74bd ace4 003f b28f 0e3f 3c96 7dbe
00000040: 607d ed3e 5357 073f f353 023f 999a 1e3f
00000050: e98a f63e 4a68 79be bed5 24be fcc5 b33e
00000060: 04de c7bd 10e1 ecbc 11ce 063f 2beb d73e
00000070: 1e42 e33e 4a91 113f 1d8f 193f 40e9 babc

lin5.weight f4 [5, 32]
-0.511871 0.004186026 -0.5747341 -0.0075784735 -0.00368321 0.1979699 0.038230896 -0.0042157616
0.18089522 -0.0065287845 -0.0038158281 -0.3797802 -0.010079829 -0.5555443 0.07300792 -0.0074398825
-0.4351346 -0.2702023 -0.46529016 0.328627 -0.417782 0.002518871 0.004459992 -0.3014962
0.0027946627 0.013236719 -0.48854953 -0.44150627 -0.52123344 0.12930758 0.09205412 0.0014902788
-0.13837802 -0.004065415 -0.0821313 -0.009219244 0.0053209513 -0.45934457 -0.420105 0.0045100055
-0.4684869 0.0077990615 -0.011247862 -0.2792442 0.0077704494 -0.1392778 -0.41331792 -0.011983984
-0.1300131 -0.27417403 -0.1525506 -0.4940246 -0.20288695 -0.0061063073 0.010711628 -0.39729697
0.007341383 -0.0155227315 -0.14831027 -0.20164043 -0.050161265 -0.41365796 -0.4109517 -0.055833954
-0.015260824 0.008130084 0.008519454 -0.004695374 0.00063528 0.0022699095 -0.009687078 -0.0022176781
0.020908361 -0.001274134 -0.0012944468 0.01897642 -0.0055180686 -0.006802974 -0.014135057 0.011240981
-0.02224208 -0.009882352 -0.021455405 0.0068429094 0.01642714 -0.0010225421 0.00046227343 0.020275038
0.009660993 0.016916234 -0.0066661607 0.0017707483 0.0050373725 -0.013740151 -0.0069788517 -0.021879952
-0.0039974726 -0.015403375 0.007160064 -0.00030379737 0.011028959 -0.0015082513 -0.0052397707 -0.0063397484
0.020275284 -0.013097729 0.0068308376 -0.0027332923 -0.00025836824 -0.011881158 0.007495775 -0.0035652593
-0.005660764 -0.0020229216 -0.0013370246 0.00021508656 0.0071588582 0.008094955 0.007850361 -0.0025715327
-0.006803617 -0.005638619 -0.021202194 0.0011446296 -0.003145392 -0.0055384054 -0.016008679 -0.013888048
-0.0061743744 0.012773567 -0.00017539444 0.0048328442 -0.004819525 0.013574114 -0.010904528 0.021333946
-0.015233123 0.018297246 0.0026040007 -0.037053455 -0.010061988 0.002501866 0.009653709 0.003954968
0.0029111342 0.0070949527 -0.011274363 0.003955758 -0.0007342374 -0.002879356 -0.007826686 -0.03817531
0.00356559 0.0023933426 0.0075207297 -0.025708336 0.02229065 0.0039377403 0.0069789146 0.034222458
00000000: fa09 03bf ee2a 893b c621 13bf d854 f8bb
00000010: 0262 71bb 9fb8 4a3e 0098 1c3d 5f24 8abb
00000020: 993c 393e 6aef d5bb f912 7abb 8d72 c2be
00000030: de25 25bc 2738 0ebf 2d85 953d 42ca f3bb
00000040: f6c9 debe f557 8abe 833a eebe cc41 a83e
00000050: 86e7 d5be a513 253b 2025 923b b65d 9abe
00000060: a926 373b d3de 583c 2a23 fabe 1c0d e2be
00000070: 8e6f 05bf 3569 043e df86 bc3d 7555 c33a
00000080: f8b2 0dbe 2c37 85bb 7434 a8bd 500c 17bc
00000090: 605b ae3b 362f ebbe 0118 d7be abc8 933b
000000a0: 84dd efbe 458f ff3b f448 38bc 19f9 8ebe
000000b0: 419f fe3b d79e 0ebe 689e d3be 7958 44bc
000000c0: 2722 05be 8a60 8cbe 3936 1cbe cbf0 fcbe
000000d0: 99c1 4fbe 6b17 c8bb d37f 2f3c 826a cbbe
000000e0: fc8f f03b 0e53 7ebc a6de 17be d47a 4ebe
000000f0: e675 4dbd faca d3be 4368 d2be 25b2 64bd
00000100: 8908 7abc 0b34 053c 2e95 0b3c a7db 99bb
00000110: eb88 263a c3c2 143b 8db6 1ebc 7756 11bb
00000120: 0348 ab3c d800 a7ba 6daa a9ba 7074 9b3c
00000130: ead0 b4bb 7beb debb ba96 67bc 172c 383c
00000140: 0635 b6bc 97e9 21bc 3fc3 afbc 7c3a e03b
00000150: 3692 863c d206 86ba 4a5d f239 d617 a63c
00000160: 2449 1e3c ea93 8a3c cf6f dabb 7418 e83a
00000170: 8b10 a53b 5f1e 61bc daae e4bb 963d b3bc
00000180: 3bfd 82bb 705e 7cbc f89e ea3b fe46 9fb9
00000190: cfb2 343c 84b0 c5ba 62b2 abbb aabd cfbb
000001a0: 5a18 a63c db97 56bc 38d5 df3b 0921 33bb
000001b0: 9975 87b9 30a9 42bc 1e9f f53b 20a7 69bb
000001c0: ee7d b9bb fe92 04bb 1a3f afba dc88 6139
000001d0: db94 ea3b b4a0 043c cd9e 003c 2987 28bb
000001e0: e0f0 debb 2ac4 b8bb 39b0 adbc 6507 963a
000001f0: ec22 4ebb 837b b5bb a224 83bc b28a 63bc
00000200: 6852 cabb 3948 513c 16ea 37b9 d65c 9e3b
00000210: 1bed 9dbb f665 5e3c e8a8 32bc 87c4 ae3c
00000220: 5994 79bc 1be4 953c e2a7 2a3b 5dc5 17bd
00000230: 09db 24bc 59f6 233b 972a 1e3c ad98 813b
00000240: bac8 3e3b c77c e83b 1bb8 38bc 4e9f 813b
00000250: d679 40ba 94b3 3cbb 803b 00bc b75d 1cbd
00000260: acac 693b a0d9 1c3b 7470 f63b 4a9a d2bc
00000270: e29a b63c 2908 813b 61af e43b d92c 0c3d

lin5.bias f4 [5]
0.36285982 0.8427016 0.008765008 0.009280188 0.0065888753
00000000: c3c8 b93e 4bbb 573f 1c9b 0f3c ee0b 183c
00000010: 7ee7 d73b
