ckpts/mtfnn_msr_80c.pt (torch, 9569 bytes, 8 tensors)

lin1.weight f4 [8, 80]
000000 1b 8f 16 3c 81 94 43 bb 22 48 ca 3c b5 5f 17 3b
       0.009189392 -0.0029843154 0.024692599 0.0023097817
000010 8e 5d 8f bc 32 c6 a7 bb cc df eb ba 48 01 71 3c
       -0.017500665 -0.0051200623 -0.0017995774 0.014709778
000020 70 64 d4 bb 36 89 64 bc 36 4d cb 3a 2c 37 22 3b
       -0.0064816996 -0.013948729 0.0015510682 0.0024752123
000030 64 11 4e 3a ad 20 b4 bb 1b 63 b8 b8 bb b1 9a bb
       0.0007860868 -0.0054970593 -8.7922635e-05 -0.004720894
000040 fc ff 3a bc ce d1 89 bc 3a 2e 29 3c bb 13 01 bc
       -0.0114135705 -0.016823675 0.010325963 -0.007878239
000050 19 1d bb bb 89 14 11 bc f4 1a 4b bc c7 b4 3e 3c
       -0.005710256 -0.008854994 -0.012396563 0.01163978
000060 56 e9 a6 bb 7f 65 ac 3b d6 e8 2f ba ee 83 ff 3b
       -0.005093734 0.0052611227 -0.00067104155 0.0077977097
000070 3c 36 9a 3b 2f 4a 68 bc 84 b4 0e 3c f9 e6 24 3c
       0.0047061723 -0.014177843 0.0087100305 0.010064834
000080 a5 aa ea 3c 58 02 cc bb 13 fc 71 3b 0e 1b 43 bc
       0.028645823 -0.0062258653 0.003692393 -0.011908306
000090 ee ef 85 3c 1c 20 96 3c 39 e6 ce bb f3 0c b2 bb
       0.016349759 0.018325858 -0.006314066 -0.0054336726
0000a0 37 ae 0c bc 67 50 88 bc 57 84 28 bb 7f db 82 3c
       -0.008586458 -0.016639901 -0.0025713646 0.015973805
0000b0 28 b6 58 3c ab a7 96 bc ec 50 3b bb 4d 8a e3 bb
       0.013227023 -0.018390497 -0.0028582169 -0.006943977
0000c0 3b a7 75 3b bb 01 73 bc 4b 23 07 3c 0a 39 bf ba
       0.003748371 -0.014831956 0.008248161 -0.0014589143
0000d0 e5 75 30 3c 4e 46 ab bb 2c a1 37 3c 84 9e 82 ba
       0.010770296 -0.005226887 0.01120786 -0.0009965454
0000e0 c1 2c 0f bc 1f 7f 2b 3c 02 6e 3d 3c b6 f4 2b 3a
       -0.0087386975 0.01046732 0.011561872 0.0006559597
0000f0 ce 13 0c 3c d2 4f 8a bc 39 7f 95 3b 78 e7 ab bb
       0.008549644 -0.016883764 0.0045622853 -0.005246099
000100 bb 4a 70 bb 9d c8 b0 bb 08 f0 d1 3b c6 fa 02 bc
       -0.0036665637 -0.0053950087 0.006406788 -0.007994359
000110 ef f5 21 3c 10 2d 5e bb 1e 40 51 bc 78 f6 8a 3b
       0.009885295 -0.003390137 -0.012771634 0.004240807
000120 7d 56 1a 3b 30 ec 4f bc 17 69 3d 3c 8b e8 97 bb
       0.0023550086 -0.012690589 0.0115607 -0.0046358756
000130 8f 4f 8b bb 4d 6a c6 bb 1e 57 9b 3c 2c 73 96 3b
       -0.0042514275 -0.0060551525 0.01896244 0.0045913663
000140 91 c3 18 3c 09 82 01 3e 16 2c 77 bc 7d b6 30 3e
       0.00932397 0.1264726 -0.0150861945 0.17257114
000150 c6 6f de 3c de da 15 bd 83 52 2b 3d e4 1d 56 bc
       0.027152907 -0.03658568 0.041826736 -0.01306865
000160 c1 4d 15 be 2e c9 ed bd 9b 5e 3d 3e 06 df 7d bd
       -0.14580442 -0.116106376 0.1849312 -0.06198027
000170 4b 25 0b 3e 88 13 51 3d 0a ea 2e 3d a3 06 f3 3d
       0.13588445 0.051044017 0.042703666 0.118665
000180 ef 34 84 bd ff 77 8c 3d fe 27 c8 3d 1e 8d f7 bd
       -0.06455409 0.06858825 0.09773253 -0.12087463
000190 7c ef cf bd 2c 4a 34 be 43 35 85 bd f2 80 ce 3d
       -0.101531 -0.1760642 -0.065042995 0.10083188
0001a0 37 16 1f 3e 3e bb 3a 3d 01 b8 24 bd a5 3d 38 3e
       0.15535818 0.045588724 -0.040214542 0.17992266
0001b0 7c 3e c5 bc 26 d4 78 bd 07 62 9a bb 61 67 01 3e
       -0.024077646 -0.060749196 -0.004711393 0.12637092
0001c0 6e 1b 0e bd 30 9a b4 3d 68 3c d6 3d c9 33 20 be
       -0.034694128 0.088184714 0.1046074 -0.15644754
0001d0 f1 b0 5d 3d c2 25 3c bc ff 02 b9 3d dc 6d 16 be
       0.054123823 -0.011483612 0.090337746 -0.14690346
0001e0 ab f8 ea bd b5 cd 97 3d 61 31 3e 3d 63 9d 14 3e
       -0.11473211 0.074122824 0.04643381 0.14513163
0001f0 9a bd 9e 3d 7d 6c 1f be c1 56 6a bd 11 ef 02 3d
       0.077510074 -0.15568729 -0.05721164 0.031966273
000200 58 c4 5e bb 6f 5b 01 be d4 4e 12 be 54 8e 0c be
       -0.0033991542 -0.12632535 -0.14287883 -0.13726169
000210 58 ff 13 bd 65 07 1e 3e 74 06 f7 bd 23 c9 8d 3d
       -0.036132187 0.15432508 -0.12061778 0.069231294
000220 26 ad 4b 3d 11 37 a3 bd dd 07 97 bc f6 04 d5 3d
       0.049725674 -0.079694875 -0.018436367 0.10401337
000230 39 f9 a7 3c c5 b3 e7 3d 1c 66 4f 3d 35 26 71 3d
       0.02050458 0.11313585 0.05063449 0.058874328
000240 75 19 c7 bd 34 8b 06 be c5 54 20 3e 7b d9 19 3e
       -0.097216524 -0.1313904 0.15657337 0.15024368
000250 50 4b 1f 3c 88 fb 38 3c b9 d9 cd 3c de 9e 4c bb
       0.009722546 0.0112904385 0.025128232 -0.0031222622
000260 bd 0d 22 bb 02 5b a3 3c e2 79 36 3e fd 35 ee 3d
       -0.0024727427 0.019940857 0.17819932 0.11631391
000270 20 d9 02 3d c2 86 42 bc 68 9d 93 3d 3b c1 8b bb
       0.031945348 -0.011872949 0.07207757 -0.004264978
000280 35 76 07 bc 08 f9 18 3e 2d 0e 79 bc 53 76 43 3e
       -0.008267929 0.14938748 -0.015201134 0.19088106
000290 db d7 15 3d 2c 89 84 bd 94 87 12 3d 14 42 75 bc
       0.03658281 -0.06471476 0.03577383 -0.0149693675
0002a0 c1 53 2b be 2e 82 19 be 48 ac 63 3e b3 fb ae bd
       -0.16731168 -0.14991066 0.22233689 -0.085441016
0002b0 69 31 26 3e e6 87 50 3d a3 22 09 3d 6e 99 0d 3e
       0.16229786 0.050910853 0.033480298 0.1382806
0002c0 c4 d6 a9 bd 5f eb a7 3d ea b7 ff 3d 0a 4e 0a be
       -0.082929164 0.0819919 0.12486251 -0.13506332
0002d0 6c 83 f1 bd 84 c0 4f be bf 91 78 bd 64 d4 19 3e
       -0.11792645 -0.20288283 -0.06068587 0.15022427
0002e0 c5 55 43 3e 9a 2b 60 3d ac e2 6d bd 1f 5a 46 3e
       0.19075687 0.05472908 -0.0580775 0.19370316
0002f0 b2 44 1b bd 9d 92 85 bd 9d 59 74 ba 51 2c 0e 3e
       -0.03790731 -0.06522105 -0.0009321215 0.13884093
000300 04 34 41 bd 18 4c be 3d 9e 18 0e 3e dd 37 3d be
       -0.047168747 0.092918575 0.13876578 -0.18478341
000310 3e 87 c3 3d 4f 6f 8a bc db d9 e4 3d 1a 86 34 be
       0.0954728 -0.01689878 0.11174365 -0.1762928
000320 f6 75 0e be 53 5c 9a 3d 4b 51 27 3d bc 93 2a 3e
       -0.13912186 0.07537141 0.04084901 0.16657919
000330 03 4e b2 3d c7 bf 2e be 6b 0d 9b bd 4a 3a 49 3d
       0.08706286 -0.17065345 -0.07570919 0.049127854
000340 de 73 62 3b 3d 32 1c be 61 c6 2f be 6e 46 1f be
       0.0034553926 -0.1525354 -0.1716552 -0.1555421
000350 fc 89 31 bd e1 46 35 3e 6e 56 23 be 70 0b c7 3d
       -0.043344483 0.1770282 -0.15950939 0.097189784
000360 74 50 54 3d f8 98 9e bd 98 83 e2 bc 53 24 e7 3d
       0.05183454 -0.0774402 -0.02765064 0.11286225
000370 ae d2 03 3d d7 81 07 3e 37 e7 49 3d f5 6d 6c 3d
       0.03218334 0.13233124 0.04929277 0.05772205
000380 11 9e e7 bd 28 a5 1e be 4c a5 30 3e 11 9b 39 3e
       -0.11309446 -0.1549269 0.17250556 0.1812556
000390 e7 14 8d 3c e0 2d bf 3a e0 d4 e0 3c d1 8a 5c bc
       0.017221881 0.0014585815 0.027445257 -0.013460831
0003a0 bc 4b a8 bc 51 51 65 3c 2d 06 62 3e 4c 6d 19 3e
       -0.020543925 0.013996438 0.22072668 0.149831
0003b0 6e fd 0a 3d a1 4b ac bb 63 ee bb 3d c3 b4 2e bb
       0.033933096 -0.005258039 0.09176328 -0.0026658035
0003c0 67 41 32 bd e7 7a 89 3b 72 4d 8a bc 22 3f 4e 3c
       -0.043519404 0.0041955593 -0.016882632 0.012588294
0003d0 7e 0a bf bb a8 64 a9 bc 36 47 b7 3a 2d d7 b2 b9
       -0.005830108 -0.02067788 0.0013983015 -0.00034111124
0003e0 00 25 1c bd 8a 06 12 bd 33 66 f3 3a b1 17 02 bd
       -0.038121223 -0.035650767 0.0018569886 -0.031760875
0003f0 ea db 05 b9 2d 55 5f 3b 7f ba 72 bb fa 9c 71 bb
       -0.00012765793 0.0034077868 -0.003703743 -0.0036867247

lin1.bias f4 [8]
000000 19 db a8 bd 03 2b 97 3d 97 b0 05 3e f5 d6 c2 bc
       -0.082449146 0.07381251 0.13055645 -0.02378414
000010 97 83 1c bd ec 0a 05 3d d1 c8 38 bd ca 66 8b 3d
       -0.03821143 0.03248112 -0.04511339 0.06806715

lin2.weight f4 [16, 8]
000000 6a 6b 6f bc 7b 59 37 3e bf 64 56 3e 72 6c 24 3c
       -0.014613012 0.17905228 0.20936869 0.010035621
000010 3b 82 9d 3c 91 24 bb be cc 8c 88 bb 8a 3b 4a 3e
       0.019227138 -0.36551335 -0.004167175 0.19749275
000020 64 ec 87 3c 24 5f 1e 3e c6 38 4a 3e 47 db 31 bc
       0.016592212 0.15465981 0.1974822 -0.010855502
000030 6b 72 c2 3c 65 70 ab be 3e 18 c1 ba 05 57 36 3e
       0.0237362 -0.33484188 -0.0014731956 0.17806633
000040 3f c2 0a 3c 4b 5f 22 3e 60 de 3d 3e 77 d4 5d bc
       0.008469163 0.15856664 0.1854186 -0.013539425
000050 da 53 5f 3b 55 d4 67 be c9 6f a2 3b ad ca 41 3e
       0.003407708 -0.22639592 0.0049571735 0.18924971
000060 31 be c6 bb ff e0 2f 3e 9b e6 54 3e a4 3f 26 bc
       -0.006065153 0.17175673 0.20791094 -0.010147009
000070 0a 07 78 b9 1a 98 75 be 09 34 f0 3c 89 e9 4b 3e
       -0.00023653745 -0.23983803 0.029321687 0.19913305
000080 4a b8 d0 bb 6a 80 23 3e 7e dd 55 3e 35 43 fb bc
       -0.006369625 0.15966955 0.20885274 -0.030671695
000090 ce 03 44 3c 08 87 6f be 4c e8 d5 bb 40 6c 4d 3e
       0.011963798 -0.23391354 -0.006527936 0.20060825
0000a0 aa 59 fa 3b ee ae 26 bc 9c 4f 3b bc bd cc 81 3b
       0.0076400833 -0.010173542 -0.011432555 0.0039611743
0000b0 5e 6f 60 3c 79 80 96 3b 04 61 15 bc 72 5e 90 38
       0.013698427 0.004592952 -0.009117369 6.884047e-05
0000c0 eb b4 02 bc 7b f7 23 3e 98 47 52 3e a0 a3 a2 bb
       -0.0079777045 0.16012375 0.20535123 -0.0049633533
0000d0 1b 0f 56 3b 3d 23 83 be 57 45 10 bb 13 f5 41 3e
       0.0032662812 -0.25612822 -0.0022013986 0.18941145
0000e0 1d 53 3e 3b b2 ba d3 bb 47 5d 8f bb 82 25 01 b7
       0.0029041239 -0.006461465 -0.004375133 -7.697732e-06
0000f0 87 04 83 3c 7a 21 0e bc dc c3 7f 3c 46 ef 3e bb
       0.01599337 -0.008674974 0.015610661 -0.0029134317
000100 44 86 5b bc f4 8a 2d 3a 3b 3a 09 bc 95 d0 c7 3b
       -0.013398711 0.0006620132 -0.0083757 0.006097863
000110 1c 98 b1 bb fc d6 d6 bb eb a1 d2 3b d4 fd 1c bc
       -0.005419744 -0.00655639 0.0064279935 -0.009582002
000120 f4 0f 71 bc 44 6a 2d 3e 74 3a 44 3e 8a 53 b9 bc
       -0.014713276 0.16935068 0.19162923 -0.022622842
000130 11 4f 23 3c 67 7c 9b be b5 12 85 bc ab bb 33 3e
       0.009967581 -0.3036835 -0.016244272 0.17552058
000140 42 a4 9b bc a4 cc d0 bb 4a 82 66 3b 7c 9a 3e 3b
       -0.018999223 -0.0063720513 0.0035172873 0.002908378
000150 41 55 4e 3c ef ec 13 bc 92 11 4f 3c 99 bc 85 bc
       0.012593568 -0.009028657 0.012638466 -0.016325282
000160 13 fc 1a bc e1 8d 48 3a 80 35 fb 3a 66 e5 be 3c
       -0.009459513 0.0007650536 0.0019165725 0.023302745
000170 a3 b4 a3 3b 50 96 93 3b 7d cf d4 3c d2 99 59 3a
       0.004995899 0.0045040026 0.025977844 0.0008300814
000180 62 ef 3a 3a 43 60 1c 3e d9 52 43 3e c1 71 84 ba
       0.0007131008 0.15271096 0.19074573 -0.0010104702
000190 97 2f 15 bc 42 3c 56 be e2 e8 37 3c 6c 4c 58 3e
       -0.009105585 -0.20921424 0.011224957 0.21122903
0001a0 a2 50 ab bb d0 f0 68 ba 8d ca 46 bb 8f f1 25 3c
       -0.005228118 -0.00088859815 -0.0030333132 0.010128393
0001b0 fb d0 b3 3b f3 c8 34 3b 8e d4 a4 ba 60 3b 14 bc
       0.005487559 0.0027585595 -0.0012575553 -0.009047359
0001c0 38 d8 d6 3b b2 a7 80 bc 62 c3 a7 3b 37 99 21 3c
       0.006556537 -0.015704963 0.005119727 0.009863189
0001d0 5a 85 12 3c 69 bc 0f bc b2 e4 15 bc b7 4c 37 bb
       0.008942926 -0.008772948 -0.0091487635 -0.002796931
0001e0 dc 24 31 3a 3c d4 2d 3c 32 54 6e bc b5 bb ee bb
       0.00067575066 0.010609683 -0.014546441 -0.00728556
0001f0 53 0d aa bc 8d 2a b0 bc 5b 4c 33 bc 5e 50 ef bb
       -0.020758307 -0.021504665 -0.0109434975 -0.0073032817

lin2.bias f4 [16]
000000 cb 1c b6 3e ba 05 9a 3e f2 b5 4e 3e da d0 58 3e
       0.35568842 0.30082494 0.20186594 0.2117342
000010 e9 09 53 3e 08 97 27 bd ec 2e 6a 3e 28 08 00 be
       0.20609249 -0.04091552 0.22869462 -0.12503111
000020 1c d8 39 be bc b6 85 3e 50 8c 0b bd b0 9b 67 be
       -0.18148845 0.26115978 -0.03406936 -0.22617984
000030 34 07 31 3e 18 7d 9d be 5c 1a 9d be be 86 49 be
       0.17287904 -0.307595 -0.30684173 -0.19680306

lin3.weight f4 [8, 16]
000000 e1 c2 1a 3e f1 80 17 3e 44 43 1c 3e 9e 18 41 3e
       0.15113403 0.14795281 0.15260035 0.18857047
000010 37 84 32 3e 1e d3 c3 3a 56 e1 28 3e 86 26 08 3c
       0.17433248 0.0014940237 0.16492209 0.008309966
000020 1e d7 d0 3b 24 9a 14 3e 3c 28 46 bc a0 fa d8 bb
       0.0063733 0.14511925 -0.012094554 -0.0066216737
000030 0b 9d 3a 3e c0 a6 0c bc cb 5e 8e bc e2 37 a7 ba
       0.1822397 -0.008584678 -0.017379185 -0.0012757743
000040 8a cf 2a 3e 0c 59 2b 3e ab 90 38 3e ab f3 45 3e
       0.16680732 0.16733187 0.18023936 0.19331233
000050 9e eb 36 3e 41 16 2f 3c e6 c7 41 3e 81 45 3f bc
       0.17863318 0.010686458 0.18923911 -0.011674286
000060 44 7d db ba c7 46 2d 3e db 5f ab ba 25 cf b9 ba
       -0.0016745706 0.1692153 -0.0013074832 -0.0014176114
000070 9b e6 4b 3e c0 70 31 3c 6b 62 4a 3b b0 52 89 bc
       0.19912188 0.010830104 0.0030881416 -0.016763061
000080 c7 7f 22 3e c1 cd 15 3e 03 71 3c 3e d6 e5 35 3e
       0.15869056 0.1462927 0.18402486 0.17763457
000090 68 84 3f 3e d0 cb 9d 3b 1b 1c 34 3e f7 60 b1 bb
       0.18702853 0.004815556 0.17588846 -0.0054131704
0000a0 a6 96 42 bc f8 36 16 3e 3d be 96 b9 6b 8f 8d bc
       -0.011876738 0.14669406 -0.00028751968 -0.017280301
0000b0 a4 c0 4c 3e 9c 83 0c bc bc 63 7a 3a e4 20 8c bc
       0.19995362 -0.0085763 0.0009551605 -0.017105527
0000c0 f0 55 07 3c dd d7 e2 bb 81 14 a1 bb e5 7d 76 ba
       0.008260235 -0.0069227056 -0.0049157743 -0.0009402915
0000d0 36 20 94 3c d4 dd 8a 3c 89 1c cd bc c5 21 18 bb
       0.018081766 0.016951479 -0.02503802 -0.0023213488
0000e0 50 aa 89 3b 99 36 c4 3b 33 00 5a bc 48 85 17 bc
       0.004201211 0.005987954 -0.013305712 -0.009248085
0000f0 5d 3f b0 bb 95 97 cb 3b 37 94 a6 3b f7 82 0a 3c
       -0.0053786472 0.0062131383 0.0050835866 0.008454076
000100 ac 46 cf 3b 6b 11 1c 3b c1 05 34 bc 8f 5f 5b bb
       0.0063255634 0.0023814093 -0.0109877 -0.0033473705
000110 4a 77 a9 bc bc e8 55 bb 5e 80 43 3c e6 9b ac bb
       -0.020686764 -0.0032639941 0.011932461 -0.005267608
000120 fe c9 cf 3b 81 b4 a6 bc 9e 75 5e 3c 0c d2 f2 bb
       0.006341218 -0.020349743 0.013577847 -0.0074102934
000130 c6 ae 84 bb 69 ef 96 3c 7c 2d a6 3b 6c f7 f1 bb
       -0.004049155 0.018424707 0.00507134 -0.0073842313
000140 b9 cf 61 bc 6b 10 04 3c 60 f8 60 3c 74 c0 b8 b9
       -0.013782435 0.008060555 0.013731092 -0.00035238604
000150 67 f1 95 3b 14 ed 3d bb 57 76 48 bc ec 71 11 3c
       0.0045758965 -0.002898042 -0.012235246 0.008877259
000160 b3 54 94 bc 87 42 c8 3b 7b 15 0a 3c 50 ce ac 3b
       -0.018106794 0.0061114463 0.008427973 0.005273618
000170 0a 24 e7 3b fc 38 e9 bb 50 85 a2 3c 60 c9 05 bc
       0.0070538567 -0.007117389 0.019838959 -0.008165687
000180 b4 47 e8 bb 5f db 05 bb 9b 4d ce ba ef ba da 3b
       -0.007088626 -0.0020424945 -0.0015739681 0.0066751163
000190 5c c4 e2 bb 89 53 91 3b 70 3d b2 3b b2 52 f7 ba
       -0.0069203805 0.004435007 0.005439453 -0.001886925
0001a0 c9 71 64 3c 47 d7 ac bb b9 ab 32 bc 27 4d 00 39
       0.013943144 -0.0052746865 -0.0109052 0.00012235773
0001b0 bd 83 a0 bb 94 d0 1c bc dc 86 a7 3a 4f 31 5d 3c
       -0.004898517 -0.009571213 0.001278128 0.013500526
0001c0 d4 80 d1 bb ed 55 ca bb 09 5b c2 3b f2 ba 69 bc
       -0.0063935313 -0.006174794 0.0059312624 -0.014265763
0001d0 7f 4e 8a bc 49 30 79 b9 8a 8b 85 3c 14 bb 54 3c
       -0.016883133 -0.00023764478 0.016301889 0.012984056
0001e0 f7 65 0d 3c 46 a2 93 bc 72 ef 03 3c 9d 25 00 bc
       0.008630267 -0.018021714 0.008052694 -0.007821468
0001f0 b9 ba 60 3c 01 76 d7 3b aa 85 5f 3b 04 11 87 ba
       0.013716393 0.0065753465 0.003410677 -0.0010304754

lin3.bias f4 [8]
000000 09 e9 a3 b9 d8 c0 82 b9 04 9d a7 3d dc e1 0d be
       -0.00031263407 -0.00024939212 0.08184245 -0.1385569
000010 8c 6e 44 be e8 64 02 bd d8 15 66 be 82 2c 33 be
       -0.19182795 -0.031834513 -0.2246927 -0.17497447

lin4.weight f4 [80, 8]
000000 e0 3a ac 3c 7d 07 87 3c 87 b2 ec bc 41 94 09 bc
       0.021024168 0.016483063 -0.028893722 -0.008397163
000010 29 4d 55 bc 3e 05 6c bc 38 4c f2 3b b5 7a e7 bb
       -0.013018885 -0.014405547 0.00739434 -0.0070641884
000020 3f 2a 02 3e 68 0e 0f 3e 25 80 02 3e 21 d8 3d bc
       0.12711428 0.1397034 0.12744196 -0.011587174
000030 26 88 01 3c 4e a1 1c bc 90 75 92 3c c0 91 73 3c
       0.0079059955 -0.009559942 0.017878324 0.0148662925
000040 c7 38 30 bc 8f b3 38 bd 8d 77 0e 3c b9 26 45 bb
       -0.010755724 -0.045093115 0.008695495 -0.0030082895
000050 a7 bb 24 bb 40 d0 8b ba 33 96 7e 3c ed 11 9a bc
       -0.0025136264 -0.0010666922 0.01553874 -0.018807376
000060 bd 54 2e 3e 66 65 2a 3e 1e 19 1c 3e 90 57 64 ba
       0.17024513 0.16640243 0.15243956 -0.00087105576
000070 ce 19 2c bc a2 f3 35 bc 0d ee c7 bb 5f 70 06 3b
       -0.010504199 -0.01110545 -0.006101376 0.0020513756
000080 d3 8c 1d 3d 95 76 a7 3c 66 95 22 3d c7 52 b5 bb
       0.03846438 0.020442287 0.03969326 -0.0055335495
000090 24 52 04 3c 1b cb 90 bc d0 a8 33 3b e9 fd 64 bc
       0.0080762245 -0.017674973 0.0027413853 -0.0139765525
0000a0 43 e5 1c bd 0f 8a 5f bd ff f8 2e bd 5e 16 18 3c
       -0.03830458 -0.054575022 -0.04271793 0.0092826765
0000b0 59 27 48 3c 20 cd 7f ba bf 7a 81 bb 38 e3 2b bc
       0.012216412 -0.0009758044 -0.0039514 -0.010491185
0000c0 df 07 eb 3c b8 8a ee 3b 6d 8a 3c 3d cb 58 83 3a
       0.028690277 0.00727972 0.04603045 0.0010020969
0000d0 f0 0f 73 39 dd 65 e3 3a 8a bc 66 bc 38 31 96 3a
       0.00023180223 0.0017349083 -0.014083037 0.001145876
0000e0 c4 69 42 3b a0 5c 52 bc b9 b3 18 bb 66 de 87 3c
       0.0029665092 -0.012839466 -0.0023300482 0.01658554
0000f0 00 11 d9 3b 6e 63 aa ba 18 75 88 bb 7b 93 ff b8
       0.006624341 -0.0012999603 -0.0041643493 -0.00012186818
000100 21 cf 09 be e2 b8 2a be 27 96 06 be ea 1e 5f ba
       -0.1345792 -0.1667209 -0.13143216 -0.00085113815
000110 25 e1 64 bc 1e 79 a4 bc ff 37 8b 3c 2f 81 06 3c
       -0.013969694 -0.020077284 0.016994474 0.008209511
000120 a1 22 f1 bd 4f 5e fd bd aa c5 d2 bd 0b 23 cd 39
       -0.11774183 -0.123715036 -0.10291608 0.00039126756
000130 7c 35 fd ba 76 47 8f bb 09 88 03 3c 46 30 81 bb
       -0.0019318308 -0.0043725325 0.008028039 -0.003942522
000140 ed 06 3d 3e a8 66 40 3e ba e5 28 3e a9 fb 47 bc
       0.18459673 0.1878916 0.16493884 -0.012205997
000150 35 ff e3 3b bc 12 3d 3c 34 fb 58 39 75 91 8b 3c
       0.0069579133 0.011540111 0.00020692946 0.017037133
000160 3a 8b 8a bd 06 bd 59 bd 4c 41 6a bd 47 23 8d bb
       -0.067648366 -0.053158782 -0.05719118 -0.004307184
000170 c4 1f 20 bc f8 62 68 b9 c1 56 cb bb 84 65 43 bc
       -0.0097731985 -0.00022162113 -0.00620541 -0.011926059
000180 38 96 06 3e 8d 98 05 3e db 6e 07 3e 2d da 92 3c
       0.13143241 0.13046475 0.13225882 0.0179263
000190 74 11 81 3c d5 3f d4 3b 60 13 a4 b9 64 77 c1 bb
       0.015755393 0.006477336 -0.00031294953 -0.005904125
0001a0 e4 ed 0b 3d b0 cf 13 3d 41 07 36 3d c4 5a 03 bc
       0.034162417 0.036086738 0.04444051 -0.008017246
0001b0 cf 12 02 ba 7b da b1 3c 47 a4 3a 3c 23 3f 09 3c
       -0.0004961909 0.021710625 0.011391706 0.008376869
0001c0 a5 c6 3e 3d a9 2e b6 3c ec 80 53 3d bc 99 8b 3a
       0.04657616 0.022239046 0.05163662 0.0010650675
0001d0 c4 67 03 bc f2 99 b8 3a e7 8b 4a bc 37 75 91 bc
       -0.008020345 0.0014083965 -0.012362457 -0.017756088
0001e0 f2 c6 d1 3d d1 49 f1 3d 89 81 ee 3d 4b 0b 67 3a
       0.10243024 0.117816575 0.116458006 0.00088136335
0001f0 42 5e b1 bb 0b 36 2b bc bc 67 ef 39 56 cd 18 3c
       -0.0054128477 -0.010449897 0.0004566292 0.0093263
000200 e9 89 3b bd a7 ae 84 bd 59 d1 8f bd 1c d6 ad bb
       -0.04578582 -0.06478625 -0.07022352 -0.005305065
000210 cf 10 51 3c 36 b1 9f 3c 41 9b 3a bc 5e c7 16 3c
       0.012760355 0.01949368 -0.0113895545 0.009202806
000220 03 29 92 3d c4 bc a9 3d ff 04 b0 3d c7 c7 b2 3a
       0.071367286 0.08287957 0.08594703 0.001363986
000230 1d 56 1b bc 9b a7 75 bc bb 67 1e 3c 06 66 dc 3b
       -0.00948098 -0.014993574 0.009668286 0.0067260293
000240 77 3f d9 3d 87 31 c1 3d 6e 31 e4 3d 01 1e 7d 3c
       0.10607808 0.09433275 0.111422405 0.015449048
000250 0d 1e 2b 3c 73 64 af bb 42 7d 50 3c 4f 82 0a bc
       0.010444176 -0.0053525507 0.012725176 -0.00845392
000260 c6 4d b9 bd cb 76 d5 bd 8b 90 c1 bd a4 ae 84 3c
       -0.09048037 -0.104230486 -0.094513975 0.016196556
000270 cd c9 ca bb d8 94 a9 3b b8 83 e7 bb 6b 89 ef b8
       -0.0061886073 0.0051752143 -0.0070652626 -0.00011422004
000280 fa 81 d2 bd 33 91 ec bd bb 41 a1 bd 87 64 a8 bb
       -0.10278697 -0.11551132 -0.07873865 -0.005138937
000290 98 b2 07 3c 49 98 2d bb 46 3a 20 3b d9 19 d2 3b
       0.008282326 -0.0026488474 0.0024448796 0.0064117727
0002a0 64 df 27 be 40 e1 27 be ef 8a 1f be 8e fa c0 3b
       -0.1639381 -0.1639452 -0.15580343 0.0058892434
0002b0 55 d8 0d 3b db d3 82 3c 80 f1 44 bc 27 cf 32 3c
       0.0021643837 0.015970161 -0.012020469 0.010913647
0002c0 01 01 de bc c6 14 24 bd 35 66 47 bd a6 05 74 ba
       -0.027100088 -0.040058874 -0.048681457 -0.0009308703
0002d0 2e e9 75 39 3e 32 ab bb 76 87 1e bc 3e b7 08 3c
       0.00023451887 -0.005224495 -0.009675851 0.00834447
0002e0 9b da be 3d 78 f3 da 3d 6f 20 ec 3d 01 1d f2 bb
       0.093190394 0.10690969 0.11529624 -0.0073887114
0002f0 17 8e 4c 3b cf 71 53 bc 38 7e 05 bc a4 e1 89 ba
       0.0031212622 -0.012905552 -0.008147769 -0.0010519517
000300 5e e8 0e 3e 2d da 33 3e 88 7a 03 3e 65 15 11 bb
       0.13955829 0.17563696 0.1283971 -0.0022137996
000310 b9 a5 0d 3c 26 84 f8 bb 19 36 e3 ba 98 82 71 3a
       0.008645468 -0.0075841127 -0.0017334848 0.00092128804
000320 cc d9 cc 3c 41 f5 49 3d 87 66 52 3d 84 57 15 3c
       0.025006197 0.049306158 0.05136731 0.009115104
000330 f7 f8 f8 bb 9b ba b6 3b 79 07 a9 bc 6d a5 12 3a
       -0.0075980383 0.0055764443 -0.020633446 0.00055941084
000340 9d 30 2f bd 60 d8 52 bd 56 7c f6 bc 4d d3 ad bb
       -0.04277097 -0.051475883 -0.030088585 -0.00530473
000350 b6 56 ae 3a c2 b5 99 ba 3e 3c fa 3a 94 02 2e 3c
       0.0013300988 -0.0011727142 0.001909144 0.010620732
000360 59 13 3d 3e 7a ab 2b 3e 99 50 1c 3e ef a2 78 3c
       0.18464412 0.16764632 0.1526512 0.015175565
000370 26 86 b6 3c 61 ef 28 bb b7 89 38 3c a5 06 df bb
       0.022280764 -0.0025777447 0.0112633025 -0.006806212
000380 f6 87 ed bc cb 77 c1 bc ac a0 eb bc df 76 0e bc
       -0.028995495 -0.023616692 -0.028763138 -0.008695333
000390 e8 81 87 bc 66 d8 60 bc 3d bd c3 39 39 f8 bd 3b
       -0.016541436 -0.013723468 0.00037334292 0.0057974127
0003a0 94 de 2b bd dd a9 71 bd ad 2a 52 bd cb fa 9e bb
       -0.041960314 -0.058999885 -0.05131023 -0.004851674
0003b0 1d a3 9e 3c ce 35 81 37 59 5d 94 3a 02 3f 51 bc
       0.019364888 1.5403053e-05 0.0011319324 -0.01277137
0003c0 d4 e0 97 bb 53 ba b8 bb f1 23 23 bc 94 f5 b2 38
       -0.004634956 -0.005637446 -0.0099573 8.533444e-05
0003d0 f0 05 fc 3b d6 2f 86 3b 70 8c 08 3c 2d a8 46 bb
       0.0076911375 0.004095058 0.008334264 -0.0030312643
0003e0 53 aa f4 3d 7a c2 03 3e 59 23 d0 3d 67 d1 34 3b
       0.11946549 0.12867156 0.10162992 0.0027590634
0003f0 61 65 b2 3b 02 1c 50 bc 50 ee 18 bc 2b 86 cc 3b
       0.005444214 -0.01270199 -0.009334162 0.00624158

lin4.bias f4 [80]
000000 41 64 07 3c 3f 65 5c be ae 7c c6 3c a0 1c 87 be
       0.0082636485 -0.21522997 0.024229374 -0.26389027
000010 20 c2 5e bd b9 46 8b 3d 13 fe 1a bd ca 57 a7 3c
       -0.05438435 0.06800599 -0.03783996 0.020427603
000020 87 53 78 3e 3c 23 37 3e bb 1d 97 be 90 65 c7 3d
       0.24250613 0.17884535 -0.2951487 0.097361684
000030 23 0b 53 be 1c 94 80 bd eb 88 8d bd 92 b0 44 be
       -0.20609717 -0.062782496 -0.06910881 -0.19207981
000040 d0 a4 fe 3d aa ab ee bd b7 29 1b be fa 16 33 3e
       0.12433779 -0.11653836 -0.15152632 0.17489234
000050 7d 93 37 3e 21 89 82 3e 98 78 88 3d af 95 0e be
       0.17927356 0.25495246 0.066636264 -0.13924287
000060 53 7d 61 be 0b 0f 1c bd ce 72 7d 3d 94 1f 90 be
       -0.22020464 -0.038100284 0.061877064 -0.28149092
000070 f9 f9 8c 3d b4 73 c6 3d 9f ad 9a 3c ea b4 35 be
       0.06883616 0.09690037 0.018881617 -0.17744794
000080 63 3c 6b 3d 03 20 03 be de 6a 14 be 81 c2 7e 3e
       0.057430636 -0.1280518 -0.14493892 0.24878885
000090 12 a6 f5 bd bc 07 e9 3c 1a ca 13 be 15 38 79 3e
       -0.11994566 0.02844607 -0.14432564 0.243378
0000a0 da 13 3c 3e ff 2e e0 bd 82 6c 90 bd ce 58 52 be
       0.18366948 -0.10946464 -0.07051946 -0.20541689
0000b0 d4 7a de bd a7 2f 61 3e 8c 7d dd 3d 1a 23 49 bd
       -0.10863271 0.21990834 0.10814962 -0.04910574
0000c0 00 19 07 3c 20 22 54 3e ad c7 53 3e 1c dd 4d 3e
       0.008245707 0.20716143 0.20681639 0.20103878
0000d0 9c d4 85 3d c6 61 83 be 7a 94 4d 3e 94 44 0d be
       0.06534693 -0.25660533 0.2007617 -0.13795692
0000e0 f1 1d 98 bd 32 ed 18 3e f7 c0 51 3d 7e fc 0f be
       -0.07427586 0.14934233 0.051209416 -0.14061162
0000f0 08 b6 7f bd 51 29 1d be 15 90 a9 bd 1a 50 b5 bd
       -0.062429458 -0.15347792 -0.082794346 -0.08853169
000100 34 5c 1b 3e 6b 64 5f 3e bf e6 86 be b0 76 6b be
       0.15171891 0.2181565 -0.2634792 -0.22994494
000110 ac 72 8d bc 5c 55 95 3c 32 44 d3 bc 14 b1 6e 3b
       -0.017266594 0.01822918 -0.025789354 0.0036421465
000120 5d 3d 56 3c 3a 12 01 bc f2 0a 92 be b1 72 33 be
       0.013076154 -0.007877881 -0.28523976 -0.1752422
000130 25 57 20 bd ca ca 07 3d ba 00 01 be 2b 0d 6e 3a
       -0.039145608 0.03315238 -0.12597933 0.00090809417
