ckpts/mtfnn_msr_3c.pt (torch, 4247 bytes, 8 tensors)

lin1.weight f4 [8, 3]
000000 2c 01 38 be 73 a3 22 be 50 a7 07 3f 04 bb 85 3a
       -0.17969197 -0.15882663 0.52989674 0.001020283
000010 be 28 6e 3a 61 07 70 3c cb ac b6 bc 69 68 4b 3b
       0.00090850506 0.014650197 -0.022299191 0.0031037575
000020 31 2b 8d 3c e4 04 95 bd e0 92 bf bd d4 90 f0 ba
       0.01723251 -0.072763234 -0.09354186 -0.0018353709
000030 d4 15 65 3b ce 36 12 3c d7 3f 73 ba 35 25 81 bd
       0.0034955638 0.008924199 -0.0009279227 -0.06305925
000040 96 4a 7d bd 19 d0 06 3f 66 a4 2c 3c 79 bb aa bc
       -0.06183871 0.5266128 0.0105372425 -0.020841347
000050 bd 9a 8a bc f5 45 dc be 5a 9d c9 be 03 12 a6 3e
       -0.016919488 -0.43022123 -0.39377862 0.32435617

lin1.bias f4 [8]
000000 49 7d af 3e d0 bc c8 be b7 b6 e6 be ea 5a 4c bd
       0.34275272 -0.39206553 -0.45061275 -0.04989139
000010 20 48 64 bd 5c 7f 4b 3e e2 b2 d9 be 3f 15 9e 3e
       -0.055732846 0.19872802 -0.4251929 0.30875584

lin2.weight f4 [16, 8]
000000 af 38 d6 bd b4 93 27 3c 21 b1 ec bb f0 07 64 bd
       -0.1046003 0.010228086 -0.007223264 -0.055671632
000010 6c 05 cd 3a e6 13 6e bd 10 66 5a 3c 54 e7 92 be
       0.0015641875 -0.058124445 0.013329998 -0.28692114
000020 4f 74 ab be 9c 53 1e 3b d4 a2 94 bb 95 6c 20 bd
       -0.33487174 0.0024158722 -0.004536012 -0.039166052
000030 46 0b 07 bb 3a 9c 1f bf 02 93 83 b7 ce 84 f2 bd
       -0.0020606085 -0.6234776 -1.5684873e-05 -0.11841737
000040 23 a2 6d bd 07 8d 69 ba 45 3f c1 3b 35 c6 12 bd
       -0.058015954 -0.00089092593 0.005897435 -0.035833556
000050 2f b6 3a bb aa 15 a8 bd 26 20 4e 3c 26 14 92 be
       -0.0028489938 -0.08207257 0.012580907 -0.28530997
000060 e7 09 51 bb 9d b1 75 3b 5e f3 7f ba ae d6 19 bc
       -0.0031896771 0.00374899 -0.00097637426 -0.0093895625
000070 87 fb a1 bc 50 01 58 3c cf 79 02 bb 6a 35 d4 3b
       -0.019773258 0.013183907 -0.001990903 0.006476094
000080 ca d8 49 bd 06 37 27 bc 9e 42 75 bb 47 04 33 bd
       -0.04927901 -0.01020599 -0.003742374 -0.04370525
000090 7d 1b 05 3c 96 c6 7c bd 78 d2 9b bb 0b a3 90 be
       0.0081242295 -0.061712824 -0.0047553144 -0.28249392
0000a0 c2 7e 09 bc dc 02 be bb 64 13 23 3c a1 a7 f5 b5
       -0.008392038 -0.0057986807 0.009953354 -1.8302709e-06
0000b0 90 5e d7 bb 60 20 6c 3c 76 bb ad ba 5b b8 fb bb
       -0.006572552 0.014412016 -0.001325472 -0.007681889
0000c0 96 d8 8c bd 39 6c 26 3c c2 3f 42 bc b8 27 51 bd
       -0.06877248 0.010157638 -0.011856021 -0.05106327
0000d0 98 1f f0 3b 61 66 9e bd 20 a8 15 3c c0 f9 8a be
       0.007327985 -0.07734371 0.009134322 -0.2714367
0000e0 1b e8 fa 3b 39 51 01 bc 9c 77 80 bc e9 56 5d 3c
       0.0076570637 -0.0078929 -0.015682034 0.0135094905
0000f0 c2 2a 50 3a f0 09 8e bb 76 65 86 bc 84 c6 b0 ba
       0.0007940942 -0.0043346807 -0.016405802 -0.0013486897
000100 11 54 a1 be 4c b8 52 bb bb 5b ae bb e1 dc 39 3c
       -0.3150945 -0.0032153307 -0.0053209937 0.011344166
000110 65 6c 42 3b f6 4d 39 bf fa fa 97 3c 82 b6 cd bd
       0.002966666 -0.72384584 0.018552292 -0.10044576
000120 cf 41 01 bc c5 ea 3f bc d7 93 bb bb 04 64 d2 3a
       -0.007889225 -0.011713688 -0.005724411 0.0016051535
000130 1e 3b 46 3c 0b 9d 03 3c 33 a4 19 3b 22 4e 3b bc
       0.012099056 0.008033047 0.0023443818 -0.0114322025
000140 8f 18 00 be 19 22 4b bb 0e b0 6c 3c 22 49 06 3d
       -0.12509368 -0.0030995666 0.014446272 0.03278459
000150 de 75 9f 3b 11 0d 15 bf 1e 64 92 bc f1 34 56 3e
       0.004866346 -0.5822306 -0.017870005 0.20918633
000160 dc f8 ce bb 3e 4c 0e 3c 25 53 32 bc 40 e9 b1 bb
       -0.0063162874 0.00868517 -0.010884081 -0.005429417
000170 0e 82 3f bb e7 d0 ca bb 3f c4 0d 3c 9b 40 88 3b
       -0.0029221806 -0.006189454 0.008652746 0.004158092
000180 98 99 2a 3c 3b 17 9a 3b 4e 4d ff bb dc 10 d1 ba
       0.010412596 0.0047024763 -0.007791198 -0.0015950459
000190 20 fe 82 3c 1c 33 3a ba 54 32 53 bb 77 b6 95 bb
       0.015990317 -0.0007102953 -0.0032226043 -0.0045688706
0001a0 b0 f6 0a 3b 34 e8 c9 ba b0 23 45 bb 6f 6d 04 3c
       0.0021204166 -0.0015404285 -0.0030081086 0.008082732
0001b0 e0 70 4b 3b 1b f2 8e 3b 1d 84 4d 3b 50 fb f7 3c
       0.003104262 0.0043623573 0.0031359263 0.030271202
0001c0 83 94 20 bb d8 ec c6 bb b3 02 2d bc 48 6c 06 3b
       -0.0024502582 -0.0060707144 -0.010559726 0.0020511318
0001d0 b9 21 7e bb 1e 96 19 3c e6 e9 f2 bc 8c d6 1c 3c
       -0.0038777424 0.00937417 -0.029652547 0.009572636
0001e0 cc fc ee bc fe 25 ba 3b 38 89 c2 bb ad 68 be bb
       -0.029173277 0.0056807986 -0.005936768 -0.005810818
0001f0 d4 3f ef 3b f4 0a 4a 3b 80 7f 26 bb 89 97 d1 bb
       0.00730131 0.0030829282 -0.0025405586 -0.006396238

lin2.bias f4 [16]
000000 ea 9e 9e 3e cd a1 b7 3e 33 67 92 3e 59 89 99 be
       0.30980617 0.35865632 0.2859436 -0.299876
000010 7f 12 87 3e e5 98 49 be 6c 09 91 3e 1e fd 94 be
       0.263813 -0.19687231 0.283275 -0.29099363
000020 8e 87 88 3e 41 7a 15 be bb 06 42 3e b4 34 de bd
       0.2666592 -0.14597417 0.1894788 -0.10849896
000030 45 96 5b be a4 e4 c4 bd ca fa 87 be e9 bc 08 be
       -0.21444042 -0.09613922 -0.26558524 -0.13353314

lin3.weight f4 [8, 16]
000000 f3 69 21 be 1e cb 95 be c6 f0 88 be ff c0 11 3c
       -0.15763073 -0.2925653 -0.26746196 0.0088961115
000010 85 6b 90 be 64 83 99 ba 9e ff 36 be 89 74 3c bb
       -0.2820703 -0.0011712131 -0.17870948 -0.0028755984
000020 66 74 9b be c7 10 09 bb a3 b8 f2 be 37 7c 2f 3a
       -0.30362242 -0.002091454 -0.47406492 0.00066942297
000030 46 b3 c0 3b d3 f1 07 bc 19 cb 0e bc 79 e5 8c bc
       0.005880746 -0.0082974015 -0.008715414 -0.017199265
000040 3f c6 43 be 5e f3 a9 be 6b 01 89 be fd 89 7f ba
       -0.19118594 -0.33193487 -0.26758894 -0.000974804
000050 6f b6 93 be 01 72 a7 3b ef 51 45 be bc 71 c5 bc
       -0.28850123 0.005110026 -0.19269536 -0.024102084
000060 dd 3d b1 be 6a eb e6 bb a5 e3 0f bf 66 73 61 3c
       -0.3461751 -0.0070471065 -0.56206733 0.013760423
000070 e7 89 2e bb dc 54 a8 39 c0 6e 91 3b b7 51 69 bb
       -0.002663249 0.00032106682 0.0044382513 -0.0035601684
000080 2b f6 b5 3b 37 9f 22 3c d5 a3 01 3c 71 29 8e b9
       0.005553027 0.009925655 0.007912596 -0.00027115227
000090 22 2d c2 bb 61 7d 40 3c 65 96 7d 3b b7 61 ea 3c
       -0.0059257904 0.011748643 0.0038694378 0.028611047
0000a0 18 d4 50 3c e8 71 19 bc 7e 2b 1a bc e1 3e 5f bb
       0.01274588 -0.009365536 -0.009409783 -0.0034064578
0000b0 c0 81 9d 3b 7e c6 b3 3a 4d 93 84 bb 7e 78 d6 bb
       0.004806727 0.0013715771 -0.00404588 -0.0065451255
0000c0 13 60 d7 bc d8 20 ce ba 1f 22 82 ba 55 ba f9 3b
       -0.026290929 -0.0015726341 -0.0009928382 0.0076210895
0000d0 42 51 d0 ba bf a2 93 3b 36 2e aa 3b 1b a5 5d 3b
       -0.0015893357 0.004505485 0.005193497 0.0033820334
0000e0 1a 93 89 3b 81 44 df bb 27 1b a6 3a aa 61 76 bb
       0.004198444 -0.006813586 0.0012672887 -0.0037594833
0000f0 22 c8 0a bc 15 6b 55 3b d9 5b 3d 3c bc 8a 9f 3c
       -0.008470567 0.0032565047 0.011557543 0.019475333
000100 e9 a7 c7 bd 57 62 63 be 66 7f 32 be 61 ce 0b bd
       -0.09748823 -0.22205482 -0.17431411 -0.034132365
000110 3b cf 57 be 49 ae 54 b9 f0 cb a9 bd 49 31 7c bc
       -0.21075146 -0.00020282822 -0.08290851 -0.01539261
000120 26 1b 51 be 85 d9 6a bc c0 01 d3 be 7e c0 29 bc
       -0.20420513 -0.014334087 -0.41212273 -0.010360835
000130 3c 29 48 3c 20 ad d5 3c 35 79 fc bb 4b 1b af 3a
       0.012216862 0.026083529 -0.0077048787 0.0013359574
000140 ec d9 53 bc ce e6 19 bb 9d 8b 11 bc ff c9 06 3c
       -0.012930375 -0.0023483518 -0.008883384 0.008226871
000150 d2 77 9b 3c e5 90 c2 3a 42 c1 5c bc aa ae 7b 3b
       0.018978033 0.0014844207 -0.013473811 0.0038403668
000160 22 22 33 3c b7 e2 0b ba 01 a8 a8 3a a7 b3 27 3b
       0.010933431 -0.00053362123 0.0012867452 0.002558926
000170 21 12 cc 3c e4 dc 38 bc 10 8f 30 bc 53 6d 4a bc
       0.024910988 -0.011283133 -0.010776296 -0.0123551665
000180 d0 12 17 be e3 d1 90 be f8 4b 84 be de 97 02 3b
       -0.1475327 -0.2828513 -0.2583921 0.0019926946
000190 91 c7 97 be 4b e9 2e 3b f7 0e 33 be 4d 64 ca 3b
       -0.29644445 0.0026689346 -0.17486177 0.0061765076
0001a0 5b 85 96 be be 7b 24 bc 78 ac e8 be 1e 35 7f bb
       -0.29398617 -0.010039268 -0.45444083 -0.0038941572
0001b0 05 68 30 ba a6 dc ff 3b 83 01 1b 3b c7 1d cd bc
       -0.00067293673 0.0078082858 0.0023652024 -0.025038613
0001c0 92 70 c6 39 d9 f4 5f 3c e1 63 c8 bb 1c 33 77 bc
       0.00037849374 0.013669216 -0.006115422 -0.015087869
0001d0 13 cc 01 3c 13 68 d8 bb 16 17 1d bc d9 0e e2 ba
       0.00792219 -0.0066042035 -0.009588024 -0.0017246857
0001e0 73 b3 be 3b 3a 8e 8c bb 4a ef 73 bc 67 e0 a8 b9
       0.005819732 -0.0042894157 -0.014888594 -0.0003221065
0001f0 00 06 56 bb 07 bc bd 3b f5 b0 d1 3b 70 6a 28 3b
       -0.0032657385 0.005790237 0.0063992688 0.0025698207

lin3.bias f4 [8]
000000 9e 9b c7 3e c5 71 db 3e 28 46 43 bd c0 7e de bd
       0.38985914 0.42860237 -0.047674328 -0.108640194
000010 47 aa 88 3e bc 91 ea bd b2 a9 c3 3e 7e c0 6e be
       0.2669241 -0.11453578 0.38215405 -0.23315617

lin4.weight f4 [3, 8]
000000 cb 00 62 be 73 cf 83 be 2e e2 3a 39 a2 5c 30 3c
       -0.22070615 -0.2574421 0.00017822601 0.010764273
000010 03 6d 4e be ac 3c 9a 3b 16 1f 59 be 87 7c 2d bb
       -0.20158772 0.0047069397 -0.21203265 -0.002647193
000020 c0 98 57 be 71 c9 79 be e8 90 81 3c 94 3e e0 3c
       -0.21054363 -0.2439325 0.015816167 0.02737359
000030 c7 37 3c be 15 48 f5 3b a2 26 4b be f8 83 4d bc
       -0.18380652 0.0074853995 -0.19838956 -0.012543671
000040 ac 56 86 3e 06 25 84 3e 10 77 f4 ba fc 32 90 3b
       0.26238 0.25809497 -0.0018651206 0.004400609
000050 df 4a 83 3e c1 01 59 bb d8 ad 75 3e ca 3e 52 3b
       0.2564306 -0.0033112618 0.23992097 0.0032080882

lin4.bias f4 [3]
000000 0d 76 1e 3e 14 04 11 3e ac f9 53 be
       0.1547472 0.14161712 -0.20700711
