ckpts/ppo_msr_3c.pt (torch, 21000 bytes, 16 tensors)

log_std f4 [1, 3]
000000 00 00 00 00 00 00 00 00 00 00 00 00
       0.0 0.0 0.0

critic.0.weight f4 [64, 3]
000000 61 a8 82 bd c1 aa b1 3b 65 f9 74 be 57 71 81 3d
       -0.06379772 0.005421967 -0.23923261 0.06320446
000010 51 d2 52 be 87 c8 f2 bd aa b5 c6 3e 55 3b 8a 3e
       -0.20588042 -0.11854654 0.38810474 0.26998392
000020 1d da 8c 3e 1f 0d d6 3d 44 05 16 3e 21 2a 8c 3e
       0.27510157 0.104517214 0.14650446 0.27375892
000030 26 ff 9e 3e 58 09 97 3e 9d f4 18 ba 97 e7 7e 3e
       0.31054038 0.29499316 -0.000583479 0.24893032
000040 45 4c c4 3e 69 29 ed 3d b1 8c 88 be e7 e7 70 be
       0.3833944 0.11580164 -0.2666984 -0.23525964
000050 f8 06 8c be b2 7d e0 3d 3b 4c bf 3e a3 81 76 3d
       -0.27349067 0.109614745 0.37362847 0.060182225
000060 b0 2f 41 be 46 8a a6 be cb 98 11 be be 7b be 3e
       -0.18865848 -0.3252737 -0.14218442 0.37203783
000070 e3 e0 af 3e a0 a7 41 bd f3 51 d6 bc 48 0d 7d bc
       0.34351262 -0.047279 -0.026162123 -0.015445061
000080 eb a0 d7 3e 36 80 59 be a6 fd f0 ba 14 e2 b6 3e
       0.42114958 -0.21240315 -0.001838614 0.3571936
000090 20 20 a6 3e fc 1b 3d be 7f c6 12 3e 28 aa 1e 3c
       0.32446384 -0.18467706 0.14333533 0.009684123
0000a0 44 f3 9e be 8b d2 9a bd 51 15 04 be ec a1 e7 bd
       -0.31044972 -0.07559689 -0.12898757 -0.11310181
0000b0 f6 3d a3 bc 76 a1 06 3d dd d3 c1 3e 6a f5 c7 3e
       -0.019927006 0.032868825 0.3785695 0.39054424
0000c0 d6 83 82 be 5b 7e 60 bd 96 c9 b1 3e 47 21 c1 3c
       -0.25491208 -0.054808002 0.3472411 0.023575438
0000d0 56 98 54 3e 08 70 3c 3d 35 6d 9c be 54 b7 2f 3d
       0.20761237 0.04600528 -0.30552068 0.042899445
0000e0 93 56 bb be e7 07 81 3e c3 47 a5 3e b9 9e 7e 3e
       -0.36589488 0.25201342 0.32281312 0.24865235
0000f0 62 04 d7 3c 19 41 67 bb c9 49 19 be 17 f2 ac be
       0.026247207 -0.0035286604 -0.14969553 -0.3377845
000100 63 08 2f be 13 21 7c 3d ec 8a 0f 3e 63 16 19 bd
       -0.17093043 0.06155498 0.14017838 -0.037374865
000110 a5 ae 73 3e 6c 06 4e be 24 ae a5 be 3d 05 d3 3b
       0.2379709 -0.20119637 -0.3235942 0.0064398334
000120 91 89 c3 bd e1 74 d8 3e 65 ca f4 3e dd a3 3e 3d
       -0.09547723 0.42276672 0.47810665 0.04654299
000130 ca ba 15 be 5d cd 7e be 0a f8 44 be 4e 8e 08 be
       -0.14622036 -0.24883027 -0.19235244 -0.13335535
000140 86 b2 71 be 4d 07 85 bd 89 a7 c9 be 22 7b a2 be
       -0.23603258 -0.06495533 -0.39385632 -0.31734568
000150 ea 82 8c 3e d7 f5 25 be 71 a5 57 3e 3e 04 a7 be
       0.2744363 -0.16207062 0.21059205 -0.32620424
000160 23 4c 88 be 09 9e b2 bc 4a cc b1 be f4 74 dd bd
       -0.26620588 -0.021803873 -0.34726173 -0.10813323
000170 9b bf 0f bf a2 e9 05 be 08 53 56 bd 13 0d 69 be
       -0.5615174 -0.13077405 -0.05232528 -0.22758894
000180 b8 49 e7 bd ed b2 40 bd 90 0e 37 3d 2e e0 95 bc
       -0.112933576 -0.047045637 0.044691622 -0.018295374
000190 3f d0 6f be 1b 94 be bd d9 da f0 bd 18 a7 c0 bd
       -0.23419283 -0.093055926 -0.11760492 -0.094068706
0001a0 48 b5 e9 bd 46 61 38 3e cd 9f 98 3e 54 ba db 3d
       -0.1141153 0.18005857 0.29809418 0.10728899
0001b0 5d 7a 7e 3e 09 b0 2b bd 81 73 0d 3e bb ab 8f bd
       0.24851365 -0.041915927 0.13813592 -0.07015177
0001c0 33 e4 30 be 40 43 df 3d b4 a0 67 3e c6 e3 d2 3d
       -0.17274551 0.10901499 0.22619897 0.102973506
0001d0 eb d9 e8 3c 04 fe 1d be d1 b4 c5 3e ea 36 4b 3e
       0.028424224 -0.1542893 0.38614514 0.19845167
0001e0 84 23 e3 be fb 49 52 bd a2 2f a4 3d 0c d6 9b 3d
       -0.44363034 -0.051340085 0.08016898 0.076091856
0001f0 b8 e7 5a 3c ae 79 b4 3e 37 66 fe bd 98 0f b0 be
       0.01336091 0.35249084 -0.1242184 -0.34386897
000200 77 6a 3a bd b7 0f e2 3e 0e 09 5a 3e 3d 5c 98 3e
       -0.04551169 0.44152614 0.21292517 0.29757872
000210 29 3b 77 bc 35 af b4 be 74 a0 46 be 2e c5 e2 bd
       -0.0150897885 -0.35289922 -0.19397146 -0.11072765
000220 59 74 af 3e 9a 70 f9 3d 5a b3 72 3e 81 74 cf bd
       0.34268454 0.1217968 0.2370123 -0.10129643
000230 98 ef 7b 3d 45 53 94 bd 01 7f 4f 3d 17 2f 5c 3d
       0.06150779 -0.07242445 0.05065823 0.053755846
000240 3b 93 61 be 29 72 73 be f0 98 b6 3c ba 69 67 3d
       -0.2202882 -0.23774017 0.022289723 0.056497313
000250 5f c4 90 be 3d 72 27 be b2 27 02 bf b7 f3 9c be
       -0.2827482 -0.16352172 -0.5084182 -0.3065469
000260 ec c5 85 bb 12 47 00 3f 32 f5 0a 3d 74 6a 4d 3e
       -0.004082432 0.50108445 0.033925243 0.2006014
000270 2b 07 2c 3e 10 b0 8f 3e 74 5a 78 3e 1e 24 95 3e
       0.1679961 0.28064013 0.24253255 0.29129118
000280 34 01 9a 3d 6a e5 34 3e 76 3c 7d 3e 85 87 47 3e
       0.07519761 0.1766564 0.24730095 0.1948529
000290 13 23 ac 3e df ec 9f be fb fa b0 bd 30 88 89 3d
       0.3362051 -0.31235406 -0.08641621 0.06715429
0002a0 c4 19 b7 3c e8 79 f3 3e f9 a5 5c be e8 17 e0 bd
       0.022351153 0.47553945 -0.21547689 -0.1094206
0002b0 93 8f b4 be 64 d9 8d bd 32 a2 8b be b6 34 12 bc
       -0.35265788 -0.069262296 -0.27272183 -0.0089237
0002c0 36 6c e9 be 85 f1 aa 3c 39 28 96 3e bd b3 87 3d
       -0.4559037 0.020867119 0.29327562 0.06626079
0002d0 3b d1 3c 3e 7c a9 a0 3e aa 89 77 bd 72 ca 8f 3e
       0.1843919 0.31379306 -0.06043402 0.2808414
0002e0 ad 1d 63 3d 9f 41 81 3e 9e f8 ac 3e d6 ac 81 bd
       0.055448223 0.25245377 0.3378343 -0.06331794
0002f0 70 92 05 3e 7d 6b a2 be b7 51 8a be 25 22 f1 bd
       0.13044143 -0.31722632 -0.27015468 -0.11774091

critic.0.bias f4 [64]
000000 84 10 f0 bd 49 8d 0c bd 38 4a 02 3e b6 83 fb 3d
       -0.117219 -0.034314428 0.12723625 0.12280981
000010 d3 09 fb 3d 90 70 01 3e 43 b0 09 be e0 7b f3 3d
       0.12257733 0.12640595 -0.13446145 0.11888862
000020 3e ba 0a be 4f ea fa 3d 6c e7 69 bd c1 84 e0 bc
       -0.13547608 0.12251722 -0.057105467 -0.027407052
000030 36 a6 da 3d a0 bc 50 3d 28 07 da bd e5 8a 04 3e
       0.106762335 0.050961137 -0.10645896 0.12943609
000040 03 94 6e bd f4 0f 09 3e 22 f6 f8 bd e8 94 f1 3d
       -0.058246624 0.13384992 -0.12156321 0.1179598
000050 b5 e5 9a 3d 6c 95 ea bd 14 46 06 3e b3 6c d8 bd
       0.075633444 -0.11454281 0.1311267 -0.10567608
000060 fd 2e 08 3e ef f6 11 be 69 6f fc bd 62 ca 0f be
       0.13299175 -0.14254354 -0.12325937 -0.14042047
000070 0c fe e9 3d d8 91 1b bd d0 89 1e be f4 65 ee bd
       0.11425409 -0.037980884 -0.15482259 -0.1164054
000080 20 83 97 bd 41 a9 06 be 82 ef 95 bd ef 89 8f 3d
       -0.07398057 -0.13150503 -0.07321073 0.070087306
000090 9f 3a fa 3d b3 2b a4 bd 05 b0 eb 3d 52 f7 f3 3d
       0.12218212 -0.080161475 0.115081824 0.11912407
0000a0 50 4d 8f 3d 6e 0f 06 3e b5 65 f7 bd 31 9c 07 3e
       0.06997168 0.13091823 -0.12079946 0.13243176
0000b0 f7 1b 40 be f5 46 eb 3d a9 f4 e1 3d a8 cc 8f 3d
       -0.18760668 0.11488143 0.11032993 0.07021457
0000c0 81 31 04 be 54 5c 1d be 01 48 0a be f3 0e f4 3d
       -0.12909509 -0.15367252 -0.1350403 0.11916914
0000d0 97 2c 0e 3e df 90 03 3e f4 e9 f3 3d 1c 54 1d be
       0.13884197 0.12848233 0.119098574 -0.15364116
0000e0 e9 0c d0 3d 02 2d 00 be 50 c0 ef bd 29 08 ef 3d
       0.101587124 -0.12517169 -0.117066026 0.11671478
0000f0 44 83 2d 3e 8c 38 1e 3e c1 79 f3 3d 46 7b 06 be
       0.16944605 0.15451258 0.11888457 -0.13132963

critic.2.weight f4 [16, 64]
000000 0e 8d 68 3d 96 4d 81 bd ea e6 90 be f1 fc 89 be
       0.056775145 -0.063136265 -0.28301173 -0.2695079
000010 38 66 a7 bc 41 f7 b1 bd 63 9c c8 3e cf 9b 3b be
       -0.020434484 -0.08689738 0.39181814 -0.18321155
000020 35 f2 6c 3d 9f e5 bd be c4 58 1c 3e 04 03 c9 be
       0.057848174 -0.3708925 0.15268236 -0.39260113
000030 5e b4 78 be 39 8a ae 3c 70 ed d1 3e 81 ba 90 bd
       -0.24287555 0.021306144 0.41001463 -0.07066823
000040 ca 5b 3d 3d 8c 89 47 bd f3 b5 9f 3e 6b 20 42 bb
       0.046230115 -0.04871516 0.31193504 -0.0029621373
000050 08 4d 1f be 52 3d d9 3e 43 9e b4 be 94 20 47 3e
       -0.15556729 0.42429596 -0.35276994 0.19446021
000060 71 50 72 be 43 6b c9 3d 89 45 de 3d 75 ab 95 bd
       -0.23663498 0.09834912 0.108531065 -0.073080935
000070 91 da ca be 53 47 c9 3c 8c 49 1a 3d b5 08 e5 3d
       -0.39619878 0.024570143 0.037667796 0.11183301
000080 e1 15 12 3e 7a 8d 3b bd 15 42 ec bd 74 54 81 be
       0.14266159 -0.04578922 -0.11536042 -0.25259745
000090 38 47 e9 be f1 9e 75 3e a5 2b 7a be d7 af 57 3d
       -0.45562148 0.23986413 -0.24430712 0.05265793
0000a0 17 a9 f3 3d e7 0d f2 3d b2 cf 88 3e dd 55 0e be
       0.11897486 0.11819058 0.2672096 -0.13899942
0000b0 8e 98 09 be b6 51 c1 be f9 92 36 be d4 43 29 be
       -0.13437101 -0.37757653 -0.17829503 -0.1652978
0000c0 fe 63 73 3c f2 03 ee 3c 5a 38 f6 3a 25 fc 97 be
       0.014855383 0.029054616 0.0018785105 -0.2968456
0000d0 1f c6 b8 be 8e 64 ca bd 2d ef b4 be 23 9f 82 bd
       -0.36088654 -0.098824605 -0.35338727 -0.06378009
0000e0 ac 8b 77 be 7b c8 29 be fc a9 62 3e 0a e7 c4 bd
       -0.24174374 -0.16580383 0.22135156 -0.0961438
0000f0 89 34 21 be 11 a7 ea 3d dd 8b 9e be be d5 f5 bd
       -0.15742697 0.11457647 -0.30966082 -0.12003659
000100 84 21 bb be 3e 78 cc be 3b 24 9d 3e a2 91 b5 3e
       -0.36549008 -0.39935488 0.30691704 0.35462672
000110 a1 8e 0a 3d 1c 1b b8 3e 2a b3 96 bd b6 25 b7 3d
       0.033827428 0.35958183 -0.073583916 0.0894274
000120 0f 04 24 be cd e6 01 3b 70 24 cd 3d c3 e7 08 be
       -0.16017173 0.0019821406 0.100167155 -0.1336966
000130 71 d7 04 3e fc 34 2f be 26 c0 03 bd 8e a7 8e 3d
       0.1297281 -0.17110056 -0.03216567 0.06965552
000140 08 4d 2f 3e f8 85 79 3d 23 bd 5d be 46 4d 53 3e
       0.17119229 0.06091878 -0.21654181 0.20634946
000150 51 20 32 3e e9 ec 25 3d a6 19 27 3e 08 bd 89 be
       0.1739514 0.04050914 0.16318378 -0.26902032
000160 ee 16 35 3e 5d 81 a8 bd 84 9b 81 3e e6 f6 80 be
       0.17684528 -0.08227799 0.25313962 -0.2518837
000170 79 a4 2b 3e 5e ee a8 3d 3b 18 97 3c 47 6d 96 bd
       0.1676196 0.0824859 0.018444171 -0.07345062
000180 be 62 91 3e 6f 89 55 be 1d 1a da be d2 02 81 3e
       0.28395647 -0.20853208 -0.42598048 0.25197464
000190 bc f9 34 3e e7 69 b2 3d 2c 73 28 bd e2 f0 87 3d
       0.17673391 0.087116055 -0.04112546 0.066377416
0001a0 f8 5d 8b be dd 8d 19 3f c3 ca ab be de 86 19 3e
       -0.2722013 0.5998209 -0.33553132 0.14992854
0001b0 82 c6 ed 3d b6 10 0b 3e 7f c0 b9 3e 32 c6 81 3b
       0.11610128 0.13580593 0.36279675 0.0039603943
0001c0 b2 a0 bb bd 74 21 f7 be 87 13 80 be a8 48 dc 3e
       -0.091615096 -0.4826771 -0.25014898 0.43024182
0001d0 82 64 de 3e 0f 8d bc 3e 19 57 1e 3d 69 99 8f 3d
       0.43436056 0.3682637 0.03865728 0.070116825
0001e0 dc 04 1b 3e 1f 6c 6b be 24 40 96 bd bc e3 ff 3d
       0.15138572 -0.22990464 -0.073364526 0.12494609
0001f0 d9 6b 83 bd 3a fc 95 bd f7 d6 5b 3e 5c 08 92 3d
       -0.06417055 -0.07323499 0.21468721 0.07130501
000200 74 ce 62 3e 3c d6 54 bd 04 f8 50 be fb 72 70 be
       0.22149068 -0.051962122 -0.2040711 -0.23481362
000210 03 7b 26 be 99 45 80 be e8 25 83 3e a3 dd 85 be
       -0.16257863 -0.250531 0.25614858 -0.26145658
000220 08 f1 19 3e 3b 7b 68 3c 91 77 07 3e a2 15 0d 3e
       0.15033352 0.014189537 0.13229205 0.13777784
000230 92 ff ae 3e 09 aa 08 3e 07 8a ab bd 57 7c a1 bd
       0.3417936 0.13346113 -0.08375936 -0.07885044
000240 34 4f c7 3e 49 ce a3 be 1e a6 d0 3e 30 41 58 be
       0.38927615 -0.3199332 0.40751737 -0.21118617
000250 a4 f2 d1 3e f2 f2 3c 3e 36 43 2b be 78 ba 78 bc
       0.41005433 0.18452051 -0.16724858 -0.015181176
000260 5e 2b 40 be 0f b6 68 3e 20 6e e2 3d 95 9b 83 be
       -0.18766543 0.227257 0.11056161 -0.25704637
000270 29 08 a2 3d ef 13 d5 bd 22 e2 15 3d fd 4a 41 be
       0.07911713 -0.10404193 0.03659261 -0.18876262
000280 a0 5b a5 3e ec 91 0a 3e 46 b8 7c bd 36 7b ca be
       0.32296467 0.13532227 -0.061699174 -0.39547127
000290 0d 5e e6 3c d5 12 4a bd 08 b0 58 bd b2 42 0f be
       0.028121019 -0.049334366 -0.05290225 -0.13990286
0002a0 18 cd d3 3c bb ff c0 3d 4b bb 90 3d 1d c0 14 be
       0.025854632 0.09423777 0.07066973 -0.1452641
0002b0 a2 2a 34 3e 4b e9 8a be 70 75 68 be e7 c4 86 3c
       0.17594388 -0.27131113 -0.22701049 0.016451312
0002c0 d6 3c d8 bd 2f 61 6f 3e 2f 2f 27 3e 9a 7b b9 be
       -0.105584785 0.23376916 0.16326593 -0.36227113
0002d0 38 68 ab bd 81 81 68 3c 7c 0c 83 3e 21 2a ab 3d
       -0.083694875 0.014191032 0.25595462 0.08357645
0002e0 3c 9d 33 3e df de 15 3e 19 29 bd bc 3d 96 86 3d
       0.17540449 0.146358 -0.023090886 0.065716244
0002f0 51 3a 78 be 0b 79 e9 bd 5d 1b 85 3d e1 42 c6 3d
       -0.24240996 -0.1140004 0.0649936 0.09680725
000300 5e 4a 8f be f8 aa 0b bd 3f 87 82 bd f4 ab a1 3d
       -0.27986425 -0.034098595 -0.063734524 0.078941256
000310 15 9c 9f bd 41 62 18 3e 8c b5 f8 3d 29 fe 1a 3f
       -0.07793442 0.14881231 0.12144002 0.6054407
000320 4e 9c 9d bd 0b 2b ce bc 03 66 f7 3c 30 97 99 3e
       -0.076958284 -0.025167009 0.03020001 0.2999816
000330 3c 8e 12 3e 28 69 cd be f0 3a 89 be 2c c0 2c be
       0.1431207 -0.4011929 -0.26802778 -0.16870183
000340 85 90 a6 3e 61 a2 af 3d 35 ed 9b be b1 bc 9d 3e
       0.32532135 0.08575893 -0.30454412 0.30808023
000350 fe 7d 8b bc 06 a0 92 3d b7 41 e9 bc 6c bc 99 3a
       -0.017027851 0.07159428 -0.028473718 0.0011729128
000360 e0 52 a6 3b 89 71 71 3e 78 0b 82 bc 3f 51 2f be
       0.0050757974 0.23578466 -0.01587461 -0.17120837
000370 72 5f 72 bd 4c ec 83 be d1 bf 36 be 5b df 9b bc
       -0.059173055 -0.25766218 -0.1784661 -0.019027403
000380 d4 37 fc bb cf ed e2 bb b7 33 87 be ec 6f 84 be
       -0.007697085 -0.0069253216 -0.26406643 -0.2586664
000390 02 24 23 3d 02 61 75 3e a3 dd d6 3c 09 ad c9 3d
       0.03982926 0.23962787 0.026228731 0.09847457
0003a0 7f 1d 03 bd 53 8b bf be a7 18 35 be 81 e4 6c 3d
       -0.03201055 -0.37410983 -0.17685185 0.057835106
0003b0 c0 29 78 3d f5 5f 40 3e 39 dd 49 bd c9 d9 c9 3d
       0.06058669 0.18786605 -0.04928324 0.09855992
0003c0 1a 6e 67 be 1e d5 e3 bd 0e 74 1a 3e 60 98 56 3e
       -0.22600594 -0.11124633 0.15083334 0.20956564
0003d0 1e 99 22 3d 66 3c 9b 3e a6 5d 73 bd 19 8c 68 3d
       0.039696805 0.30319518 -0.059415482 0.056774233
0003e0 40 6d 50 be c5 93 5c be b4 7b de bd c2 5a cb 3d
       -0.20354176 -0.21540745 -0.10863438 0.0992942
0003f0 e5 34 b5 3d c5 77 4a be f4 be 6a 3e 89 d6 b3 be
       0.088479795 -0.19772251 0.22924405 -0.35124615

critic.2.bias f4 [16]
000000 f8 8a ce bd 81 a6 04 3e 80 4b 3d bd f5 c7 ed 3c
       -0.100851 0.12954141 -0.04621458 0.029026011
000010 96 4f e3 3d dd c9 d4 3d af d7 d8 3d 9d 68 a9 bd
       0.11099164 0.10390065 0.105880134 -0.082719065
000020 04 20 d7 bd 07 1d eb 3d 02 f5 c6 3d e9 9d ef 3d
       -0.10504153 0.11480146 0.097147 0.11700041
000030 25 13 c4 3d c2 a9 9f 3d 8b 67 c6 3d f1 12 02 3e
       0.09573964 0.077960506 0.09687718 0.12702538

critic.4.weight f4 [32, 16]
000000 1e a8 09 3f d0 5c e7 3d 49 4a bd bd cf c6 ac bd
       0.5377215 0.112969995 -0.092426844 -0.08436357
000010 cc fe f0 3e 0b ea bc be 2a b7 2c be 43 6d ba 3e
       0.47069395 -0.3689731 -0.16866747 0.36411485
000020 63 52 8c 3e 02 dc 69 be 97 a0 8b be ea c7 2b 3e
       0.27406606 -0.22837833 -0.27270958 0.1677548
000030 da 6f 08 bf a9 cf 15 3e 90 99 af be 72 13 9a bd
       -0.5329567 0.14629997 -0.34296846 -0.0752324
000040 56 2f b9 bc 36 0c 15 bd 3e 51 33 3f e3 f6 f4 3e
       -0.02260558 -0.0363886 0.7004584 0.4784461
000050 d0 77 36 3d 35 9e 94 bb 53 7e 1d 3d 3d 57 26 3e
       0.044547856 -0.0045354613 0.03845055 0.16244216
000060 f1 77 6c 3e 81 59 2f 3d dc 41 a6 be cd 08 c7 bd
       0.23092629 0.042809967 -0.32472122 -0.097184755
000070 3e 46 00 be 92 ac eb be f9 9b a0 be 62 4f 76 be
       -0.12526795 -0.46030098 -0.31368998 -0.2405372
000080 3c 89 8f bd 73 c7 a2 bd 66 74 c0 3d 53 6e 14 3e
       -0.07008597 -0.07948198 0.09397201 0.1449521
000090 ae 77 31 bf a7 b1 69 bd 60 e1 31 3e 8b 30 bc 3e
       -0.6932324 -0.057054188 0.1737113 0.36755785
0000a0 4e 1f 23 3f c2 a2 4c bc 13 14 7a 3e ef 8a 2a be
       0.6371964 -0.012489976 0.2442172 -0.16654561
0000b0 e5 7a 9a be 5c 8f 19 bd 2b e8 e7 be 5e 47 d8 be
       -0.30171886 -0.037490234 -0.45294318 -0.4224195
0000c0 c8 0f eb bd 38 74 ad bd 0f fe 65 3c fb fb 0a 3e
       -0.114776194 -0.084694326 0.014037623 0.13572685
0000d0 b7 94 11 3e c1 9d c5 3d e9 a0 87 3e 5e d8 71 be
       0.14216886 0.0964923 0.26489952 -0.23617694
0000e0 5c c0 05 be f5 2b 29 3f 3c 60 f8 3c 8f a6 26 3e
       -0.1306166 0.660827 0.030319326 0.16274475
0000f0 2f 32 b1 3d e8 fa 30 3f d6 65 7a 3e 51 b2 97 3d
       0.0865215 0.6913285 0.2445291 0.07407058
000100 ec f6 e0 3e 83 c6 9f be a0 53 77 3d a5 20 57 3e
       0.43938386 -0.3120614 0.060382485 0.21008547
000110 cf 96 d7 be 6d 30 19 be 6a f5 ad be 3b 6a 27 3e
       -0.42107245 -0.14959879 -0.339763 0.16349117
000120 04 49 dc bd 49 37 06 3e 0e 0b 55 bd d5 c8 be be
       -0.10756114 0.13107027 -0.052012496 -0.37262598
000130 4c 9e 41 be 43 ad 0e bf 6e c7 be 3d de 3e 48 be
       -0.18908042 -0.55733126 0.09315382 -0.19555232
000140 52 64 fb bd 7c dd b4 bd 55 3e 84 3d 15 26 8b 3d
       -0.12274994 -0.08831307 0.064572014 0.06794373
000150 24 40 49 3e 80 cd c8 3e c0 b4 99 3e 20 84 55 be
       0.19653374 0.39219284 0.30020714 -0.20851183
000160 e1 b6 b7 3e db fc 41 3e 4e 91 bf 3e bc 44 08 3f
       0.35881713 0.18944113 0.37415546 0.5322988
000170 17 d6 8b 3b 69 6e 3f be 6b c8 42 3e 7d 44 90 3e
       0.004267465 -0.18694462 0.19021766 0.28177252
000180 f7 da c3 ba 36 80 81 be c5 0b 6e 3d bc fa dd bc
       -0.0014942576 -0.2529313 0.058116693 -0.027097099
000190 87 85 29 3e b3 69 c2 3e eb 07 8f 3e 2b b0 96 3e
       0.16554843 0.37971267 0.27935728 0.2943128
0001a0 96 12 e8 be 46 1a 3e 3e 03 1a 59 be 48 50 90 3d
       -0.4532668 0.1856471 -0.21201329 0.070465624
0001b0 2b e7 21 be e4 a8 60 3e d2 0d 38 3e cf 52 5f 3e
       -0.1581084 0.21939427 0.17974022 0.21808933
0001c0 dc 96 c6 be f6 a1 85 bd 0c 89 35 bf 56 b1 91 3d
       -0.38786972 -0.06525032 -0.7091224 0.07113902
0001d0 13 d5 95 3e 74 98 95 3e ae bc b9 3e ac ed be bd
       0.29264125 0.29217875 0.36276764 -0.09322676
0001e0 8a 4a 4c be 68 a2 c3 bd 15 f8 80 be 7f 1a 08 3f
       -0.1995031 -0.09552461 -0.25189272 0.5316543
0001f0 8c 55 0c 3f 14 40 04 3b 25 55 1a be 6f 7a 62 3d
       0.54818034 0.0020179795 -0.15071543 0.055292543
000200 31 c7 6c be 06 f6 49 bd 02 da 25 3d d7 8e b7 3e
       -0.2312286 -0.04930689 0.04049111 0.35851166
000210 2b 06 bc 3e 5e 7f 05 be 67 d0 ce 3e 52 b4 74 3d
       0.36723456 -0.13036868 0.40393373 0.05974228
000220 23 95 05 be a0 46 8f 3d fa 0b 10 3f e9 fd 24 3e
       -0.13045172 0.069958925 0.56268275 0.16112484
000230 e6 97 e0 3e 6a 38 02 3e a3 9a 02 3f e8 cd a1 be
       0.4386589 0.12716833 0.51017207 -0.31602407
000240 20 f3 22 be a9 f7 c1 be 1f 71 82 bd 01 50 09 bf
       -0.15913057 -0.37884262 -0.063692324 -0.536377
000250 ff 0f f1 be ce eb ca be 3c 5f 36 be d9 ec cc 3d
       -0.47082517 -0.3963303 -0.17809767 0.100061126
000260 88 85 39 3e 6d a9 90 be 19 3c a6 be e4 d5 9b bd
       0.18117344 -0.28254262 -0.32467726 -0.07609156
000270 4f 27 32 be 51 8d 78 be 4c f0 56 3e 18 5d e7 bd
       -0.17397808 -0.24272658 0.20990103 -0.11297053
000280 a7 0a 8e 3d e6 f6 9b be fa 68 93 3b 77 ac 8e be
       0.069356255 -0.30461806 0.004498598 -0.27865955
000290 d4 3c 07 be 4e 4c 8c bd 7b 3e f4 bd 3f cf 9b 3e
       -0.13206798 -0.068504915 -0.1192598 0.30431554
0002a0 4c 09 63 3e 89 17 bd be b2 4e f8 bc ec e5 f8 bd
       0.22171515 -0.36932018 -0.030310962 -0.12153229
0002b0 64 d1 df bd 0c e4 93 be df 80 b5 3e ce 8a 85 bd
       -0.1092861 -0.28884923 0.35449883 -0.065206155
0002c0 bb c7 c8 be ac 2d 43 be 5e 83 dd bd bb 64 f8 bd
       -0.39214882 -0.19060391 -0.10816072 -0.12128588
0002d0 e0 7c 2a 3f 57 85 18 3f 2d c6 4b 3d 2d aa 3a be
       0.66596794 0.5957846 0.049749542 -0.1822898
0002e0 c8 66 7d be 90 36 08 3f 82 d5 e5 3d e9 fc 65 be
       -0.24746239 0.53208256 0.11222364 -0.22459759
0002f0 15 f0 50 3e 67 79 23 3d 8f 8b 8d 3e c4 47 6c be
       0.20404084 0.0399107 0.27645537 -0.23074251
000300 a4 12 02 3f 7f b2 f4 be 45 8a f6 3d 0c 13 94 bd
       0.50809693 -0.47792432 0.120380916 -0.072301954
000310 4d e8 2c 3e b5 9c 18 be b6 88 10 bb 77 2c 3d 3d
       0.1688549 -0.14903529 -0.0022054142 0.046184983
000320 6a 3e 1f 3f c8 a6 3f be 15 3e c4 be ec b4 e4 bd
       0.6220461 -0.18715966 -0.38328615 -0.111673206
000330 cd 3f 01 be f9 83 4d be 65 b6 2c 3e bf f6 0d be
       -0.12621994 -0.20069875 0.16866453 -0.13863657
000340 7f c8 97 3e c6 08 6d be 39 b3 5f 3e 0d 9c b1 be
       0.29645154 -0.23147878 0.21845712 -0.3468937
000350 f3 fb ab be 0c 2e e0 bd 99 14 ce be 6f fe 61 be
       -0.3359066 -0.10946283 -0.4025009 -0.22069715
000360 fa 29 33 be 14 65 80 be 77 86 41 bc 5c 04 29 3d
       -0.17496482 -0.25077116 -0.011811844 0.041263923
000370 2e ea f5 be 56 aa 34 3e 90 08 02 bd e9 87 55 bf
       -0.48030227 0.17643103 -0.031746447 -0.8341051
000380 5c 76 44 be 15 0a 44 3e 12 8c 40 be 8f 31 c8 3e
       -0.19185776 0.19144471 -0.18803433 0.3910031
000390 94 89 04 3e 96 20 9a bd 7b fc 57 3d 6a 4b 9f 3d
       0.12943107 -0.075257465 0.05273102 0.07778056
0003a0 ff 8a d5 be 5c f6 e6 3d 26 aa d5 3e 4c 3d 10 3f
       -0.41707608 0.11277458 0.41731375 0.5634353
0003b0 7a 9a ca 3d d4 d6 2d 3e c3 72 18 3f 57 bd 98 3e
       0.09892745 0.16976482 0.5955011 0.29831955
0003c0 99 60 21 3e 04 1a 85 3e 5a 1c 05 3f 4d 98 7d bd
       0.15759505 0.2599641 0.51996386 -0.061912823
0003d0 df d0 45 be 71 bc 4c 3e 76 c9 35 be 00 21 cf bd
       -0.19317959 0.1999376 -0.17752632 -0.10113716
0003e0 d8 c2 9b 3e 0a 17 01 bf 5b a6 23 bf c6 f5 9d be
       0.3042209 -0.5042578 -0.63925713 -0.30851573
0003f0 c4 1c ac be b8 2e d6 bd ee f0 c6 3c b2 50 b3 be
       -0.33615696 -0.1045813 0.024284806 -0.35022503

critic.4.bias f4 [32]
000000 06 bc d0 bd ce 7a df bd ba a8 bf bd 71 15 d6 3d
       -0.101921126 -0.10912095 -0.09358354 0.104533084
000010 97 8d cd bd f1 cc e7 3d ae 3b e1 3d e7 55 ee 3d
       -0.10036772 0.11318386 0.10997711 0.11637478
000020 64 0b c4 3d db e4 d2 bd 8e a5 e4 bd 32 cd d8 3d
       0.09572485 -0.10297557 -0.111643896 0.10586013
000030 80 75 db bd 38 f0 d7 bd 29 ca b1 3d e2 6c ca bd
       -0.10715771 -0.10543865 0.08681137 -0.09884049
000040 d9 e6 d9 bd 38 8d bc 3d cd 1d c3 bd 33 d7 eb 3d
       -0.10639734 0.09206623 -0.095271684 0.11515655
000050 07 d2 e8 3d 88 3e da 3d 23 d2 e3 3d ce e0 b4 bd
       0.113681845 0.10656458 0.11124065 -0.088319406
000060 7a 8d eb bd e2 4f 02 be fd 7e c9 3d cb 24 dd 3d
       -0.11501594 -0.12725785 0.09838674 0.10798033
000070 f8 7e ed bd ec 5a d9 bd 5d fe d0 3d e7 d9 00 3e
       -0.11596483 -0.10613045 0.10204766 0.12583123

critic.6.weight f4 [1, 32]
000000 fc 35 0b bf 83 56 b2 be 6a 88 8d be 1a 0b 52 3e
       -0.5437925 -0.34831628 -0.27643138 0.20512047
000010 17 e3 a3 be 60 cc 0e 3e 47 63 09 3e 9b 5a 1a 3e
       -0.32009193 0.1394515 0.13416778 0.15073626
000020 39 98 08 3f f4 6a e8 be 85 54 57 bd 73 c6 07 3e
       0.53357273 -0.453941 -0.05257084 0.13259296
000030 c8 46 2f be fa d2 38 be 1e dd 88 3e 86 4e 4b be
       -0.17116845 -0.18049231 0.267312 -0.19854173
000040 46 0c f9 bd 7e 20 bb 3e 9b 48 39 be 69 3d aa 3e
       -0.12160544 0.36548227 -0.18094103 0.33249977
000050 43 d5 4d 3e 05 04 64 3e 96 fe d4 3d 50 2d 61 be
       0.20100884 0.22267158 0.10400121 -0.21989942
000060 35 40 6d be 53 a0 f4 bd 98 54 10 3d d2 c5 0c 3e
       -0.23169024 -0.11944642 0.035236925 0.13747337
000070 9e a8 7d be b1 6c 03 bd 54 c4 09 3e 95 84 21 3e
       -0.24771354 -0.032086078 0.134538 0.15773232

actor.0.weight f4 [64, 3]
000000 01 6e 3f be a5 22 a9 3d 57 37 8c 3d ac b2 c1 3d
       -0.18694307 0.08258561 0.06846493 0.09457907
000010 4e 55 ed bb 4c 54 f2 3c 29 dc 03 3e 52 74 84 bd
       -0.007242835 0.029581212 0.12876953 -0.06467499
000020 01 51 74 bc 0b 2c c7 3d c8 fd 4b 3d 67 73 b0 3d
       -0.014911891 0.097251974 0.04980257 0.08615761
000030 e3 31 73 3e df 28 ac 3d 8a fb 84 be cc 4b a1 3e
       0.23749499 0.08406233 -0.2597316 0.3150314
000040 4d 45 2c be 5a 87 50 be e7 f1 93 be 63 ce 80 bb
       -0.16823311 -0.20364133 -0.28895494 -0.003930853
000050 b7 fb 0c 3d e0 15 2f be d6 49 bf be 6f 01 96 3d
       0.03441974 -0.17098188 -0.3736102 0.07324492
000060 a0 b4 96 bd 58 45 46 bc 17 da 27 3e 31 f8 89 bd
       -0.0735867 -0.012101494 0.16391788 -0.06736792
000070 8b 28 86 bb d2 6a b3 3d 9b 59 98 bd f6 e7 0a bd
       -0.0040941886 0.08760609 -0.07438966 -0.03391262
000080 6b d8 00 3e 0b 9f d1 3d 8d 99 4b 3d ea 9c 29 bd
       0.12582557 0.10235413 0.049706984 -0.04140941
000090 29 89 9c be 0b 60 b3 3c 63 ed 4f 3e c1 33 12 3e
       -0.30573395 0.021896383 0.203054 0.14277555
0000a0 e9 45 b7 be 56 19 e4 3d 60 40 e8 bd 3f e2 6d 3e
       -0.35795525 0.11137645 -0.113404036 0.23230837
0000b0 34 8e 1f 3d d9 19 d5 bd a7 51 33 3d af aa 71 3d
       0.038953975 -0.10405321 0.04377904 0.059000667
0000c0 c1 57 89 3d 03 56 29 3e 1e 4a 3c 3d 2d a9 30 3e
       0.06706191 0.16536717 0.04596912 0.17252035
0000d0 a7 8d c5 be 92 74 93 3d 05 e9 a5 3d 0b 09 51 be
       -0.38584635 0.071999684 0.081010856 -0.20413606
0000e0 0d 24 0a 3d af dc 40 be ae 0b 9d 3e eb 17 10 3d
       0.033725787 -0.18834184 0.30672973 0.03517906
0000f0 b4 7d e5 bd f0 86 2f bd 77 a7 8b 3e e5 c4 db be
       -0.112056166 -0.042853296 0.27276203 -0.42923656
000100 fb ce c4 be a4 0e c1 3e 2c e8 34 3e 4c 21 22 be
       -0.38439164 0.37706482 0.17666692 -0.15833014
000110 66 03 7f 3d 7e 6b 05 be 67 43 34 3c 4f 7d 0c 3d
       0.0622591 -0.13029286 0.011002398 0.03429919
000120 1c c2 78 3d 28 fa 38 3d 77 db 9c 3c 07 6b df 3d
       0.060731992 0.045160443 0.019147618 0.10909086
000130 fc 7e 36 bc 89 2f 0a bc a7 b9 46 3c 05 4d f1 bd
       -0.011138674 -0.008434185 0.012129224 -0.117822684
000140 ad e1 cc bb 8f d5 0c 3e 50 c8 c5 3d 43 86 d9 3d
       -0.0062524886 0.13753341 0.09657347 0.106213115
000150 27 f1 d5 bd 90 60 3e be c3 4d 41 3e e1 38 c6 3e
       -0.10446387 -0.18591523 0.1887732 0.3871527
000160 85 d1 ad bd e1 39 0b 3e 66 ca 28 be 7e 1c 51 bd
       -0.08487228 0.13596298 -0.16483459 -0.051052563
000170 e6 7a fb 3d 63 c9 a6 3d 1f e2 5f be 87 22 6a bd
       0.122793004 0.0814388 -0.21863602 -0.057161834
000180 b6 9c 60 be 0c 93 d9 bb 36 84 9d 3e a6 e5 3c 3e
       -0.2193478 -0.006639844 0.3076493 0.18446979
000190 74 03 c7 be 6c 47 5b be b2 4f 93 bb e0 bd dc bc
       -0.38869822 -0.21413964 -0.0044955844 -0.026946008
0001a0 42 53 80 3e 0b 1b 2f bd c9 22 b5 bd e7 8f f7 3d
       0.2506352 -0.0427504 -0.08844525 0.12087994
0001b0 34 e3 31 bd 4a 8f 26 be c6 ab 00 3e cc 74 92 3b
       -0.04342957 -0.16265598 0.12565526 0.0044694897
0001c0 74 e4 ab bd 97 43 87 3c 09 c2 b8 3e ef 23 87 bd
       -0.08393183 0.016511722 0.36085537 -0.06598651
0001d0 57 ab 03 bd e7 47 97 3e 79 fd 62 be 2d ac 6c be
       -0.032145824 0.29547045 -0.22167005 -0.23112555
0001e0 d1 f9 80 be 24 7f 43 3e 29 8f bc bd 54 2c 68 be
       -0.25190595 0.19091469 -0.09206993 -0.2267316
0001f0 62 8a c3 3e 6d 02 5e 3d 29 db 96 bd cc 8b 09 bd
       0.38191515 0.054201532 -0.0736602 -0.033580586
000200 3b b0 93 39 9c 3a 40 bd d4 0d c6 3c 6d 22 a5 bc
       0.00028169327 -0.046930894 0.024176516 -0.020158017
000210 e5 16 0f be 76 ff 44 3e 2e d7 d2 be 3d dd d1 bd
       -0.13973577 0.19238076 -0.41179794 -0.10247276
000220 e8 37 2d 3e de 5a 8b bc fd 04 34 3e f7 27 e5 bd
       0.16915858 -0.017011102 0.17580028 -0.11189263
000230 f6 5b df bd 30 78 0b 3e f5 88 e5 bd b5 ed 3d bd
       -0.10906212 0.13620067 -0.11207763 -0.046369273
000240 61 e2 1b 3d 0b 20 ca 3d ea 0d fc 3d 09 92 bc 3e
       0.03805769 0.09869393 0.123073414 0.36830166
000250 df f9 cc 3c 80 4f e0 bd a4 6e 13 be d6 2c 0b be
       0.025021492 -0.109526634 -0.14397675 -0.13591322
000260 f7 73 40 3e 7a de df 3d d2 bb 9f 3d 4d 4b 15 bf
       0.18794237 0.10931106 0.07799496 -0.58318025
000270 23 fe e8 3d f3 27 75 be 35 7c 0c bd 4d 04 8d be
       0.11376598 -0.2394102 -0.03429814 -0.27542344
000280 19 99 e8 bb 7d e1 12 bc 80 23 7d 3e 38 95 84 be
       -0.007098329 -0.008964893 0.24720573 -0.25895095
000290 e8 08 6b 3d 80 ea 30 bd 76 31 2c 3e ef dd 68 3d
       0.05738154 -0.043192387 0.16815743 0.056852277
0002a0 2a 9a b5 3d 1b ba 69 3e eb 60 bd bd e7 e6 52 bc
       0.08867295 0.228249 -0.09247001 -0.012872434
0002b0 4d 6f 31 be 83 45 a7 3d 66 cf c8 3d fe 3b d4 bd
       -0.17327614 0.08167555 0.09805183 -0.10363005
0002c0 6a e5 4e 3c f2 d7 17 be e1 7a 04 3e d1 50 5b 3e
       0.012627939 -0.1482847 0.129375 0.21417548
0002d0 ac ac 63 be d2 be f9 3e 6c f6 88 3d 38 d1 68 3e
       -0.22233838 0.48778397 0.06687626 0.2273606
0002e0 2f 03 7a bd cc a7 a9 3e 76 c9 59 bd 87 3b 99 3d
       -0.061038192 0.3313583 -0.053170644 0.07482057
0002f0 98 9d 12 3d fd ec 0e be 52 d0 5d 3e 5a 92 82 bd
       0.035794824 -0.13957591 0.21661499 -0.063755706

actor.0.bias f4 [64]
000000 6e d0 19 3d 69 6a 82 bd 3e 33 82 bd 80 28 ae bd
       0.03755229 -0.063679524 -0.0635743 -0.085038185
000010 d0 31 83 3d 66 8a 70 bd a9 11 ae 3d 35 91 15 3d
       0.06405985 -0.058725737 0.08499462 0.036515433
000020 ad 67 ce bc a8 c1 77 3d 4b e2 29 bd be 09 c5 bc
       -0.02519592 0.06048742 -0.041475575 -0.024052497
000030 ee 29 70 3c 33 be 24 bd a8 74 74 3d 9d 29 19 3c
       0.014658434 -0.04022045 0.059681565 0.0093483
000040 48 4d 45 bd cf 6e 7b bd 0e a5 47 3c 55 c1 0e bd
       -0.048169404 -0.061384972 0.012185348 -0.034852345
000050 9d 99 87 bd b5 fc 4b 3c 1b 23 c3 bd 7f c0 42 3d
       -0.06621096 0.012450387 -0.0952818 0.04754686
000060 a9 f2 63 3c 03 70 d6 bd 8c 4f b5 3c 71 a7 fd bc
       0.013912835 -0.10470583 0.022132657 -0.030963631
000070 36 62 06 bd 16 80 47 bd cf 17 89 3c 3f 83 74 bc
       -0.032808505 -0.048706137 0.016734986 -0.01492387
000080 ba 41 30 3c f7 e0 86 3d d8 01 cd bc 3c f5 9a bd
       0.010757858 0.065858774 -0.025025293 -0.07566306
000090 e0 e7 18 bd 96 18 ad bc 0e 07 83 bd 6e a3 d2 3c
       -0.03733051 -0.021129888 -0.0639783 0.025712695
0000a0 f5 8c 0f 3d 48 79 32 3d f0 e1 81 3d 39 39 5b 3d
       0.035046536 0.043572694 0.06341922 0.05352137
0000b0 08 b8 8e 3d bd 5a f5 3b e8 06 64 3d 93 03 5b 3d
       0.06968695 0.0074876235 0.05567065 0.053470206
0000c0 ce 32 4d bd 1c 95 80 bd cf 4d c6 3c e7 fc 57 3c
       -0.05009728 -0.0627844 0.024207024 0.013182855
0000d0 16 a8 9a 3d ec 8c 5b 3d cc 62 9d bd 1c 05 17 bd
       0.07551591 0.05360119 -0.0768486 -0.036870107
0000e0 fe c9 81 3d 97 12 2c 3d e0 8b 1f 3d 09 28 07 bb
       0.06337355 0.042009916 0.038951755 -0.0020623228
0000f0 e3 e3 4c bd d2 aa 9f bd 26 ad 10 bd 73 ba 61 3d
       -0.050022017 -0.07796253 -0.035321377 0.055109452

actor.2.weight f4 [16, 64]
000000 21 51 14 be 75 29 4d be 2a d3 62 3d ff f4 0f bd
       -0.14484073 -0.20035346 0.055377163 -0.035145756
000010 a8 7b 4a be d3 42 be bd 2c e4 75 3e 4b 87 0c be
       -0.19773734 -0.092900895 0.24012822 -0.13723485
000020 67 ad 49 bd ef e1 f9 bd 2b 2b 07 3e 0a 8b 75 bd
       -0.049237635 -0.122012965 0.13200061 -0.05994705
000030 e6 f7 ad bc 07 23 91 bd 44 f1 1e be dc 6d 5b 3e
       -0.021236371 -0.07086759 -0.15521723 0.21428627
000040 e6 f7 08 3e 5f 40 c5 be 9c 58 d8 3b 58 c1 8b 3e
       0.13375816 -0.38525674 0.00660236 0.27295947
000050 4b c7 a2 3b db 92 57 3c 74 b1 5d be 05 8c 8b 3e
       0.004967605 0.013157572 -0.21649724 0.27255264
000060 a3 fa 4f 3e b2 7c 0e be 1e 87 59 3d d5 76 d6 3d
       0.20310454 -0.13914755 0.053107373 0.10471884
000070 e1 36 87 3e 68 60 84 3d 80 24 ff 3d 46 e5 f8 bd
       0.26409057 0.064637005 0.12458134 -0.121531054
000080 e0 9f ff bd fc d6 79 3e 89 ca 60 3e db cb 5c 3e
       -0.124816656 0.24398416 0.21952261 0.2156214
000090 3a 9a 18 3e ac 4e 11 3e 00 0d 6b be 05 e5 eb be
       0.14902583 0.14190167 -0.22954178 -0.46073166
0000a0 98 54 87 3e fa 93 ed 3c 0f 09 45 be 4a 94 5a 3d
       0.26431727 0.029001225 -0.19241737 0.053364076
0000b0 10 a9 16 3e 5c 0e f6 bd 60 ac b7 3e 0d 15 92 bd
       0.1471293 -0.120144576 0.358737 -0.07132921
0000c0 3b e8 0b 3e 0a 87 7f bc 7a 25 b6 be 31 14 fd bc
       0.13662808 -0.015596161 -0.35575467 -0.030893417
0000d0 50 0a 1b 3d 63 1a 91 3e 60 c2 b5 bd 67 2b 22 3d
       0.03785163 0.28340444 -0.08874965 0.039592173
0000e0 1b 3d 1f 3e 42 63 aa be ee e3 40 bd ee ba 01 3f
       0.15550654 -0.33278853 -0.04709237 0.5067586
0000f0 06 52 ce 3d ec 99 45 bd 92 0a 07 be 9d e0 c8 3d
       0.100742385 -0.048242494 -0.13187626 0.098084666
000100 90 e6 51 3d 1e 46 a1 3d 9c cd 47 3e 7f 43 48 be
       0.051245272 0.07874702 0.19512028 -0.19556998
000110 c7 5e f5 bd 03 ef 08 bf 2d 8d 37 bd 23 f6 28 3d
       -0.11980968 -0.534897 -0.04481237 0.04125036
000120 29 71 cb bd d1 cd ac 3e 9b a0 ef 3b 29 c6 a9 3d
       -0.09933693 0.33750775 0.007312847 0.08289749
000130 9a 4b 06 3e 5b 66 a9 3e 02 21 47 3d 5f 0d 6f 3e
       0.13114777 0.33085904 0.048615463 0.23344944
000140 d6 d9 8a 3e 7c 40 1b bd a3 f6 a4 3e 1c 22 b0 3e
       0.2711932 -0.037903294 0.3221942 0.34401023
000150 20 d9 51 be 5d 1d 0d be 51 dc 20 3e 81 3f 11 be
       -0.20492983 -0.13780732 0.15709044 -0.14184381
000160 87 4f c5 bd 95 a6 9c 3e 3b 66 05 3c df c9 13 bb
       -0.09634309 0.30595842 0.008142049 -0.0022550744
000170 06 73 0c bc 88 2e b8 3d ad cb 8e 3d a3 26 89 be
       -0.008572346 0.0899325 0.06972442 -0.2678729
000180 36 ef 00 be 88 0d 18 be 01 d0 80 bd bd 80 3a 3e
       -0.12591252 -0.14848912 -0.062896736 0.18213172
000190 35 40 ae 3d 5a a0 05 be 12 fb cb bc 02 e6 af 3d
       0.0850834 -0.1304945 -0.024899993 0.085887924
0001a0 1c e7 de 3d 0e 16 8c be 02 9b 57 bd a6 de ba 3c
       0.10883924 -0.27360576 -0.05263806 0.022811245
0001b0 ce 46 98 bd 36 57 61 3d e4 36 f0 3a a2 a5 41 3e
       -0.0743538 0.05501481 0.0018326906 0.1891084
0001c0 2f f1 84 bb 8f 50 29 3e c6 f8 49 bd 99 e0 5b 3e
       -0.0040570716 0.16534637 -0.049309514 0.21472396
0001d0 8c 72 9f bd 33 06 25 3e 2e 19 e3 3c f6 fe 85 bc
       -0.0778552 0.16115646 0.027721968 -0.016356926
0001e0 9b 03 28 3d 37 c1 de 3b 29 21 19 be d9 bf c5 be
       0.041019063 0.0067979353 -0.14954056 -0.3862293
0001f0 a4 2c 24 bd c8 28 42 be a3 4b 98 bb 2c 11 bd 3e
       -0.040081635 -0.1896087 -0.0046476885 0.36927164
000200 1e 8d 85 3e 25 99 98 3d 8e 0e 01 bd c5 25 a5 3d
       0.26084226 0.07451085 -0.03150802 0.080638446
000210 88 54 c7 3d 5d d8 02 3e d9 40 30 3c 71 9b 0c bd
       0.0973292 0.12777849 0.010757648 -0.034327928
000220 fc d8 1f 3e 65 40 7b be 18 78 fd 3d 66 3b c1 3e
       0.15610117 -0.24536283 0.12376422 0.3774063
000230 30 4a 15 bd c8 8a ea 3c 2b 70 f9 bd 68 05 13 be
       -0.036447704 0.02863063 -0.121795975 -0.14357531
000240 a7 de c1 3e d6 72 1b be b4 d9 33 be 6d 36 b2 bd
       0.37865183 -0.15180525 -0.17563516 -0.08701787
000250 9a 1f 5a 3d 34 60 e7 bd 49 0a 1b 3d eb 66 76 bc
       0.053252794 -0.11297646 0.037851606 -0.015039186
000260 51 8d f8 bd ee ec b7 3c 4b 82 1e be 63 8a 6b bb
       -0.12136329 0.022451844 -0.1547939 -0.003594064
000270 4e eb 3b ba dd f0 19 3e de 5c 4f be d4 99 ab 3d
       -0.0007168547 0.15033288 -0.2025027 0.0837895
000280 af f2 3c be 96 b2 28 3e d4 3c 82 bd f4 83 94 be
       -0.18451951 0.16474375 -0.06359258 -0.29006922
000290 1f 01 c9 bd 29 ab 9e be 39 86 91 be 46 54 d8 3d
       -0.09814667 -0.3098996 -0.28422716 0.10562949
0002a0 d9 ac e8 be 1c d5 8b bd b8 f2 f6 be f2 a4 5a 3e
       -0.45444372 -0.06827757 -0.48232055 0.21351984
0002b0 ec 28 a0 3e 62 cd e6 bd 12 b3 1d bc 76 2d db bd
       0.3128122 -0.112696424 -0.009625213 -0.1070203
0002c0 57 dc a8 bb cd 41 aa 3d ee f3 3d be 1c 10 e8 3e
       -0.0051532197 0.08313332 -0.18550083 0.4532479
0002d0 3c d4 87 3d 31 08 fc bd 2e cf f0 bd 54 cd 04 3e
       0.06632277 -0.1230625 -0.117582664 0.12968951
0002e0 8d 31 9a 3a 70 52 0c 3e ad 56 30 bd e9 bb e7 bd
       0.0011764035 0.13703322 -0.04305141 -0.11315138
0002f0 98 42 91 3c 7b ee da 3d 09 0d d5 bc 40 8d 66 bd
       0.01773195 0.10690018 -0.026007192 -0.05628705
000300 9a f5 6e be f0 f6 a2 3e 7b d9 88 bd c3 72 8d be
       -0.23335877 0.31829023 -0.06682106 -0.2762662
000310 ea b5 65 bd 33 22 09 3d 57 74 80 be d7 ab d4 3d
       -0.05608169 0.03347988 -0.2508876 0.10384338
000320 89 a5 a1 be ce 34 26 be 1b 8a b5 bd fa db 91 3e
       -0.31571606 -0.16231081 -0.08864232 0.2848814
000330 6e f6 ad bd 50 85 bb 3d 8c 3c 6d 3e 5d d0 9c 3e
       -0.08494268 0.09156287 0.23167628 0.3062772
000340 d8 33 a8 3d 43 c5 07 be 0d 74 9f be 92 c4 84 3d
       0.082130134 -0.13258843 -0.31143227 0.06482805
000350 66 a6 be bc 76 92 df bd 90 d7 28 be 94 c2 4a bd
       -0.023272704 -0.10916607 -0.1648848 -0.04950197
000360 bb 28 c7 3d c5 0b b3 3d 29 89 9d be 9b df 79 3d
       0.097245656 0.08742479 -0.30768707 0.061004262
000370 fd 51 05 be 9e 8a b8 3d 29 e0 3a 3e 00 f8 77 3d
       -0.13019557 0.09010814 0.18249573 0.060539246
000380 f9 1e e8 bd b5 22 dd bc dc fd 07 3c 47 d9 19 3e
       -0.113340326 -0.026994089 0.008300271 0.15024291
000390 71 7d fa bd 75 8e 56 3e 98 07 d7 bd c1 3f 90 bd
       -0.12230957 0.2095278 -0.10499495 -0.0704341
0003a0 70 37 b6 bb ec ac 91 3d 2f 0d 0f bd ca 90 0c 3e
       -0.005560808 0.0711306 -0.034924682 0.13727108
0003b0 66 72 89 3d 94 a9 30 3e 90 37 3d bd b5 58 81 be
       0.06711273 0.17252189 -0.046195567 -0.2526299
0003c0 35 14 53 be ea 75 8e be d8 9a c8 3d 12 52 a7 bc
       -0.20613177 -0.27824336 0.09795159 -0.020424876
0003d0 ab 68 eb 3c 71 ea 4f 3d b1 ca 9c be 3e e8 8f 3e
       0.028736433 0.05076069 -0.3062339 0.28106874
0003e0 e3 ff 60 3e 7e 45 c6 3d f4 d0 33 be ff 23 d8 3d
       0.21972613 0.09681223 -0.17560178 0.10553741
0003f0 f5 2c 03 3f 8f cc 27 3d 1f 62 ba 3e cb 14 5b 3e
       0.51240474 0.040966567 0.36402985 0.2139465

actor.2.bias f4 [16]
000000 c7 b0 70 3d 79 30 de 3c bc 60 23 3d ce a6 02 3c
       0.058762338 0.027122723 0.039887175 0.00797434
000010 aa 7e d6 bc 92 4c f4 3c ae 8d 50 3d 45 8a 16 3d
       -0.026183445 0.029821668 0.050916366 0.036752958
000020 29 be b5 3c c6 e5 39 3c ca 72 63 bc a2 bc dc 3b
       0.022185402 0.011346286 -0.013882348 0.006736354
000030 ff 57 bd bc 03 2d 2c bd eb e5 ed 3c 6b b9 40 bd
       -0.023113249 -0.042035114 0.029040297 -0.04705183

actor.4.weight f4 [32, 16]
000000 26 dd 68 3d d3 e7 f4 bd 06 3d 54 3e 49 e8 43 be
       0.05685153 -0.119582795 0.20726404 -0.19131579
000010 89 6c 09 3f 8a f9 06 bd 4c d3 ab bd b7 f6 93 be
       0.53681237 -0.032952823 -0.08389911 -0.28899166
000020 0a d7 ba 3d ef 59 09 3d 51 06 21 3e 7e 08 de 3d
       0.09123047 0.033533033 0.15725066 0.108414635
000030 d0 48 85 3e 4b 04 c6 3d 5e 9c 04 3e 5a 68 ec 3e
       0.26032114 0.096687876 0.12950274 0.46173364
000040 39 44 99 be eb 39 06 3d 93 35 cd 3e e0 66 9e bc
       -0.29934862 0.03277008 0.40079936 -0.019336164
000050 8d 90 7f be 30 8f c8 bd f4 43 9a be 2f e3 8b be
       -0.24957485 -0.09792936 -0.3012997 -0.27321765
000060 00 52 02 3e 8f 28 e7 3a b0 a6 94 3e e9 45 d1 be
       0.12726593 0.0017635989 0.29033422 -0.4087365
000070 7a 2b fe 3e 05 bb 93 be 42 77 b8 be 97 ca 73 be
       0.49642545 -0.28853622 -0.36028486 -0.2380775
000080 0a 70 bc bd 05 06 8e 3e 22 5a 63 3e 60 b0 ef bd
       -0.09201057 0.27738968 0.22202352 -0.11703563
000090 84 18 36 3e 8d 71 9c 3d 78 2b 66 be 90 c2 e4 bc
       0.1778279 0.076388456 -0.2247752 -0.027924806
0000a0 91 f8 6f 3e ea 0a 0e bf 1b 4b c6 3e 7a e4 e6 3d
       0.23434664 -0.55485404 0.38729176 0.11274047
0000b0 83 8a 8c be 5f 04 c8 3d 4b 75 04 3e ff eb a8 be
       -0.27449426 0.09766459 0.12935369 -0.3299255
0000c0 bb 17 47 3e 37 fc 16 bf d5 8a 08 3e d1 cd ae 3e
       0.19442646 -0.589786 0.1333421 0.341414
0000d0 6f 66 68 3e 26 e1 ad 3e 11 aa 71 be f1 98 34 3d
       0.22695325 0.33960837 -0.23600031 0.04409117
0000e0 43 85 18 3e 4b 96 cb bd 24 54 c3 3d b7 17 e7 bd
       0.14894585 -0.099407755 0.09537533 -0.1128382
0000f0 f2 f6 40 3e d9 be 60 bd 3e ff 10 3d a9 aa c0 be
       0.18844202 -0.054869507 0.035399668 -0.37630203
000100 11 c7 b8 3d 47 27 d4 3d 26 11 27 3d 04 ff 4c 3d
       0.09022344 0.10359054 0.04078784 0.05004789
000110 e9 cb 09 bf 51 bf 4e 3e 62 38 62 3e a4 b6 51 be
       -0.5382677 0.20190169 0.22091821 -0.20479828
000120 a2 cc b2 be cf 2c d5 be 16 c7 dd 3d b4 9c 48 be
       -0.34921747 -0.4163575 0.10828988 -0.19591027
000130 b3 e0 53 be e5 cd b0 3d cc df 40 3d cc 78 1e be
       -0.20691185 0.08633021 0.04708843 -0.15475768
000140 08 34 37 bf 16 7f 6f 3e 76 5c 07 3e ca 73 6e 3e
       -0.7156377 0.23388323 0.13218865 0.23286358
000150 a0 f5 a9 bd 25 d5 9a 3e 0c aa d3 bc 75 44 00 be
       -0.082988024 0.3024074 -0.02583792 -0.12526114
000160 6f 9c 41 3e ab de de 3d f6 0d 55 3d 81 5f 2d 3e
       0.18907331 0.10882314 0.052015267 0.16930963
000170 c1 b5 2d 3e 94 66 5a be eb 15 bd 3c 6f 30 c4 3c
       0.16963865 -0.21328193 0.02308174 0.023948876
000180 95 f7 72 3e 77 19 72 be 30 a3 36 3e e3 09 f1 be
       0.23727258 -0.23642527 0.17835689 -0.47077855
000190 75 61 43 3e 10 dc 46 bd a8 bf b9 3d f7 ba 85 be
       0.19080146 -0.04854971 0.09069759 -0.26119205
0001a0 a3 46 68 be 6e 91 f3 3d 06 98 cf 3d 7e 06 f3 bd
       -0.22683196 0.11892973 0.10136418 -0.11866473
0001b0 48 39 98 be 99 4f 56 be 76 b7 d2 bc 40 09 92 be
       -0.29731202 -0.20928802 -0.025722247 -0.28522682
0001c0 dc 70 67 3e 0a c3 eb 3e 6a e7 e8 3e 6b 6a f9 3e
       0.22601646 0.4604724 0.45489055 0.48714003
0001d0 bb 83 3b bd c2 33 2f 3e 79 f6 b6 3e dc a8 4f 3d
       -0.045779925 0.17109588 0.3573492 0.050698146
0001e0 d3 9c a3 bd 6e e3 af 3e f4 7d ef 3d 78 10 c2 3d
       -0.07988896 0.34353203 0.116939455 0.094757974
0001f0 f1 3f f4 3d bb cf 27 bd 20 cd fa 3e 2a 02 24 3e
       0.11926258 -0.04096959 0.48984623 0.1601645
000200 2f b8 bc bd 1e 4b 84 be ac 48 ba bd ee 24 48 3e
       -0.09214818 -0.2583856 -0.09095892 0.19545338
000210 c5 14 a6 3d 42 f0 99 3e 22 d8 6c 3e 3f bd af be
       0.0810943 0.30066115 0.23129323 -0.3432407
000220 41 7c ec bd 85 8a db 3d 94 09 af 3e 99 f5 3f be
       -0.11547137 0.1071978 0.34186995 -0.18746032
000230 c6 52 f4 3d 45 30 74 bd 6b 44 eb be 29 c6 ae 3e
       0.1192985 -0.059616346 -0.45950636 0.3413556
000240 f3 7a 46 3e 5c ec c1 bd 91 25 eb bc 07 62 26 3d
       0.19382839 -0.0946891 -0.028704436 0.04062083
000250 84 fb eb bd fb b6 72 be 58 9b 9d 3e a3 65 f3 bd
       -0.11522582 -0.23702614 0.3078258 -0.1188462
000260 4e 1f 7e 3e 76 2f 46 be d8 a5 dd 3d d1 65 0e 3f
       0.2481663 -0.19354042 0.10822648 0.5562411
000270 ca 00 20 be ba 02 6e 3e 1f 7f 1b be 71 3a 69 3e
       -0.15625301 0.23243228 -0.15185212 0.227762
000280 a7 f6 bf be a2 60 89 be e3 31 09 3c 0b fd f4 be
       -0.37492868 -0.26831537 0.00837371 -0.47849306
000290 44 ef 3c be 9f 4a c1 3d 20 94 87 bd 72 73 7c 3d
       -0.18450648 0.09438061 -0.066200495 0.061633535
0002a0 e8 4d 09 3e 8a 2e 07 3c 40 7a 83 3e 1e 6f 08 3f
       0.13408625 0.008250842 0.25679207 0.5329455
0002b0 a5 c6 c2 3c f0 88 b1 be 49 39 11 bc e1 76 2d 3d
       0.023776362 -0.34674788 -0.0088637555 0.0423497
0002c0 73 55 e2 be 99 a1 a4 bd a4 79 61 3e 74 5d 04 3c
       -0.44205818 -0.08038635 0.22019058 0.008078922
0002d0 e2 43 a1 3d 64 70 c9 be df dd 01 3f 52 64 8a 3d
       0.07874276 -0.3934356 0.50729173 0.06757416
0002e0 43 2a cb be 75 a4 10 be 00 ab 06 bc fd d8 bf 3d
       -0.3968068 -0.14125235 -0.0082194805 0.09367559
0002f0 4b 50 a8 bd 9e 61 82 3e 22 fb c3 be 22 ee 81 be
       -0.0821844 0.254651 -0.38277537 -0.25376993
000300 30 1b 61 3d 31 50 e5 3c 64 62 d5 bd ea af 6b 3e
       0.05495757 0.02799234 -0.10419157 0.23016325
000310 32 fa d1 3e d6 45 e6 3a da 70 1e bd 49 bf eb bd
       0.41011196 0.001756842 -0.038681842 -0.11511094
000320 df c1 b7 be e0 e0 1e 3f 50 f2 06 3e 3d 04 8c 3e
       -0.358901 0.6206188 0.13178372 0.27346984
000330 3a 37 83 be 40 1b 28 be e4 42 42 3e 35 26 bc be
       -0.25628072 -0.16416645 0.18970829 -0.367479
000340 36 0a ab be 74 a5 9f 3e ba 04 91 3e 3a 8b 81 bd
       -0.33406228 0.31180918 0.2832392 -0.063253835
000350 60 4d ea 3e d6 cb 61 3e 18 8a 14 bd ff ea 4e be
       0.45762157 0.22050413 -0.03626451 -0.20206831
000360 0b a0 7f 3e b1 8a 35 be 98 6c 1d bf c6 47 1f 3e
       0.24963395 -0.17728688 -0.61493826 0.15554723
000370 9e b3 95 be 6f d2 35 3e 6d 6b 04 be 6d 1e b5 3c
       -0.292386 0.17756055 -0.12931605 0.022109235
000380 da ff d8 3d 9a c9 07 bd c4 5a 12 3e 3c a0 ac bd
       0.10595675 -0.033151247 0.14292437 -0.08429
000390 6d e7 63 3e 22 a9 c8 bd e3 7b 82 be df 52 fe 3e
       0.2225625 -0.097978845 -0.25485143 0.496726
0003a0 c1 92 90 3e 8a 93 09 3e 18 8c ed bd 61 eb ab 3e
       0.28236964 0.13435188 -0.115989864 0.33578017
0003b0 cf d2 07 3f 32 4d 2f bc 15 f7 4f be d3 03 72 be
       0.53056043 -0.010699557 -0.20309098 -0.23634271
0003c0 09 37 bd be 4e 09 e0 3c 64 0b 85 be df 20 53 3d
       -0.3695605 0.027348187 -0.25985253 0.05154502
0003d0 3d b9 9f 3e da 21 b6 be 7a dd c1 bd 7e 65 51 3d
       0.31196013 -0.35572702 -0.094660714 0.05112218
0003e0 94 76 5e bd ce 15 91 bd 98 f6 b9 3e 7a 70 f7 37
       -0.054312304 -0.07084237 0.3632095 2.949707e-05
0003f0 8e 11 73 3e df e5 39 3e 52 7e 16 3f b1 55 dd bd
       0.23737165 0.18154095 0.587865 -0.1080736

actor.4.bias f4 [32]
000000 df 9e 12 bd 5a 14 02 3b 6f 40 d4 3c 2c 8c 10 bd
       -0.035796043 0.0019848556 0.02590963 -0.03528993
000010 9b e7 10 3d 24 75 57 bd 43 a7 40 3c 0c 04 69 3d
       0.035377126 -0.05260195 0.011758628 0.056888625
000020 48 aa 8e bb 08 ab 10 bd 66 20 9f 3c b2 36 fe 3c
       -0.004353795 -0.035319358 0.019424628 0.03103194
000030 50 46 4b 3c 05 5f 20 3c a1 97 84 3c 73 50 01 be
       0.0124069005 0.009788279 0.016185584 -0.12628345
000040 c9 cf 23 3b b9 5d 72 3d 79 0b e0 bc ec 24 17 bd
       0.0024995676 0.059171412 -0.02734922 -0.036900446
000050 b4 cf d8 3c f9 95 0d 3d 9a e3 ab bd 65 a4 05 3d
       0.026466228 0.034566853 -0.08393021 0.032627482
000060 f9 9f 89 bc e4 62 1b bd 0e 9b 28 3d 38 a7 0f bd
       -0.016799914 -0.037936106 0.041163497 -0.03507158
000070 c0 a8 c8 bd cc 56 14 3d e2 17 89 bc 10 54 72 ba
       -0.097978115 0.03621559 -0.016735021 -0.00092440937

actor.6.weight f4 [3, 32]
000000 54 ff 88 bc 51 ba ac 3d 61 b5 7b bc 2e 01 ff 3b
       -0.016723312 0.084339745 -0.015363068 0.007782123
000010 d2 53 5b bc 3b 12 0c 3d 46 48 07 bb 3e da 16 3b
       -0.013386684 0.034197073 -0.0020642444 0.0023018266
000020 3a 92 37 bc 1b 79 46 bd db b1 dd 3c 83 7d ab bc
       -0.011204297 -0.04845534 0.027062347 -0.020933872
000030 48 f7 93 3b 05 8c 01 3d 38 33 19 3d e7 c2 ae bd
       0.004515562 0.031627674 0.03740236 -0.085332684
000040 cd 1a aa 3c 8d f8 ac bc 38 93 c2 bc 95 c2 d1 bc
       0.020764733 -0.021114612 -0.02375184 -0.02560548
000050 a0 c0 10 3c bc 5d b0 bb 78 00 c8 bc c9 74 dc 3b
       0.008834988 -0.0053822678 -0.024414286 0.006727789
000060 2f 9b ff bb d4 3c a1 39 12 6d e2 bb ae 90 20 3c
       -0.0078004817 0.00030753633 -0.006909975 0.009800119
000070 e0 92 cf bd 6a c7 51 bd bc d5 4f bc aa 6d 36 bd
       -0.10135436 -0.051215567 -0.012685236 -0.044538178
000080 2c a3 dc bd 95 d0 5c bd d7 e6 5b 3c 69 7b 84 bc
       -0.1077331 -0.053909857 0.013421736 -0.016172128
000090 22 c6 ea 3d 19 8c 07 bd 53 d4 29 3c 59 9d 2f 3d
       0.11463572 -0.033092592 0.010365563 0.042874668
0000a0 6f 64 7a bc 18 ac 21 3d 5e a3 a0 bc d1 fa a5 3d
       -0.015282734 0.039470762 -0.01960915 0.0810448
0000b0 be 37 96 3c 22 1e 89 3a 69 92 19 bd b4 77 92 bd
       0.018337127 0.0010461251 -0.037493143 -0.07151738
0000c0 09 ec c8 bc b7 b4 85 3c 87 cc 50 3c bf 6b 3d 3c
       -0.024526613 0.016321523 0.012744076 0.011561333
0000d0 98 bf d3 3b 5f 26 c8 3b e4 85 44 3c d8 cd c2 bc
       0.0064620487 0.00610809 0.011994813 -0.023779795
0000e0 c4 0c ba bb 6d 7d 81 3c 04 8a f3 3b e9 5f b7 bb
       -0.0056777913 0.015806878 0.007432224 -0.00559615
0000f0 56 39 85 bd c8 cf 0f 3d b8 a3 50 3c fc 26 76 bc
       -0.065050766 0.035110265 0.012734346 -0.015023943
000100 79 d5 81 bd 76 f0 0f 3c 3c 41 3e 3b 8c 26 9b bb
       -0.06339545 0.008785358 0.0029030582 -0.0047348198
000110 e3 5e 8b 3d b2 f8 af bc bf fe 89 bb 5e 40 14 bb
       0.068052076 -0.021480892 -0.0042112763 -0.0022621374
000120 fd 5c 95 3b e2 6b 24 3c 22 60 a3 3c a0 af eb 3c
       0.004558204 0.010035487 0.0199433 0.028770268
000130 ae 52 e4 bb db f7 c3 bb 22 fb 89 3c ea 57 64 bd
       -0.006967864 -0.0059804744 0.016843382 -0.055747904
000140 6f 9d 17 3c 30 fe ef 3c aa 79 e1 bb f8 25 cd 39
       0.009253844 0.02929601 -0.0068809586 0.00039128936
000150 7f c8 9e bb c5 73 39 3a 45 3d f5 bc 05 5e db 3b
       -0.0048456783 0.0007074441 -0.029936442 0.0066945576
000160 ff 44 2e bd ee d7 60 bc 48 3c ba 3c 64 52 2f bd
       -0.04254627 -0.013723357 0.022733822 -0.042803183
000170 9f 01 87 bc bc a0 72 bb a8 1d 35 bc ec 7d 1b 3d
       -0.016480265 -0.0037022075 -0.011054434 0.037961885

actor.6.bias f4 [3]
000000 eb 73 7d bc ec 2c cc ba cb 4e 51 bc
       -0.0154695315 -0.0015577353 -0.012775133
