ckpts/ppo_msr_80c.pt (torch, 70939 bytes, 16 tensors)

log_std f4 [1, 80]
00000000: 0000 0000 0000 0000 0000 0000 0000 0000
00000010: 0000 0000 0000 0000 0000 0000 0000 0000
00000020: 0000 0000 0000 0000 0000 0000 0000 0000
00000030: 0000 0000 0000 0000 0000 0000 0000 0000
00000040: 0000 0000 0000 0000 0000 0000 0000 0000
00000050: 0000 0000 0000 0000 0000 0000 0000 0000
00000060: 0000 0000 0000 0000 0000 0000 0000 0000
00000070: 0000 0000 0000 0000 0000 0000 0000 0000
00000080: 0000 0000 0000 0000 0000 0000 0000 0000
00000090: 0000 0000 0000 0000 0000 0000 0000 0000
000000a0: 0000 0000 0000 0000 0000 0000 0000 0000
000000b0: 0000 0000 0000 0000 0000 0000 0000 0000
000000c0: 0000 0000 0000 0000 0000 0000 0000 0000
000000d0: 0000 0000 0000 0000 0000 0000 0000 0000
000000e0: 0000 0000 0000 0000 0000 0000 0000 0000
000000f0: 0000 0000 0000 0000 0000 0000 0000 0000
00000100: 0000 0000 0000 0000 0000 0000 0000 0000
00000110: 0000 0000 0000 0000 0000 0000 0000 0000
00000120: 0000 0000 0000 0000 0000 0000 0000 0000
00000130: 0000 0000 0000 0000 0000 0000 0000 0000
0.0 0.0 0.0 0.0 0.0 0.0 0.0 0.0
0.0 0.0 0.0 0.0 0.0 0.0 0.0 0.0
0.0 0.0 0.0 0.0 0.0 0.0 0.0 0.0
0.0 0.0 0.0 0.0 0.0 0.0 0.0 0.0
0.0 0.0 0.0 0.0 0.0 0.0 0.0 0.0
0.0 0.0 0.0 0.0 0.0 0.0 0.0 0.0
0.0 0.0 0.0 0.0 0.0 0.0 0.0 0.0
0.0 0.0 0.0 0.0 0.0 0.0 0.0 0.0
0.0 0.0 0.0 0.0 0.0 0.0 0.0 0.0
0.0 0.0 0.0 0.0 0.0 0.0 0.0 0.0

critic.0.weight f4 [64, 80]
00000000: bb04 163e e058 633e 41a2 803d 7059 7ebe
00000010: d985 2abe c330 07be 940a 86be f5f7 2fbd
00000020: 3031 c0bd d078 733e fd85 ebbd 9b60 56be
00000030: 4e61 20bc 6a0c 0cbe 30ad 19be 2e72 bb3e
00000040: 7457 aebb 938b 95bc 1786 4bbd 7f9c 49be
00000050: 408d 09be 1cc8 32bd 19da 68bd 4022 0bbe
00000060: 2d35 d2bd bdac 893d e91f e93b e162 f93b
00000070: 83ac 98be 51c3 7d3e f854 8abe 73c7 bc3d
00000080: ee84 253e 27f4 bfbe d68a f9bd 242f a7bd
00000090: 9a2d 87be 6176 36be fc94 5cbb ae5d 82be
000000a0: a3b8 473d f583 a83d bce7 483d 5a38 1bbe
000000b0: b80d 5e3e 3414 14bd 1987 58be 2f05 0dbe
000000c0: f199 473c 3f24 dbbe a4ea 36be 4acb 0c3e
000000d0: 6572 c43e 8a4c eebc 1550 bfbd 8679 d8bd
000000e0: 8812 293e bc7b 5bbe a7a1 f8bd 4273 843d
000000f0: d6f1 763d 1228 1abd ff9c 45be 0653 43bc
00000100: 8e5c 46bd b03e 803e 74cf 863d cd80 763d
00000110: a4fd 00be 4858 04be 8ff3 d7bc 572e 50be
00000120: fc56 043d 0265 b83c 94fd c1bc f60b 97bc
00000130: 32b6 9a3d 19e0 b5bd b6aa 8fbe 1fba 14be
00000140: d683 f23b 9ff1 78be ec6e 6fbd ce88 11be
00000150: afac 733e ebdd 21bd 4986 64bd c958 00be
00000160: a277 453d f6fd 9b3d 8c5d 113d 8902 bbbe
00000170: 7d76 133d 9b9b 27be 7d04 39be cf0b 963e
00000180: ea78 debd b97f 73bd fc04 de3d 4b26 f53d
00000190: 4d74 c83d bbed 98bd fd39 e63d cbc8 edbd
000001a0: 3b7c e9bd 7fc1 163e 2d2a c5bd f30d 63be
000001b0: 99f6 83bd d8eb c8bd 48df 4cbe 8b0f bfbe
000001c0: b6e6 113e 63e4 c3bc 0891 073e b626 513d
000001d0: 97ed 1a3d 3fe9 133c 469c 36be 942b cd3d
000001e0: 98fb 21be e778 89be 9108 57bd 73e6 2fbd
000001f0: edd5 893c 9709 0a3e a9d4 9d3d 6d34 893d
00000200: cd28 89be ab70 213e 39fd d8bd 464a 95be
00000210: 1622 133b 5334 0cbe 071a 61be ac12 c93d
00000220: ea27 2bbe 01d4 9dbe 24f9 0e3d ae69 503c
00000230: 89c6 213b 7f04 dfbd 7f55 0dbe 7928 89be
00000240: 50f5 07bf ee51 4a3d a516 e6be 2b47 cf3d
00000250: 2e79 88be b463 8fbc 4dfa f03d 5075 1fbe
00000260: 1936 01bd d397 2a3e 3e2c ebbd 0456 16bd
00000270: b367 e53d f1e4 bdbd 072d 183d 0daf e53d
00000280: bea5 68bc a68a 71be ab2b 803e 796a a7bc
00000290: ddf2 473e 72a6 f4bd e94d 93be c153 21be
000002a0: 95fb 8bbd 8632 b9bd 1663 6abe 52ff 54be
000002b0: ae9c b0bd aeff fc3d f02f dc3d 20c0 4cbe
000002c0: 781c 63bc 0fd7 093e 9fc2 a03d f04f 7cbe
000002d0: 46af bd3d 7bd0 e0bc b926 203e b90d 79be
000002e0: 8065 12be 5a3f 1fbe 9c1f 2fbd 4463 17be
000002f0: 28dd 65be a617 e5bc 8ab1 47be a4b5 28bd
00000300: 4cd8 9b3e 491e 803e b5dc bd3d 23b6 083e
00000310: cddc 05be cd84 483c a263 f2bd 04f3 333c
00000320: 2741 29bd 7357 bc3d 2dac 95bd 7f98 a4be
00000330: 759c 8abe d231 2ebd c7be efbd 307c 21bc
00000340: 2612 6dbd d244 e73d f987 aebc fb9a d6bd
00000350: 4254 8e3d 3de9 4abd 3076 50be 5703 87be
00000360: e8b3 193e efbf fc3c 8757 c33d 9a9d ee3e
00000370: 2779 f1bd b5e7 353e a150 0fbc 5308 d23a
00000380: 297f 3abd b0a6 b7bd de84 903d cfbb 50be
00000390: 88bf 873e 7b97 ea3d a018 aebe 4bcc db3d
000003a0: f48f 82be b2a7 123a 47f0 18bc fa51 383c
000003b0: 4025 773c cd9c 38be a4f6 42bd 229f 80be
000003c0: 59e1 d4bd 37be 07be 1ec1 abbd 7892 2abd
000003d0: 2148 213e 24f4 453e afa9 f6bd 0adc a6bd
000003e0: 1897 b9bc d7fa 61be f9da 8e3d 94bf 80bb
000003f0: f078 c2bd 03e6 4f3e e271 033e 434b abbd
0.14650242 0.22201872 0.062809475 -0.24838805 -0.16652621 -0.13202195 -0.26179945 -0.04296108
-0.09384382 0.23776555 -0.115001656 -0.2093529 -0.009788824 -0.1367661 -0.15007472 0.3661055
-0.005320484 -0.01825503 -0.049688425 -0.19688605 -0.13432789 -0.04364787 -0.05684862 -0.13587284
-0.10264049 0.067224 0.0071143997 0.0076106642 -0.29819116 0.24781539 -0.2701795 0.092177294
0.1616399 -0.3749096 -0.12184684 -0.08163288 -0.2640198 -0.17818595 -0.0033658138 -0.25462097
0.048760068 0.08228294 0.049049124 -0.15158215 0.21684921 -0.03615208 -0.21145286 -0.13771509
0.012182699 -0.4280109 -0.17862946 0.13749424 0.38368526 -0.029089231 -0.09341446 -0.10570054
0.16510975 -0.2143392 -0.12140208 0.06467296 0.060289226 -0.03763587 -0.1929817 -0.01192165
-0.04842811 0.25047827 0.06582537 0.060181428 -0.12596756 -0.12924302 -0.026361255 -0.20330177
0.032309517 0.022509102 -0.023680486 -0.01843832 0.07554282 -0.08880634 -0.2805993 -0.14524125
0.00740097 -0.24310921 -0.058455393 -0.14212343 0.23796342 -0.039518278 -0.055792127 -0.12533869
0.048209794 0.076167986 0.035489604 -0.36525372 0.03600167 -0.16367953 -0.18068118 0.29305884
-0.10862906 -0.059447978 0.108407944 0.119701944 0.097878076 -0.074672185 0.11241529 -0.11610564
-0.11400648 0.1472225 -0.09627185 -0.2217329 -0.06443519 -0.098106086 -0.2000705 -0.37316546
0.14248165 -0.023912614 0.13238919 0.05106231 0.03782424 0.009027778 -0.17833051 0.100180775
-0.15818632 -0.26850054 -0.052498404 -0.042944383 0.01682564 0.1348022 0.07706577 0.066994525
-0.2678894 0.15765636 -0.105951734 -0.2915823 0.0022450737 -0.13691835 -0.21982585 0.098180145
-0.16714445 -0.3082581 0.034905568 0.0127205085 0.0024684987 -0.108895294 -0.13802145 -0.2678869
-0.5310869 0.04939454 -0.4493915 0.10120996 -0.26654953 -0.017503597 0.11766491 -0.15572095
-0.031545732 0.16659479 -0.11483048 -0.036703125 0.1120142 -0.09272183 0.037152316 0.11215029
-0.014199672 -0.23588046 0.25033316 -0.020436512 0.19526239 -0.119458094 -0.28770378 -0.15754606
-0.06835095 -0.0904284 -0.22889361 -0.20800522 -0.08623634 0.123534545 0.10751331 -0.19995165
-0.013861768 0.13460945 0.07849621 -0.24639869 0.092619464 -0.027443161 0.15639772 -0.24321641
-0.14296532 -0.1555151 -0.042754754 -0.1478396 -0.22447646 -0.027965378 -0.1950132 -0.04118885
0.3043846 0.25023106 0.09270612 0.1335073 -0.1307251 0.012238693 -0.1183541 0.010983232
-0.0413219 0.09196367 -0.073082305 -0.32147595 -0.27072492 -0.04252798 -0.1170631 -0.009856269
-0.057878636 0.11292423 -0.021305071 -0.10478779 0.06949665 -0.04953884 -0.20357585 -0.26369736
0.15010035 0.03085324 0.09538179 0.46604615 -0.11790686 0.1776417 -0.008747251 0.0016024209
-0.045531426 -0.0896734 0.070565924 -0.20384143 0.26513314 0.11454674 -0.34003162 0.10732325
-0.25500453 0.00055944466 -0.00933463 0.0112500135 0.015084565 -0.18028565 -0.047598496 -0.2512141
-0.10394544 -0.13256155 -0.083864436 -0.04164359 0.15750171 0.19331414 -0.12044083 -0.08147438
-0.022655055 -0.22068344 0.069753595 -0.003929088 -0.09495723 0.20302586 0.12836412 -0.083639644

critic.0.bias f4 [64]
00000000: c39b 39bd f48a 33bd 6d0f 28bd 640c 363d
00000010: aad6 52bd d3c2 2d3d ac6f 2b3d 1706 563d
00000020: 270e 02bc ce0b 673c 2e0d 3d3d d9bd 38bd
00000030: eac6 ebbb 6ee0 3ebd 148a 203d 3eae 3c3d
00000040: 5e5d 22bd dd53 0b3d 1145 593d 273e 3ebc
00000050: c9e5 8fbc 1642 a23a 8c0a 43bd 92e7 19bd
00000060: b452 283d 8790 263d 699c 26bc bdc3 59bd
00000070: 10ad 183d 1bc7 1bbd 1dc7 3bbd 664e 1e3c
00000080: 1ecc 2b3d 8d82 23bd 0980 29bd 5ac8 3d3d
00000090: e40d 453d 7a36 5a3d 69f0 133d f4e6 2f3d
000000a0: 1f43 2a3d 920e 243d f01e 2dbd 5756 2dbc
000000b0: ec96 3b3d f558 2e3d d75f 02bd 206b 643d
000000c0: 863d 713d eabd 343d 7f25 0dbd 308b 69bd
000000d0: bf0a 353d 99e1 33bc 475f db3c f591 1bbd
000000e0: cfc3 0a3d 23a7 38bd 4899 40bd 150e 283d
000000f0: 9c55 233d 6c1c 3a3d cb3f 413d f200 373d
-0.04531456 -0.043833688 -0.041030336 0.04444541 -0.05147425 0.042422127 0.041854545 0.0522519
-0.0079379445 0.014101936 0.046155147 -0.045102928 -0.0071953433 -0.04660075 0.03919418 0.046064608
-0.039639823 0.034015525 0.053044382 -0.011611498 -0.017565625 0.0012379314 -0.04761748 -0.03757436
0.041094497 0.040665176 -0.010169127 -0.053165186 0.03727442 -0.03803168 -0.045844186 0.009662246
0.04194271 -0.039919425 -0.04138187 0.04633365 0.04810895 0.05327461 0.036117945 0.042944863
0.041567918 0.040052958 -0.042265832 -0.010579667 0.045798227 0.042565305 -0.03182968 0.055766225
0.058896564 0.04412643 -0.034459587 -0.057017505 0.0441997 -0.01097908 0.02677883 -0.037980992
0.033878144 -0.04508127 -0.04702118 0.041029055 0.039876565 0.04543726 0.04717998 0.044678636

critic.2.weight f4 [16, 64]
00000000: eb17 d2bd 9815 963e eab0 35be 99e0 62be
00000010: 6cd9 1f3e 97db 823e 0d16 b3bd e787 19be
00000020: 622a 1fbb cc54 7cbe 08c2 f83d abbc 83be
00000030: 20a5 9e3b fab3 6a3e 2488 02be eeea 38be
00000040: 211a 8b3d 0ba9 123d 386b 65be 7cd3 c83c
00000050: 1b12 a3be 9fd7 4f3e 833b b53e 8e41 a93d
00000060: 5376 bcbd d89b aebd bd06 043e 25d4 833e
00000070: 03b2 bcbd f5c8 babd 011b 3a3e f373 07bc
00000080: a399 e1bd 9a9c b5bd 480f 2f3d d1f8 02bd
00000090: 9531 193c 40b0 bbbe d7d2 f03d f345 a3be
000000a0: e16d a63d 6db2 fa3d 94cf 5b3e a438 983d
000000b0: 270c 17bd 5780 8ebe be32 a6be 8e21 f4bc
000000c0: cbdb 5dbe 83ef 8cbd a86c 113e 9103 3fbe
000000d0: 9b8a 8fbe 5265 463d 2097 14bd 7856 173e
000000e0: 5a09 c4bd 2a96 863e b9a3 41be 565c d7bd
000000f0: da20 913d 9375 93be 0749 9ebe fec7 cdbd
00000100: 3aad 26be 605f b13d b3f7 1a3e 5bda 09be
00000110: 3b21 223e 6252 5d3d 94ad a73e edf8 d8bd
00000120: 8f6f 963c aebf 013e 9f2d bc3e fe60 55be
00000130: 58a7 75bd 402c c4be 62eb 0c3c f006 b4be
00000140: 6cca 9ebd d642 f33c 63c5 12be 4100 91bd
00000150: 404b cb3d 4731 8a3d eacd d0bd f56e aabd
00000160: 6e0c b73d 311a 383c 61a7 493d 2ca7 d9be
00000170: 4fc0 8fbc 1ecf bf3d 44cd 89be a5d2 303c
00000180: 74db ff3d 372e 0e3e 28f4 a13d fbf3 0cbe
00000190: 2334 cbbc d908 3bbe a73e 083e c2a7 bebd
000001a0: 86c1 f33d e356 c93d 696b 7dbd df7f a53d
000001b0: c3aa 6dbe a43a d1be bb06 2d3e f97a 343d
000001c0: ba1e 2ebe ecba 3b3e 35b9 8bbd 30ed 52be
000001d0: ddfd a53e 82d2 41be 974e 993d 92b7 e23d
000001e0: 8abb 763e c9c0 45be e975 07be 1778 a0be
000001f0: 6114 d8bb 0263 b23e cc14 9d3e 4d94 1dbe
00000200: 1045 ec3e 83ea d03e 8c11 183e ba14 673e
00000210: 3996 d9bd 6fd1 9cbd aad3 40be 031c c03c
00000220: a744 1fbe 2d54 c43b c10e 713d 570e 573d
00000230: 6305 bc3b e956 62bd 3c4e 02be 14e6 20be
00000240: 24a3 3f3d f7c3 d9bd ccc8 4ebe f719 57be
00000250: b490 07be 37c2 1d3e 1e32 d5be da6f c33e
00000260: b5e9 c1bc 4a4b cabe 4a7f 12bc c21e 153e
00000270: 6675 d03b 7b30 c5bd 63f1 9bbb 77ca e93d
00000280: 484d 27be 3ca1 1cbe a114 bf3e e9d3 ef3c
00000290: 66a4 c0bc 67b5 893d 2510 7bbe 74e0 e7bd
000002a0: e0cb b5be c926 c2be e26c 2b3e 5edb 17bb
000002b0: e104 f4bd f89a 27be 8a8a 223e dcac 893d
000002c0: 914d aebd 76ad 393e 8044 583c eafd 813b
000002d0: bcff 37be a374 433d 2909 903d 078b 8f3d
000002e0: 5713 97be 62a2 6d3e 6d21 5cbb 43c1 583e
000002f0: f29e 44be 6dd5 9e3d 36f3 ee3c d118 48be
00000300: af8c ea3c c494 8f3d 61d0 c33d 0303 08be
00000310: 8934 8a3e 0810 f2be 70c8 03bd 2f7a 12bd
00000320: 09b7 1e3d 43bc 4a3e 9500 aebe c2d5 0abe
00000330: 95f3 8abe f0eb f3bc 2b19 293e 87ef 4d3e
00000340: d98c 763e f2bc ce3c 5f04 52be c7f5 06be
00000350: 5b4e 993d 12cd 653e 1445 4e3e ab78 213c
00000360: 0562 36be 9538 54be 2c13 17be ad1a 0f3e
00000370: 89a6 8dbe 73d7 153e 6324 0d3e ca0d 833c
00000380: e599 da3d 9ba3 163d 2d3c 9f3d e43b 8fbe
00000390: 72e1 ec3d eac2 05bd 093c 0abe 4528 a73b
000003a0: e5f1 503d f24c 18bd e7f3 9ebd b94a 93be
000003b0: b761 fc3c 480f 9ebd 2e54 e03c 9795 55bd
000003c0: 1ce5 43be 40d4 97bd c2f4 173f 2096 b93e
000003d0: abf1 c7be 5c4d df3c eed6 86bc cf6b 553b
000003e0: 6546 063e 647b 04bd 4482 a53d d299 0c3b
000003f0: 6c2a aebe 4d0a 55bd c2c2 a13d 522d abbe
-0.10258468 0.2931335 -0.17743269 -0.2215599 0.15610284 0.2555816 -0.0874444 -0.14993249
-0.0024286737 -0.24641722 0.121463835 -0.2572988 0.004841462 0.22920218 -0.12747246 -0.18058369
0.06792093 0.035805743 -0.22404182 0.024514906 -0.3184975 0.20297097 0.35396966 0.08264457
-0.09202256 -0.085258186 0.12893195 0.2574779 -0.092136405 -0.09120361 0.18174364 -0.008267391
-0.11015632 -0.0886776 0.042739183 -0.03197557 0.0093502 -0.36657906 0.117589645 -0.31889305
0.081264265 0.12241063 0.21465904 0.07432678 -0.036876824 -0.2783229 -0.32460588 -0.029801156
-0.21665876 -0.06881621 0.14201605 -0.18653704 -0.28035435 0.04843647 -0.036276937 0.14779079
-0.09572096 0.2628644 -0.18910111 -0.105156586 0.07086344 -0.2880064 -0.3091509 -0.10047911
-0.16277018 0.086607695 0.15133552 -0.13462202 0.15832989 0.054033644 0.32749617 -0.10594354
0.018363742 0.12670776 0.36753556 -0.20837781 -0.059974045 -0.3831501 0.0086010415 -0.35161543
-0.07753453 0.029694956 -0.1433311 -0.070801266 0.09926462 0.0674768 -0.10195525 -0.083219446
0.08937918 0.011236713 0.04923189 -0.42510355 -0.017547755 0.09365676 -0.26914418 0.010792409
0.12493029 0.13884817 0.07907897 -0.13764946 -0.024805134 -0.18265094 0.1330515 -0.09309341
0.11902146 0.098310255 -0.061870012 0.0808103 -0.23209672 -0.40865052 0.16897099 0.04406259
-0.17003909 0.18333024 -0.06822435 -0.20598292 0.32420245 -0.18927959 0.07485693 0.110701695
0.24094978 -0.19311823 -0.13228573 -0.3134162 -0.006594226 0.34841162 0.3067993 -0.15388604
0.4614644 0.40803918 0.14850444 0.225665 -0.10624356 -0.07657134 -0.18830743 0.023450857
-0.15553533 0.00599148 0.05885196 0.05250391 0.005737947 -0.055258665 -0.12725157 -0.15712768
0.046786442 -0.106330805 -0.20193785 -0.21005999 -0.13238794 0.15406118 -0.416398 0.38171273
-0.02367101 -0.39510566 -0.008941481 0.14562514 0.0063616512 -0.096283875 -0.004759 0.1141557
-0.16338074 -0.15295881 0.37320426 0.029275851 -0.023515891 0.06724053 -0.24517877 -0.11322108
-0.35507107 -0.37920216 0.16740754 -0.0023171525 -0.11914993 -0.1636771 0.15873161 0.067224234
-0.08510888 0.18132576 0.013199925 0.0039670365 -0.17968649 0.047718655 0.07032997 0.07008939
-0.29506943 0.23206475 -0.003358926 0.21167473 -0.19201258 0.077555515 0.029168706 -0.19540717
0.028631536 0.07010797 0.095612295 -0.13282399 0.26993206 -0.47277856 -0.032173574 -0.035761055
0.038748775 0.19798379 -0.3398482 -0.13558105 -0.27138963 -0.02977559 0.16513507 0.20110904
0.24077167 0.02523658 -0.2050948 -0.13179694 0.07485648 0.2244151 0.20143539 0.00985543
-0.17810829 -0.2072471 -0.14753407 0.1397502 -0.2766612 0.14632969 0.13783412 0.015997786
0.10673884 0.03677712 0.077751495 -0.2797538 0.11566438 -0.032656588 -0.13499464 0.005101236
0.05101194 -0.037182756 -0.077613644 -0.28767946 0.030808313 -0.077177584 0.02738389 -0.052144613
-0.19130367 -0.0741353 0.59357846 0.3624735 -0.39051566 0.027258568 -0.016459908 0.003256548
0.13112791 -0.032344237 0.08081487 0.0021453989 -0.3401674 -0.052011777 0.07898475 -0.33433014

critic.2.bias f4 [16]
00000000: d7b3 3abd 0f9f 403d e9a0 2abd fa83 35bd
00000010: d3c9 65bd 7e19 45bd 0c6c 3e3d ea7d 543d
00000020: a230 353d b2ca 26bd 24ba a1bd 102e 14bd
00000030: bfdf 30bd 632f 293d 54bb 5c3d 9038 4abd
-0.045581665 0.04702669 -0.041657362 -0.044315316 -0.056100678 -0.048120014 0.04648976 0.051877894
0.044235833 -0.04072065 -0.07896832 -0.03617674 -0.04318213 0.041304957 0.053889588 -0.04937035

critic.4.weight f4 [32, 16]
00000000: 4f64 583d bd0d f73e e9cb 9e3d d2c9 e23d
00000010: 64e0 ba3c 91ae 8f3e e127 813d 8254 4ebd
00000020: 294f 683e 285a aabe 269a c43e ed7e 6f3d
00000030: b4ce b53e 8cdc 6dbe 2a77 25be 3d07 8bbe
00000040: 67d8 3a3d ed5e 0dbf 6741 fa3e 4093 b53e
00000050: 9628 623e 1d42 d5be d6a0 0abe 9ae0 50bc
00000060: 940f 98be db16 13be a010 d63e c96c a9be
00000070: 8c5f 4ebe edf8 9f3e a32a b3be d48e a0bd
00000080: 9f3b 1b3d 0d7e 43be c9b4 be3e 6597 173e
00000090: 66d0 b2be 6436 02be 8c1b 32bf f899 a83d
000000a0: a404 57bd c089 d73d 5105 703e faa7 ab3e
000000b0: e860 4c3e 477c b5bc 576d f33d c519 b93e
000000c0: b8ba 2cbe 7522 95bb 8598 c23e 7aed b33e
000000d0: b518 d6bc 0598 bcbc 6c9e 19be 913e 5ebe
000000e0: 5485 9fbe b8de de3d aeb7 b0be eea3 483d
000000f0: 89a4 0f3f 44a2 143e 1dff adbe 03ad 1a3f
00000100: 3cad 17bf 4b3b 23bf 4244 883d 2304 683e
00000110: 9c46 e53d 9036 343e 0005 0e3e 8f4a b23e
00000120: 295d 6f3d 055d 26bd 2369 ab3e e39c c03e
00000130: 6e28 3a3e d5ba 71be f45b a2bc 59fc 81be
00000140: 58ec c53e 111f 25be 99a0 0bbf c961 42be
00000150: 906b 52be 814d 283f 855f 8cbe 3e35 8b3e
00000160: 134a 5dbe 85fb 07be 8132 4fbd 4e04 35be
00000170: 6849 0bbe 7c57 983d 8e2a 84be e1a8 b7be
00000180: ed08 2db8 e237 ce3e 3cbb 25be d0a4 c4bc
00000190: 6cf2 45bf 6ac0 a9be 0c4a bc3d f2ad 813e
000001a0: 7fdb 98be c0b5 d4be b8fa 20be a72a 943d
000001b0: f766 a5bd 2f64 45be f0ca 57be 6dd3 83be
000001c0: aaef 02bf d067 bf3e 810a 923d 65e0 76be
000001d0: fde9 1c3e 2176 9b3e e342 f7be bce9 eb3a
000001e0: a26b a4be 82e7 e73e 201e 0d3e 5710 d0be
000001f0: 8a9a 393e d0e1 aa3e c1de 33bc ebc9 31be
00000200: 8cad 20be 9781 87be 231f 6d3c 69e2 3bbd
00000210: ab54 73bd 3bcb 733e f529 a2be 2f78 393d
00000220: 67e8 e4be 1c5e 3fbd bc15 84be 4dc3 bb3e
00000230: 200d 17bf 939d 213e bb77 a93e cdde 7bbb
00000240: dba1 40bd 3bbc 9fbc 07cc 40be 2adf aabe
00000250: 3e0e 3a3d e671 abbe b6bb 68be 624a 01be
00000260: 3a1f af3e 517c 073e 31c1 20bf 0bc7 cb3e
00000270: ff6b 033e 6458 d73c 7cbd bebe 0e46 01bf
00000280: 2070 083f b366 6fbe 35bf 47bd 1ed8 d33e
00000290: 4903 4e3e 0942 ecbc 47c0 0bbe 44f7 b63e
000002a0: 2c1e 503d 7952 90bd a529 973c 6b29 383e
000002b0: d377 2e3f 23b4 da3e bc5e 8d3e 967c a63d
000002c0: 9602 0fbe 3169 063e 7358 5fbe e9c1 d83e
000002d0: cebb b7bd 1797 8c3d d453 49be c632 5b3e
000002e0: 21d0 233c c0f0 383d 0562 83be cbf1 8ebe
000002f0: 0108 e6bd 4cd4 68be a8db efbe 4412 5e3e
00000300: 3248 8a3e a20a d5bd 6251 253c 7783 ad3e
00000310: 60f5 273d 4e19 c53e a187 2e3c c1d6 26bf
00000320: 60d6 a23c eec7 0dbd a59c 36be 8169 113d
00000330: 8d54 febd 7f9d 6bbd 69c6 0d3e 842e 54be
00000340: edff c33e 0c8a 0b3e 682e 453d 3032 70be
00000350: 494e 66be 577e 943e 3856 fc3d 63ad 09be
00000360: 1e91 f4bc bf36 1c3d a198 c33e 0acc a23e
00000370: af7f edbd e2de 773d a741 a2be 6b7b d73e
00000380: ca07 febd 8991 87be 8f82 273e fd33 84be
00000390: d27a 823d a5de 983e 4969 d63d 78ef 5fbe
000003a0: 906a e53e 198e d83d f63d 3a3d 6015 babc
000003b0: bde9 0bbe ff93 83be 39ae dcbe 74e2 963e
000003c0: fa5b 87be 8bd7 383c 8e97 18be 3ce1 59be
000003d0: d6dd 01bf 5ff1 b53c f41d 533e 6969 28bd
000003e0: 5b98 11be dcc0 9abe 1532 853e ce17 a13d
000003f0: 5127 273b 1d0d 693e 09e0 b03c 619a 433e
0.052830037 0.4825267 0.077537365 0.110736504 0.022812076 0.2806287 0.063064344 -0.05037356
0.22686447 -0.3327191 0.38398856 0.058470655 0.35509264 -0.23228663 -0.16158739 -0.2715396
0.045616534 -0.5522297 0.48878023 0.35463905 0.22085795 -0.41652003 -0.13537917 -0.012748862
-0.29699385 -0.14364187 0.4180956 -0.3309081 -0.20153636 0.31244603 -0.34993467 -0.07839742
0.037898656 -0.19091053 0.37247303 0.14803846 -0.3492462 -0.12716061 -0.69573283 0.08232492
-0.05249466 0.105243206 0.23439528 0.33526593 0.19958842 -0.022153987 0.11886089 0.36152473
-0.16868103 -0.0045512267 0.38006988 0.35142118 -0.026134828 -0.023021707 -0.1500184 -0.21703555
-0.3115641 0.10882324 -0.34515136 0.04898446 0.56110436 0.14515024 -0.33983698 0.60420245
-0.5924871 -0.6376235 0.06653644 0.22657828 0.11195108 0.17598939 0.13869095 0.3482251
0.058438454 -0.040616054 0.3347865 0.37619695 0.18179485 -0.23606427 -0.019819237 -0.25387838
0.38656878 -0.16125132 -0.5454193 -0.18982615 -0.20548844 0.6574326 -0.27416626 0.27189058
-0.21610288 -0.13279541 -0.050585274 -0.17677423 -0.13602221 0.07438561 -0.25813717 -0.35871032
-4.1254727e-05 0.4027701 -0.16184705 -0.02400437 -0.7732303 -0.33154613 0.09193811 0.25328022
-0.29854962 -0.41544914 -0.15720642 0.07234698 -0.080762796 -0.19276498 -0.21073508 -0.25747243
-0.5114695 0.3738389 0.0713091 -0.24109037 0.15323634 0.30363563 -0.48293218 0.0017998735
-0.32113367 0.45293814 0.13781023 -0.40637466 0.18125358 0.33375406 -0.010978402 -0.17362182
-0.15691203 -0.26466057 0.014472756 -0.04587022 -0.059406918 0.23807995 -0.31672636 0.04528063
-0.4470856 -0.04672061 -0.25797832 0.3667244 -0.590044 0.15782766 0.3309916 -0.003843236
-0.047029357 -0.019498935 -0.1882783 -0.33373386 0.04542374 -0.33485335 -0.22727856 -0.12626031
0.3420351 0.13231017 -0.62794787 0.39800295 0.12834166 0.026287265 -0.3725394 -0.5049752
0.5329609 -0.2337902 -0.048766334 0.41375822 0.2011844 -0.028840082 -0.13647567 0.35735524
0.050810024 -0.070469804 0.018452475 0.1798455 0.6815159 0.42715558 0.2761134 0.08129232
-0.1396583 0.13126065 -0.21811084 0.42335442 -0.08971368 0.068647556 -0.19660884 0.21406087
0.009998352 0.045151472 -0.2566072 -0.27918848 -0.112319954 -0.22737235 -0.46847272 0.21686655
0.27008206 -0.10402419 0.010090204 0.33889362 0.041005492 0.38495868 0.010652454 -0.6517144
0.019877613 -0.034614496 -0.17833193 0.035501007 -0.124184705 -0.057523247 0.13845219 -0.2072087
0.38281193 0.1362688 0.04813996 -0.23456645 -0.22490801 0.2900264 0.123211324 -0.13445048
-0.029854354 0.038138147 0.38202384 0.31796294 -0.11596619 0.060515292 -0.31690714 0.42086348
-0.124038294 -0.26478222 0.16358398 -0.25820914 0.06371082 0.29857364 0.104693 -0.21868694
0.44807863 0.10573978 0.045469247 -0.02271527 -0.13663383 -0.2569885 -0.4310167 0.29469645
-0.2643736 0.011281858 -0.14901564 -0.21277326 -0.5072912 0.022209821 0.20616895 -0.041116152
-0.14218275 -0.30225265 0.26014772 0.078658685 0.0025505612 0.22758909 0.021591203 0.1910186

critic.4.bias f4 [32]
00000000: 5737 623d de6e 56bd 431a 37bd 1a71 3fbd
00000010: b05b 4dbd a866 593d 3f55 443d 2246 20bd
00000020: f6b8 403d 92c2 353d a03c 44bd cde8 28bd
00000030: 5559 17bd ddb6 5abd 7389 1a3d 523e 5a3d
00000040: 4e23 40bd daec 413d 25f8 743d fa78 24bd
00000050: de63 6abd 62f8 3ebd 46d5 4fbd 4997 49bd
00000060: 2e2b f93c e672 28bd 0bb7 463d c770 4d3d
00000070: 07ac 53bd 1994 4abd 83f9 493d 8481 013d
0.055228557 -0.052351825 -0.04470278 -0.04673872 -0.05013627 0.053076416 0.04793286 -0.039129384
0.047051392 0.04437501 -0.04790938 -0.04123764 -0.036950428 -0.05339705 0.037728738 0.05328209
-0.04690867 0.04734502 0.05980696 -0.040154435 -0.057224147 -0.046623595 -0.050740503 -0.049216542
0.030416097 -0.0411252 0.048514407 0.05015638 -0.05167773 -0.049457643 0.04931022 0.031617656

critic.6.weight f4 [1, 32]
00000000: ae00 b83a 2e06 3fbe 1524 a7be a71d fbbd
00000010: ea2e 66be 82ae 833e 1bf3 9b3d da3f 37bd
00000020: 5172 cd3d ca7a 183e bbf4 8cbd 540b 213c
00000030: 9f7f 1c3c 7a0a 88be 9504 0d3e 3157 303e
00000040: 3206 d7be 4e47 5c3e 3003 6c3c b81c bbbe
00000050: c38b bbbb 4985 6bbd a33d bebe fd8e 5bbe
00000060: 2c96 df3c 51f9 213d 72af 5f3e 68cc 7d3d
00000070: 141d 34be 4aef 01be a5bd 333e f716 af3c
0.0014038289 -0.18654701 -0.32644716 -0.12261515 -0.22478834 0.25719076 0.07614728 -0.044738628
0.1003157 0.1489059 -0.06882616 0.009829361 0.009551912 -0.26570493 0.13771279 0.17220761
-0.41996914 0.21511576 0.014405057 -0.36545348 -0.005723448 -0.057500158 -0.371564 -0.21441264
0.027293287 0.039544407 0.21844271 0.061962515 -0.17589217 -0.12688938 0.17552812 0.021373255

actor.0.weight f4 [64, 80]
00000000: 3205 ec3d 1b9c 4d3e 07cf fcbc 2132 e5bd
00000010: 3f28 96bd 1e99 cb3d e430 0bbe d839 1dbe
00000020: d750 1cbe 018b 9ebd 9599 9ebb e1ea 453e
00000030: 2036 813e 556f 20be d95e 573e 1dae 39bd
00000040: d97f c1bd 2971 083e 0585 27bd ff9e e2bb
00000050: 0ebb 0ebd 41cc 4fbe 3331 c8bd e13c 653d
00000060: 0c3a f53d 207e 0cbe dab6 373e f562 903d
00000070: dcba 343d aab8 12bc ab2a 733e e876 473e
00000080: 7f13 49bd 777e c43d d267 34be 081a 843d
00000090: ff7b 5a3e bb87 363c 4705 f5bc c9ed 673e
000000a0: 9df2 6fbd 5e22 97bc 1d72 983d 4ef4 cc3e
000000b0: 8808 6abe a8eb 21be 195a d0bd 1a96 453e
000000c0: 08c3 4b3e edf5 343e e323 3f3e f0b6 c2bd
000000d0: 0ae2 393e 469f 233c 0d67 e3bd ae3c b7bd
000000e0: cb82 513e a63d fdbd 6e4e 1bbe 8260 f5b9
000000f0: 3d0e 4d3e 6197 533d fe63 ff3d 8549 8d3e
00000100: 2861 c73d 4326 b23d dc8c b53e 927e 113c
00000110: b195 a33d 153f aa3d 66e2 67bb e330 653c
00000120: fa50 87be 948d a03e 4cf8 983e d4c4 3e3c
00000130: f311 843e 9a16 c3bb 1d94 163f 37bc 4fbe
00000140: 914c 373e 67db 903e 0bd1 9fbd c3e7 90be
00000150: fdb3 87bc 840b e43d c067 dfbd 1d33 643e
00000160: 3637 ddbd 299b 6a3e 9564 dc3d bc1f b63d
00000170: 07b3 493c fe58 0e3e cc3c 7e3e b7c2 963d
00000180: 0b92 513e 63a4 b6bd 336f 12be c247 bfbd
00000190: fc2d 62bd e06b 0f3e 8d9f 623e a609 36be
000001a0: 10bc e63d dd30 3a3e 66f2 b43c 466a 343d
000001b0: ce64 943d 59e9 ef3d e697 9a3e 6997 df3d
000001c0: 0028 bc3d 5d74 bb3d daf4 943d 0338 473d
000001d0: 925a f4bd 8826 f5bd a33d ab3d e2a6 723e
000001e0: 3fa3 f9bc 86eb c13c 0625 fc3d ec71 983e
000001f0: 17f6 ec3d ef11 523e ccd4 bf3e abb4 a4be
00000200: 59c9 6f3e c378 173e 8555 cc3d fa56 25be
00000210: 85ca 6a3c cb31 313e 4dd9 913d 5f94 42bc
00000220: 72cb 843e c67c a33e 7112 3ebe 943c be3c
00000230: b409 fcbd c063 673e 0472 5f3e 7c7a 07be
00000240: 1172 523d 7de7 2ebe b73b c0be 40d8 623e
00000250: b37a b9bd bad9 883d c89a 093d e306 e73d
00000260: d87c 96bc 40c1 193d 3fa7 853d 84d4 3d3e
00000270: f29a adbe ed81 0abd 31d0 693d 32b0 90bd
00000280: 10f0 703d d663 6c3e 9b81 dd3d e9ac 73be
00000290: 1a6f 433e 3d38 183e 4c6d e23d 3805 963e
000002a0: 4192 1a3e 2cc9 a2bd eee3 1bbe 7be7 f83d
000002b0: 11b5 fabb 4935 063e d852 3f3e 09b4 d53d
000002c0: d32a 943d 9b0b 453d 3f0d 303e c63e a0bd
000002d0: dc3b d23e 782d 093e ae6c a23d de47 9b3c
000002e0: 71be 853c e05d 2abe c996 fe3b b86c 76bd
000002f0: 6251 64be e699 0dbe bb8e 04be 9bdd 80be
00000300: 2048 49be 80f3 c73d c417 413e 7b6c 9b3e
00000310: 454b 973e 5095 9e3d a2da 09be 49c3 7b3d
00000320: fed6 913d 380a e2bd abdb eabd c942 fa3d
00000330: 7379 d43d 696c a6be 2bcf 92bd 8a54 da3d
00000340: 5863 bf3e ddf2 3fbd 96b1 133e f21c de3d
00000350: 8689 3e3e 2821 0c3d 1471 193e 0359 eabe
00000360: 3e83 c73b 1c3a 6e3d 9528 973d 118c 1bbe
00000370: a316 d23d 60c5 713e f936 52be c166 963d
00000380: 273d 8d3e 2057 cdbd d74c 5d3d 4b00 5b3e
00000390: a17a 5b3d 6dd0 1dbe 22c3 cc3c d30e fa3c
000003a0: 603c 93bd 5f3c 42be b88a 10be 5baa 18be
000003b0: 52b2 04be 5913 dc3d 0345 78bc 8c54 5d3d
000003c0: f8a5 f6bc 5944 703d e29d 9f3e f250 4d3d
000003d0: 2a8a 8fba 671a 80be e8ed 643e 16cd 9a3e
000003e0: 623a 1d3d 8dc8 093e 4833 0d3e ada2 ec3d
000003f0: 068b 20bc ac64 543d 0028 29be e96c 52be
0.115244284 0.20079081 -0.030860437 -0.11191202 -0.07331895 0.09941314 -0.13592869 -0.15354097
-0.15265213 -0.07741357 -0.0048400857 0.1932788 0.25236607 -0.1566747 0.21032275 -0.045332063
-0.09448213 0.13324417 -0.04089834 -0.0069159265 -0.034846358 -0.2029276 -0.09775009 0.05596626
0.11973962 -0.13719988 0.17940846 0.070501246 0.044123515 -0.00895516 0.23746745 0.19478953
-0.04909086 0.09594434 -0.1761773 0.064502776 0.21336363 0.011140759 -0.029909743 0.22649302
-0.058580983 -0.018449005 0.074436404 0.4003014 -0.22854817 -0.15812552 -0.10173435 0.1929554
0.19898617 0.17671938 0.18666033 -0.09507549 0.18152633 0.009986704 -0.1110364 -0.089471206
0.2046005 -0.12365274 -0.15166637 -0.00046801945 0.20024963 0.051658038 0.12470244 0.27595153
0.09735328 0.08698704 0.3545903 0.008880274 0.07987536 0.08312813 -0.0035382747 0.013988706
-0.26428968 0.31358016 0.29876935 0.011643607 0.25794944 -0.005953622 0.5881975 -0.20286642
0.17900302 0.2829239 -0.07803544 -0.2830182 -0.016565317 0.11135009 -0.109084606 0.22285123
-0.10801546 0.22910751 0.10761372 0.088927716 0.01231075 0.13901135 0.2482788 0.07361358
0.20465867 -0.08918073 -0.14300232 -0.093398586 -0.055219635 0.14005995 0.22131176 -0.17777118
0.11266339 0.18182702 0.02208824 0.044046663 0.072457895 0.117144294 0.30194014 0.10917551
0.09187317 0.09153054 0.07273264 0.0486374 -0.119313374 -0.1197024 0.08361366 0.23696473
-0.03047335 0.023671877 0.12311749 0.29774415 0.115703754 0.20514654 0.3746704 -0.3216909
0.23416652 0.1479216 0.09977249 -0.1614646 0.014330511 0.17304151 0.07121525 -0.011876195
0.25936466 0.31931132 -0.18561722 0.023222245 -0.12306538 0.22596645 0.21820837 -0.13230318
0.051378313 -0.17080493 -0.3754556 0.22152805 -0.09056606 0.06682153 0.033594877 0.112806104
-0.018370077 0.037537813 0.0652604 0.185381 -0.33907276 -0.033815313 0.057083312 -0.070648566
0.05882269 0.2308496 0.10815736 -0.23796429 0.1908535 0.14865203 0.11056003 0.29300857
0.15094854 -0.07948527 -0.15223667 0.121535264 -0.0076509793 0.13106264 0.18683946 0.104347296
0.072347306 0.04810677 0.17192553 -0.07824473 0.41061294 0.13396251 0.07930885 0.018955167
0.016326161 -0.16637373 0.00776944 -0.060162276 -0.2229667 -0.13828239 -0.12945072 -0.25169072
-0.1965642 0.09763241 0.18856722 0.30356202 0.29549614 0.07743323 -0.13462308 0.061465535
0.07121085 -0.11037105 -0.114676796 0.122197695 0.10374727 -0.32504585 -0.071684204 0.10660656
0.3738048 -0.04686247 0.14423212 0.10845365 0.18607149 0.034211308 0.14984542 -0.45771036
0.0060886433 0.058160886 0.07380787 -0.1519015 0.10258224 0.23610449 -0.20528783 0.073438175
0.27585718 -0.100263834 0.05402836 0.2138683 0.053583745 -0.1541154 0.02499539 0.030524647
-0.0718925 -0.18968342 -0.14115417 -0.14908735 -0.12958649 0.10745878 -0.015153172 0.05403571
-0.030108437 0.05865893 0.31175143 0.050126024 -0.001095121 -0.25020143 0.22356379 0.30234593
0.038385756 0.1345541 0.13789093 0.115544654 -0.009798771 0.05185382 -0.16519165 -0.20549358

actor.0.bias f4 [64]
00000000: 7fe8 7e3c 7b3d 293d 2932 303d bad0 363d
00000010: ac7d 24bd 3f14 2a3d 5a97 503d 4b9d 1d3b
00000020: 44da 8d3c 8509 4bbd d134 2e3d 8d04 1fbc
00000030: 29be 4fbd 4fe9 083d e29f 3fbc 02f4 22bd
00000040: cd2d 203d 2090 25bd 988a 85bd ecf7 1e3d
00000050: 9323 85bc ac0f bcbb b695 783d 6e49 113c
00000060: 1927 82bd ec95 74bb 8de7 303c 5a71 e63c
00000070: ea3e 7cbd 8f5f 1b3d 263f 3dbd 6613 173d
00000080: 2f4e 19bd cccf e3bc 7090 893d 1def 8f3b
00000090: 1285 b8bb 36b2 84bd 5454 783d 0169 7e3c
000000a0: 9f9f 723d 468c 383d e57a 2fbd 7a72 61bd
000000b0: 3379 dbbc e1b7 533c 249a 1d3c a6c0 a23d
000000c0: bab2 47bc 5c3f d5bb 3649 d9bb 79d8 8cbb
000000d0: 3ed8 0bbd 29bd 4dbd 4f82 d33a 4927 213d
000000e0: 1b90 153d 2a41 39bd c539 583d c590 4d3d
000000f0: 0e6a 9b3d f77b 6cbc 0dd3 45bd 6fcb 5bbd
0.015558361 0.041318398 0.043016586 0.04463265 -0.040158913 0.041523214 0.05092559 0.0024050053
0.017315991 -0.049569625 0.04253084 -0.009705675 -0.05071846 0.033425625 -0.011695834 -0.039783485
0.03910618 -0.04042065 -0.06520575 0.038810655 -0.016252315 -0.005739173 0.06068965 0.008867605
-0.063551135 -0.0037320806 0.0107973935 0.028130222 -0.061583437 0.03793293 -0.0462028 0.036883734
-0.037428077 -0.027809046 0.067170024 0.004392518 -0.0056310976 -0.064793035 0.060627297 0.015527965
0.059234258 0.04505565 -0.04284181 -0.055040814 -0.02679119 0.012922258 0.0096192695 0.07946901
-0.012188608 -0.006507797 -0.006631042 -0.0042982665 -0.03414177 -0.050229225 0.0016136857 0.039344106
0.036514383 -0.04522816 0.05278947 0.05018689 0.07588588 -0.014433852 -0.048296977 -0.053660806

actor.2.weight f4 [16, 64]
00000000: e472 e13d f010 39be 6c5e 81be 6297 38be
00000010: 397b 363e aff1 2bbe 953c adbc da02 853e
00000020: 8d49 67be 2db5 a73d a89d debd de4d 733e
00000030: d6d7 0bbe 8953 3e3e 0453 22be 83bd b0be
00000040: 4643 cd3d 013d 483e 1f62 b53d c831 cfbe
00000050: 3ed2 e4be fbad 85be 0c28 9ebd 359e acbd
00000060: 30b8 3c3e 7cdc 4bbe a592 413e 56f2 8bbe
00000070: bc5c 043e 7f81 863c f3aa 503d ad10 cdbd
00000080: 37fd df3c 4356 55be e1c1 bc3b a68d d1bd
00000090: c3e0 503d 8b6b 7c3c 7d4d 873c b29a df3d
000000a0: 8337 a43d c115 833e 210b a4bd 377e d13d
000000b0: 6567 103e 642c 8abd 4a7d 50be 0acf ccbd
000000c0: a931 44be 994b 003e 88a4 e7bd 2329 203e
000000d0: c053 da3d 242a fc3d a112 9f3e 0d02 b43c
000000e0: 55f4 c5bd d5fc 8cbd 3b55 963e 8c43 37be
000000f0: 4eeb 033e 1184 833e efbe 9c3d 3b0c a93c
00000100: 875e a53e 048b 213d 369a 0c3e 8cc8 503c
00000110: 9629 093e 8528 1d3e ef03 ed3c 9824 89be
00000120: 0c3d a8bd 24ae 82be c2ab 9fbb 75fc a0bd
00000130: 190e 5a3e 51d8 f03e e72b fb3c 4af1 c4bc
00000140: b573 3c3c e19f 42be 5211 0e3e 923a fabd
00000150: c3a4 033e b0fa 2dbe 0193 023d 0efe 1ebe
00000160: 6b86 3f3e 4b22 6fbb d5c4 b0bc f35c 8d3d
00000170: d823 bb3b d77a a6bd 3074 85be d2be bc3d
00000180: d401 db3e 9899 57be 89b1 c03d 1532 b43d
00000190: 982c 833e 77be 83be cc72 113d a839 323e
000001a0: efed 8e3d 5ac3 ab3d 20f3 0f3e 4ce5 3cbe
000001b0: fa11 94bb 4b6c 203e d21a cf3b f44b 603d
000001c0: 6cf0 abbc 24c8 a93d ed7d 07bc b3bc c8be
000001d0: cd09 1dbe 2145 6f3d 7975 08bd 72b0 0e3d
000001e0: 5724 29bd f9af ef3d 57cf cebc 4f52 a13e
000001f0: 6d9e 133f 37f9 abbd 667f 0b3c 5b30 fcbd
00000200: 7442 a7bc dd51 acbd e981 233e fc55 89be
00000210: 592f e83d 1657 413e 7a12 5e3d 0e69 e6bd
00000220: 1c79 3e3c dda8 cebc 7264 01be 8c18 69be
00000230: d659 bebe 6414 aabd 0b87 28be aea7 833d
00000240: 9db9 fbbd 0cc1 d33d 2834 9bbe ce33 c53e
00000250: 18ef 98be 92ce 42bd 1b74 bebd 34f2 07be
00000260: 1cbf eb3d 8ca3 d33d 9f73 c13d 7d5a 3bbc
00000270: 9351 abbd 68a0 203e 4656 b03d 276b 57be
00000280: f23c 513d 14fb ae3d 9fd3 b33d df5c 273e
00000290: 2e08 96bb a46f 51bb 83bf 0b3e 9268 3fbe
000002a0: f56e 52bc 4e6a 823c 23ad 53be 5273 81be
000002b0: 4a62 233d 78c5 ac3e 2111 cc3e f39d b63e
000002c0: 785b aebe da81 14be 6b1b 26be 2d26 6abe
000002d0: ac8f 57be 388c 2cbd bcd3 553e 5b24 bf3d
000002e0: b361 ec3c f8bb debd fe60 1c3d 4b95 ac3d
000002f0: b708 813e b5ef 813d 9773 26be a8a2 f73e
00000300: 4e5b 743c bcc1 94be a21c 333e 008c a43e
00000310: 36fb 81be 7066 553d 81d0 09be 182a c43c
00000320: 07d7 eb3d f77e 33bd 59d4 f0bc 37ac 07be
00000330: a39e 88bd 189a ffbc ed48 d63d 8cec e23c
00000340: fb3e 6b3d 7f09 8f3d 5ed2 77be 8a50 833d
00000350: 8cbf 073e 9789 24bd 4205 8c3e d214 c03e
00000360: 0821 50bb d81b b3be 7a0e 0e3e 6be5 d7bd
00000370: 211e 94be c439 6f3c 561b 123d c56e c63d
00000380: 0d85 9fbd 6f0c a73c c2b5 a33e 9a9b 603d
00000390: 41e3 2b3e 071a 9cbe c7db a33d eec0 54bc
000003a0: 6bca db3e eee2 1d3e 667c 8dbc 6ec2 66be
000003b0: d14b 9e3d afa3 4d3d 6320 983e c481 9e3e
000003c0: abc4 343e 3390 fe3d d92c c9be 4224 21be
000003d0: 8a96 83bc 8254 92be a0e5 963c 8604 913d
000003e0: 26ef 1dbd 3880 eabc 8388 c03e 9a27 56be
000003f0: 880d b2bc e844 9b3e 0d06 703e fbef 93be
0.11008242 -0.18072867 -0.2526735 -0.18026498 0.17820443 -0.16791414 -0.021147052 0.25978738
-0.22586651 0.081888534 -0.10869914 0.23760173 -0.13656554 0.18586554 -0.1585198 -0.34519586
0.10022597 0.19554521 0.08856606 -0.40467668 -0.44691652 -0.261093 -0.07722482 -0.08428613
0.18429637 -0.19908327 0.18903597 -0.27333325 0.12926 0.01641917 0.05094428 -0.10012946
0.027342422 -0.20833687 0.005760417 -0.102320954 0.0509956 0.0154065 0.016516441 0.10918178
0.080184005 0.25602534 -0.08009935 0.10229152 0.14101942 -0.06746748 -0.20360294 -0.10000427
-0.19159569 0.12528838 -0.11310679 0.15640692 0.10660505 0.12312725 0.310689 0.021973634
-0.09665743 -0.068841614 0.293619 -0.17896861 0.1288273 0.25686696 0.07653605 0.020635715
0.3229868 0.039439216 0.13730702 0.012743127 0.1339477 0.15347488 0.02893254 -0.2678573
-0.08214769 -0.25523484 -0.00487277 -0.07860652 0.2129444 0.47040036 0.030660583 -0.024040837
0.011502196 -0.19006301 0.13873795 -0.12218203 0.1285582 -0.16990161 0.031878475 -0.15526602
0.1870362 -0.0036488946 -0.021578232 0.06902494 0.00571106 -0.081288986 -0.26065207 0.092160836
0.42774832 -0.21054685 0.09408862 0.08798615 0.2561996 -0.2573125 0.03550987 0.17404807
0.06978976 0.0838687 0.14057589 -0.18446845 -0.0045187445 0.1566631 0.006320336 0.054759935
-0.020988666 0.08290127 -0.008269769 -0.39206466 -0.1533577 0.058415536 -0.033315156 0.03483624
-0.041294422 0.11703486 -0.025245352 0.3150811 0.57663614 -0.08397143 0.008514261 -0.123139106
-0.02041743 -0.08414052 0.15967526 -0.26823413 0.11337156 0.18880877 0.05421684 -0.11250506
0.011625554 -0.025227005 -0.12635973 -0.2276327 -0.37177914 -0.083046705 -0.16457765 0.06428467
-0.12291262 0.10339555 -0.3031323 0.38516086 -0.29869914 -0.047560282 -0.09299489 -0.13275987
0.115110606 0.103339285 0.09445881 -0.011435148 -0.083651684 0.1568619 0.08610205 -0.21036969
0.051083513 0.08543983 0.08780598 0.16344021 -0.004578612 -0.0031957412 0.13647275 -0.18692234
-0.012843837 0.01591983 -0.20671515 -0.25283295 0.039888658 0.33744407 0.39856818 0.3566738
-0.3405416 -0.1450266 -0.16221397 -0.22866125 -0.210509 -0.04212591 0.20881552 0.09333106
0.02885518 -0.10875696 0.038178436 0.08426913 0.2520196 0.063445486 -0.16255032 0.48366284
0.014914347 -0.29054058 0.17491391 0.32138062 -0.2538697 0.052099645 -0.13458444 0.023945853
0.115156226 -0.043822255 -0.02939813 -0.13249288 -0.066708826 -0.031201407 0.10463128 0.027700685
0.05743311 0.06984233 -0.24201342 0.06411846 0.13256663 -0.04017028 0.2734776 0.37515885
-0.003175797 -0.3498218 0.1387271 -0.10541805 -0.28929237 0.014601175 0.0356706 0.09689096
-0.07789049 0.020391671 0.31974608 0.054835893 0.16785909 -0.30488607 0.080009036 -0.012985451
0.4292787 0.15418598 -0.017271232 -0.22535107 0.077293046 0.05020493 0.2971221 0.30958378
0.17653148 0.124298476 -0.3929203 -0.15736488 -0.016062994 -0.285801 0.01842004 0.07080941
-0.038558148 -0.028625593 0.3760415 -0.20913544 -0.021734968 0.3032601 0.23439808 -0.28894028

actor.2.bias f4 [16]
00000000: df10 c3ba 8b9e b63c 6f1a 593d adff 8f3d
00000010: 5501 83bc e6dc 3e3d 9543 8a3b ccb1 50bd
00000020: c683 793d 605c 46bd 56c6 35bd 5c75 b83c
00000030: 57a0 3b3d 9f80 15bd e8f0 08bd f480 5c3b
-0.0014882347 0.022292396 0.053003725 0.07031188 -0.015991846 0.046597384 0.004219482 -0.05095081
0.060916685 -0.04842794 -0.0443786 0.022516899 0.04580721 -0.036499616 -0.03343287 0.0033646198

actor.4.weight f4 [32, 16]
00000000: 8dba 6abd 1e8a c5be c342 243e 3124 b6be
00000010: 93bf 883e 6eca e0be 6ce0 2e3e 1f5b cabe
00000020: a4fd 9dbd 2998 05bf f2af 53bd 7a79 88be
00000030: 43fc a3be cf5a e03e 4ad6 bebd 9b84 473e
00000040: 07a7 94bd 31c7 5c3e 3656 a7be 6cb6 813c
00000050: 18be f73d ffaa 30be 2f16 31bd c898 853d
00000060: 8366 0c3f 8cdb c53d c51f 143e 838a 5ebe
00000070: 202c fd3d 7870 8cbe a707 883e 8ed0 b6bd
00000080: 0c11 4d3c 7d4b 14be e7dd 5e3e c74a 54bd
00000090: d408 83be a1ac 453e 5004 e5bd c1ca b93e
000000a0: 47fd b23d 1449 5e3e 126e 2a3e 0544 e2be
000000b0: dc90 fe3d 64f2 e53e 2f30 ebbd db02 cb3e
000000c0: 3c84 95be 2372 023e 4088 7a3e 956e 793e
000000d0: 5f72 e83e 8ad2 793e 1f38 02be f9ef 043f
000000e0: 768b d7be bafc 1ebe 4707 be3e f594 9cbe
000000f0: 5d58 0d3d 5dff 093e 90b2 1a3c f666 95be
00000100: f7fb 933e 8b46 10be 4f16 fb3d 0030 1d3f
00000110: 8906 753c 735e c8be e42d 89bd 0289 443e
00000120: cbd3 47bc b23d 56be 7222 0d3f fee7 5fbd
00000130: c123 99be 63ca 29bd 6e06 173f ecb6 203e
00000140: e865 f63e 83b6 5c3e bdf5 103d 2c6e 3b3b
00000150: f928 713e d457 d53d 9be1 99bc 2823 1bbe
00000160: 9174 d83c 06c8 343e ddab 113e 8cea 143e
00000170: a8a5 81be fd78 e53e fc7f f9bc 662a 00be
00000180: 906b 6dbe 95cc e9bc 7657 e2bd 34e3 a03e
00000190: 4075 84bb c137 0ebe cd6d 41bd c330 7cbd
000001a0: 7655 513e b092 85bd e93b 71be 0a29 613d
000001b0: 2368 fe3e 6c41 9abe 591d 883e 7225 9f3e
000001c0: bb3a 14bd e936 89bd 83b0 69bd f1c1 d63e
000001d0: ac56 783e f3fc 6c3c 6949 acbd 6391 26be
000001e0: 57a7 d93e 138e 6e3e 01fb 0bbf 1c34 7f3e
000001f0: 5c6d 6dbe dc1c ed3e 2b87 173d 7fb0 0d3e
00000200: 601b 913e d55e a03d 6674 d9be 8608 53be
00000210: 55f0 803e 3625 4a3e bfd3 bfbe 1224 ab3e
00000220: ed8a 3d3e 2c93 8c3e d22d f3bd d1ad 343e
00000230: 21c3 94be 1963 293d 3ca1 1f3e 30e6 7fbe
00000240: 3f27 063e 6828 24bb ea6e 83be 2111 743e
00000250: cbeb b93e c5c1 0e3f 75b8 893e fd33 fdbe
00000260: e355 a9bd 12a6 8fbe 450d 493e a4b9 aebe
00000270: 5f83 8e3e 351e e43c cf0d 7f3c 1650 8fbc
00000280: d0bc 54bd b283 463d aa49 a0be 4399 11bf
00000290: e3cd be3d 0808 d73d f88f 943e 2623 e93e
000002a0: 6383 cc3d 6903 3b3a 1323 7e3e ed24 43bd
000002b0: bfc1 18be 1a77 373e b13f 0c3e fc5f 143f
000002c0: 1acd 98be 4557 133e a971 443e 2b9b 44be
000002d0: 7fd9 7c3e d4af 92be a33d e4be 860c dfbe
000002e0: f99b c73b f5de 5b3e fcfb 7c3e 7244 5f3d
000002f0: cabf 74bd 5a0a da3d 0728 8b3e 7700 51be
00000300: 5f25 803e 42a6 64be 0a91 1e3e e872 acbe
00000310: 72d5 87bd 34a0 a0be 2785 81be 74a1 823e
00000320: c287 79be d7db 64be 15e6 02bf 5a57 133e
00000330: 0570 4d3d 3147 33be f55a ba3d 0208 d23b
00000340: f6b1 03bc cc73 c9be 4671 fabd 96df c63e
00000350: db31 cbbe c3bc 813c 99f5 593d b22e 393e
00000360: 697a 603e 1643 65be f45c 363d 6851 083f
00000370: 552b 7d3e 418f 0e3e d8e7 e9be 2c38 e4be
00000380: 7b9d 523d e6cb 62be 8f3a 93bd 03ee fb3e
00000390: 5780 ccbe 3525 8d3e 073a 3d3d 6aea 16be
000003a0: dc1b 12be 922e a23e 6138 bebc aec2 d5bd
000003b0: 99c2 aabe 170b de3d 65ef e53d eb57 523e
000003c0: e9f1 063f 10a8 763d cedc c13e c8ad e4bd
000003d0: 71d6 003d 332e 28be 1cc6 2a3e 0b40 8fbc
000003e0: e766 d03e dfcf 853c 7304 0e3f cd52 423d
000003f0: 5e32 123e 83eb 18be b800 103d faa9 17bd
-0.057306815 -0.38581938 0.16041093 -0.35574487 0.2670866 -0.43904442 0.17077798 -0.39522645
-0.07714394 -0.521853 -0.051681466 -0.2665518 -0.32028398 0.4381928 -0.09318216 0.19484179
-0.072584204 0.2156036 -0.3268296 0.015834056 0.120968044 -0.1725273 -0.043234047 0.06523281
0.5484392 0.09661016 0.14465244 -0.21732526 0.12361932 -0.27429557 0.26568338 -0.089264974
0.012516271 -0.14481921 0.21764337 -0.051829126 -0.25592673 0.19304134 -0.11182463 0.362875
0.08739715 0.21707565 0.16643551 -0.4419252 0.124299735 0.44911492 -0.114838 0.39650616
-0.2920245 0.12738852 0.24466038 0.2435859 0.45399758 0.2439672 -0.12716721 0.5192867
-0.42098588 -0.15526095 0.37114927 -0.30582395 0.034508098 0.1347632 0.009441987 -0.29180115
0.2890317 -0.1408941 0.122601144 0.6140137 0.014955171 -0.3913456 -0.06698206 0.1919289
-0.0121964915 -0.20921972 0.55130684 -0.054664604 -0.2991009 -0.041452777 0.58994186 0.15694779
0.48124623 0.21553998 0.035390604 0.0028599603 0.23550786 0.104171425 -0.018784335 -0.1515013
0.02642277 0.17654428 0.14225717 0.14542598 -0.25321698 0.4481887 -0.030456536 -0.12516174
-0.23185563 -0.028539935 -0.11051838 0.31423342 -0.0040422976 -0.13888456 -0.047223855 -0.06156994
0.20442757 -0.06522119 -0.2355801 0.05497078 0.49688825 -0.30128038 0.2658489 0.31083256
-0.036188822 -0.066999264 -0.0570531 0.4194484 0.24251813 0.014464605 -0.084124394 -0.16266398
0.42510483 0.23296385 -0.54679877 0.24922222 -0.23186249 0.4631108 0.03699414 0.13836859
0.28341198 0.07830588 -0.42471617 -0.2060872 0.2518336 0.19740757 -0.37466237 0.33425957
0.18510027 0.27456033 -0.11873974 0.1764443 -0.29055122 0.041354273 0.1558885 -0.24990153
0.13100909 -0.0025048498 -0.25670558 0.23834659 0.36312708 0.5576442 0.26898542 -0.49453726
-0.08268335 -0.2805639 0.19633968 -0.34126008 0.27834603 0.027846435 0.015567257 -0.017494243
-0.051937878 0.04846544 -0.313062 -0.56874484 0.093166135 0.10499579 0.2901609 0.4553463
0.099859975 0.0007133992 0.24818067 -0.047642637 -0.14917658 0.17916527 0.13696171 0.5795896
-0.2984398 0.1438876 0.19183983 -0.19199817 0.24692343 -0.2864977 -0.44578275 -0.43564242
0.0060915914 0.2147177 0.247055 0.054508634 -0.059753217 0.10646506 0.27178976 -0.20410334
0.25028512 -0.22329047 0.15485016 -0.33681417 -0.06632508 -0.31372225 -0.252969 0.25513804
-0.24368194 -0.22349487 -0.5113233 0.1438879 0.05015566 -0.17507626 0.0909938 0.006409646
-0.008038035 -0.39346159 -0.122286364 0.38842458 -0.39686474 0.015837079 0.053212736 0.18084219
0.21921696 -0.22388873 0.04452224 0.53249216 0.24723561 0.13921835 -0.45684695 -0.44574106
0.051419716 -0.22148094 -0.071889035 0.49205026 -0.39941666 0.2756745 0.046197917 -0.1473786
-0.1426844 0.31676155 -0.023220243 -0.10437523 -0.3335159 0.10841959 0.112273015 0.2054135
0.52712876 0.06021887 0.37863773 -0.11165959 0.031454507 -0.16423874 0.16677135 -0.017486593
0.40703508 0.016334472 0.5547554 0.047442246 0.14277026 -0.1493359 0.035156935 -0.037027337

actor.4.bias f4 [32]
00000000: b9a8 eebc c349 c6bb d7f2 80bb 2ed5 cfbb
00000010: 1fea 9e3b 2319 fa3b 5460 2a3d 89a1 203d
00000020: 2b5c 0dbc 6de5 233d 63b5 2cbd 5958 10bd
00000030: fe55 00bd 7e1e ec3c 81ab 9d3c c636 02bc
00000040: 2f6b 3d3b 4efa 1bbc 92cc 44bd bac5 dc3c
00000050: 03b9 493d a61e 3e3b 26ae 85bc 5d7a c1bd
00000060: 3e07 1bbd 47bc 6ebd b7ee 1ebd c2ae b33c
00000070: 60c3 bdbd 7e44 703d abc5 253c a542 28bc
-0.029133188 -0.0060512736 -0.0039351988 -0.0063425517 0.0048496868 0.007632391 0.041595772 0.039216552
-0.008627932 0.04001372 -0.04216517 -0.035240505 -0.03133201 0.028823134 0.019246818 -0.007947629
0.0028902998 -0.0095201265 -0.048046656 0.026949752 0.049248707 0.0029009967 -0.016318392 -0.09447167
-0.037848704 -0.058285024 -0.038801875 0.021933917 -0.092657804 0.05865907 0.0101179285 -0.010269796
