ckpts/ppo_co.pt (torch, 23932 bytes, 16 tensors)

log_std f4 [1, 3]
000000 00 00 00 00 00 00 00 00 00 00 00 00
       0.0 0.0 0.0

critic.0.weight f4 [64, 9]
000000 a6 29 1a 3f 06 98 6e bf be 78 a7 3e 18 75 b2 be
       0.602198 -0.9320072 0.32709306 -0.3485496
000010 cd 97 a4 3e fd 1b 65 3f d2 9e b0 be 4f f9 be 3e
       0.32147065 0.8949583 -0.3449617 0.37299582
000020 f2 af f0 3e 77 d1 a8 3e 9c 71 27 bf cf 3c 91 be
       0.47009236 0.3297231 -0.6540773 -0.28366706
000030 fd 69 12 be c1 ec 5a be 14 ab f6 bd 55 63 c6 be
       -0.14298244 -0.21379377 -0.12044349 -0.3874766
000040 40 97 9f be 81 e6 83 3e fe ab 82 be 4a 8a 71 3e
       -0.31170082 0.25761798 -0.25521845 0.2358791
000050 34 0e 41 be 5f a6 b1 3e 5d 7a 94 bd dc 05 b5 be
       -0.18853074 0.34697244 -0.072499014 -0.35356033
000060 37 c2 0f 3f 20 21 0d bf 89 5e f0 be ad 5b 71 be
       0.56155723 -0.5512867 -0.46947125 -0.23570128
000070 92 df 8c 3f 02 34 74 bc 93 1c af be b6 06 3e 3f
       1.1005728 -0.014904978 -0.34201488 0.7422899
000080 ed a5 6c be c8 7a 52 3e 5e 93 f7 3e 7e c3 3d bf
       -0.2311017 0.2055465 0.4835462 -0.7412642
000090 4d ea bd 3e 6c c4 74 bf 98 76 22 3e 38 2d 59 be
       0.3709282 -0.95612216 0.15865552 -0.21208656
0000a0 fc d2 b1 be a6 a5 ef 3e e8 d1 34 bf 1a 6e 04 bd
       -0.3473128 0.46806067 -0.7063279 -0.032331564
0000b0 aa d3 0d 3f 96 4c 25 bf 8d e6 25 3f b8 43 0a be
       0.554011 -0.64569986 0.6480492 -0.13502395
0000c0 02 61 ca be 56 7b 74 3f 53 e4 2d be d1 96 01 be
       -0.39527136 0.95500696 -0.1698163 -0.12655188
0000d0 92 8d a5 3e 4f 37 85 bf ad 81 3a be dc 83 ee 3e
       0.32334572 -1.0407504 -0.1821353 0.46584976
0000e0 a3 aa 97 bd a4 e4 2b 3f 20 83 93 bf fe 78 9b be
       -0.07405593 0.6714575 -1.1524391 -0.30365747
0000f0 f8 b5 54 bd ce ef 12 3d e1 18 31 be cc 14 69 be
       -0.05193135 0.035873227 -0.17294647 -0.2276184
000100 2f 72 95 3d 54 2d 0e 3f a3 50 5f bf 76 5e 3a bc
       0.072971694 0.55537915 -0.87232417 -0.01137506
000110 4b 1e 08 3f 36 0c 86 be 52 21 cd 3a b2 3f 96 3e
       0.53171223 -0.2618119 0.0015650189 0.2934547
000120 5c fc 12 bf ec 2b 88 3f 75 2e 8c be 7f 56 b3 3e
       -0.5741632 1.0638404 -0.27379194 0.3502693
000130 7d 25 40 be 8b 4e 12 bf 1e 73 2b 3f a5 34 5b be
       -0.187643 -0.571511 0.6697253 -0.21406801
000140 cd 1b b5 be 34 20 68 3e 2d 51 4a bf 03 f3 a0 be
       -0.35372773 0.22668535 -0.79030114 -0.31435403
000150 de 2f 07 be 82 a6 18 be 95 5c f0 3d 94 37 14 bf
       -0.13201854 -0.14907268 0.117364086 -0.57897305
000160 c4 e5 f3 bd 2b 83 b3 3e 97 a2 3c bf cd 1c 24 3f
       -0.11909059 0.3506101 -0.7368559 0.64106447
000170 d9 9d c5 bc cd dc 33 3f 43 bd 00 bc 28 5a 3b bf
       -0.02412312 0.7025879 -0.0078576235 -0.7318444
000180 69 11 1a 3f 0d 45 cd be 7a 2d be be 7b 07 e9 3e
       0.60182816 -0.40091744 -0.3714407 0.4551352
000190 ce 21 fe be 5a 8b dd 3d f4 e7 69 3f 14 52 44 bf
       -0.49635166 0.10817595 0.9136956 -0.7668774
0001a0 2a 03 c5 3e 4c 33 f7 be 3a 34 36 3c d4 b5 1c 3f
       0.38478976 -0.48281324 0.01112085 0.6121495
0001b0 0b 31 1d bd 51 74 31 3d cd 0b 31 bd 88 bc 25 be
       -0.03837685 0.04332382 -0.043224145 -0.161852
0001c0 b7 8c 7d 3d e5 b1 25 3e 42 10 29 3e b9 de 91 bf
       0.061901774 0.16181143 0.16510108 -1.1396095
0001d0 1e 4a 4f be 2f 88 bd be f7 24 6b 3e ca c0 19 be
       -0.20243117 -0.37017962 0.2296332 -0.1501495
0001e0 7f dc 08 3f 28 43 10 bf 2c 79 31 bf ce 2f 25 bd
       0.5346145 -0.5635247 -0.6932552 -0.040328793
0001f0 bf cd 9e be cd 28 b5 be ea b3 84 3e f5 ac f0 be
       -0.31016347 -0.3538269 0.25918514 -0.47006956
000200 db 42 75 3c 48 28 a7 be 21 52 44 3e 03 e4 16 3f
       0.014969553 -0.3264792 0.19171955 0.5894167
000210 67 c6 3c bf 5f 09 24 be c0 e9 de 3d 4c 42 ee 3e
       -0.7374024 -0.160192 0.10884428 0.46534956
000220 c7 dd 31 bf ec be be 3e 2f c3 2e bf bb bd 24 3e
       -0.6947903 0.37255037 -0.68266577 0.16088001
000230 8c 46 c0 3e 9a b7 9d be 51 c7 cf 3b 6e 76 6a 3e
       0.37553823 -0.3080414 0.006340899 0.2289674
000240 77 3e ae be d3 cf bb bd 7e cf fa 3e b2 10 1d bf
       -0.34032032 -0.09170499 0.4898643 -0.613536
000250 7d 0f 04 bc 06 b2 01 3e 69 ee 3b 3e cd a1 65 bf
       -0.008060333 0.12665567 0.18352665 -0.89700013
000260 21 19 27 3e f2 a8 3e 3f 82 8b 2b bf eb f1 65 be
       0.1631818 0.7447654 -0.6700975 -0.22455566
000270 c6 fd a0 3f b8 cd d0 be d7 04 46 3e b2 84 1d bf
       1.2577446 -0.4078195 0.19337784 -0.615306
000280 b3 a5 d7 3e 4a 4b a6 3c 13 75 c1 3e eb 76 d8 3e
       0.42118606 0.020299572 0.37784633 0.42278227
000290 f4 ea e8 be 5e 13 f5 3e b6 51 8e 3e 57 81 5e be
       -0.45491755 0.47866338 0.27796715 -0.21729027
0002a0 91 72 f0 3d ce d6 06 3e 6e 14 83 be c5 f8 f7 3e
       0.11740602 0.13167879 -0.25601524 0.48431984
0002b0 58 a3 0b bf cf a5 e4 3e 52 b8 8d be 0a bc f1 3d
       -0.5454612 0.44657752 -0.27679688 0.11803444
0002c0 a7 45 29 3f fe 20 89 be 23 6b 30 3f dc 9e 3d 3d
       0.66121906 -0.26782984 0.6891348 0.04629408
0002d0 3e c4 5d 3e 6e 17 78 be 8f f1 73 3e 53 6e 21 bf
       0.21656892 -0.24227688 0.23822616 -0.63058966
0002e0 1d 72 62 be 28 7d 95 3e 2b ac c7 3d 8d 0c cc 3e
       -0.22113843 0.2919705 0.09749635 0.39853325
0002f0 63 fd 81 3e 6a b9 a0 3e a2 5e 74 be 19 a8 cd bc
       0.2538863 0.3139146 -0.23864225 -0.02510457
000300 9c 67 06 3d bd 61 cf 3e 35 21 2c 3e e8 3d 0b 3e
       0.032813653 0.40504256 0.16809542 0.13597834
000310 4d 63 72 3e d8 a7 b4 bb 73 f9 28 3e 35 69 53 3f
       0.23670693 -0.0055131726 0.16501407 0.8258241
000320 07 39 c2 be 5c bd a8 3d 88 98 b0 3e c5 b9 0a bf
       -0.37934133 0.082392424 0.34491372 -0.5418971
000330 f8 25 77 3e b0 9d 32 be 78 85 cd be e1 78 3e be
       0.24135578 -0.17442966 -0.4014089 -0.18600799
000340 7e 07 2e 3f f2 90 65 3e 0f fc 81 3e c9 47 5e bc
       0.6798018 0.22418573 0.25387618 -0.01356692
000350 a7 bd c5 be 39 74 90 3e 07 54 9a 3d 2c 3b be be
       -0.38621256 0.2821367 0.07535558 -0.3715452
000360 1d 86 33 3f 8f 82 32 bf eb e1 15 bf 9e 30 16 bf
       0.70126516 -0.69730467 -0.5854785 -0.58667934
000370 d5 02 c5 3c 1f 9a a6 3e 9e c1 bc 3c 72 df c2 3d
       0.024049202 0.3253946 0.023041543 0.09515275
000380 4b 47 ab 3e 54 77 8c 3e b3 7e ef be fe d6 19 be
       0.3345283 0.2743479 -0.4677635 -0.1502342
000390 4b 66 1c bf 4c 1f 5c bd d6 31 0f 3f 74 e7 48 bf
       -0.61093587 -0.053740785 0.5593542 -0.7847817
0003a0 62 f5 f2 3d 88 ce 12 3f c0 e2 0e bf 81 ab 2a 3f
       0.11863209 0.5734639 -0.55814743 0.66667944
0003b0 46 9b 5d 3d b0 7b 6d 3e c9 bc 9c be b8 7b 3f bf
       0.05410316 0.23191714 -0.30612782 -0.74798155
0003c0 13 28 15 3f 18 e7 60 be 5e d9 04 bf c0 83 d9 bd
       0.58264273 -0.21963155 -0.51894176 -0.106208324
0003d0 7e c0 b4 bd a5 6b 06 3f 2a 3c 89 3f c6 b8 c3 bf
       -0.088257775 0.52508 1.0721486 -1.5290763
0003e0 47 e8 29 3c aa 4b 5a bf 91 bd a0 3f 69 34 aa be
       0.010370321 -0.85271704 1.2557851 -0.3324311
0003f0 98 a0 e6 3e a0 7f 04 be b2 71 87 3e b6 41 c0 3c
       0.45044398 -0.1293931 0.2645393 0.023468833

critic.0.bias f4 [64]
000000 ef 18 05 bd 77 0b d1 bd e1 1e 84 bc 1e 32 d1 bb
       -0.03249448 -0.10207265 -0.016128005 -0.0063841483
000010 b0 68 88 bd bc ff d9 3c d4 52 73 bd 57 48 94 3c
       -0.066605926 0.026611201 -0.059405163 0.0181009
000020 81 83 8a 3d 65 44 bf bd fe 39 fa bc 47 ec 7f bd
       0.06763364 -0.09339217 -0.030545231 -0.06248119
000030 e6 96 bf bd 06 85 95 bd cc aa a8 3c d8 e8 a8 bc
       -0.093549535 -0.07300763 0.020589255 -0.020618841
000040 4b 23 bd bd cc 98 8d 3b d2 5b 41 3d a3 a9 44 3d
       -0.09235247 0.0043211933 0.047206707 0.04801334
000050 3a 90 1c 3d 1b be bd 3d a5 4e 46 bd 29 42 3c 3d
       0.038223483 0.09264775 -0.048414845 0.045961533
000060 dd 2e fa 3c cd e2 8b bd df 59 80 bc d1 1a 91 3d
       0.030539924 -0.06830368 -0.015667854 0.07085193
000070 ed a4 90 3d 22 0d 5a bd de 26 6a bd 63 f9 fe bc
       0.07062707 -0.05323518 -0.057165973 -0.031124776
000080 22 e8 00 bd ea 5e 74 bd 84 0d d4 bd 3b 8d 88 bc
       -0.03147138 -0.05966083 -0.103541404 -0.016668906
000090 00 92 01 bd 00 18 d8 3d 88 8a fe bc 97 d9 ff 3c
       -0.031633377 0.10551453 -0.031071916 0.031231685
0000a0 c3 b9 90 3c c9 3b 6e 3c 9b f5 46 bc 54 49 f5 bb
       0.017666703 0.014540621 -0.012143518 -0.007485548
0000b0 b0 7d ea 3c c1 f1 ac bc 03 77 49 3c b3 ca 2b 3d
       0.028624386 -0.021111371 0.012296441 0.041941356
0000c0 3a de bc bc 7f 99 44 bb 27 14 6d 3c 4d fa 47 3d
       -0.023055185 -0.0029998717 0.014470137 0.04882269
0000d0 08 b4 74 bd 72 39 53 bd 04 87 8e bd 6e 83 16 bd
       -0.059742004 -0.051568456 -0.06959346 -0.036746435
0000e0 45 1c 65 3c df 3f da bd 4c 79 a2 bd ae 7f 9b bc
       0.013983791 -0.10656714 -0.07933292 -0.01898178
0000f0 20 fe c3 3c 74 f8 43 3b d2 87 bb bd 42 1a 23 bd
       0.023924887 0.0029902728 -0.09156765 -0.039819963

critic.2.weight f4 [16, 64]
000000 7f 3f 64 3e 03 ca de be 1a f2 ab bd 19 2f aa 3e
       0.22289847 -0.43513498 -0.083957866 0.33239058
000010 21 89 92 3d 0d 81 41 be cc be aa 3d 5a 06 62 be
       0.071550615 -0.18896885 0.08337173 -0.22072735
000020 5d 3d 91 bd e9 52 96 be b4 bc f7 be 3a c3 30 3e
       -0.07091782 -0.2936013 -0.48386157 0.17261973
000030 97 2f 04 bf 71 06 e2 be 7e ec 81 be 21 15 d2 be
       -0.51635116 -0.4414554 -0.25375742 -0.41031745
000040 b3 f3 46 be 73 e0 a3 bd 20 e9 b8 3d d5 df ba bd
       -0.19428901 -0.08001795 0.0902884 -0.09124724
000050 b0 fb f7 3e c1 c3 d6 bc 99 47 11 3f 94 79 f1 3e
       0.4843421 -0.02621639 0.56749874 0.4716307
000060 15 56 fa 3d dc fc d5 be c2 57 6a 3d 72 a7 07 bd
       0.1222345 -0.4179448 0.0572126 -0.033118673
000070 99 f2 34 3f 01 2c a7 be 55 0a 44 be 7b ed 00 bf
       0.70682675 -0.3265076 -0.19144566 -0.50362366
000080 43 b9 80 3e a1 1e 37 be 44 4b c7 be ed 0d 1c 3d
       0.25141343 -0.17882778 -0.3892461 0.03809922
000090 f7 37 d3 3e ee e1 d7 3e 35 35 07 3f 23 b6 b3 3d
       0.41253635 0.42164558 0.5281556 0.08774974
0000a0 eb 35 bd 3e 02 b3 6a bd 1c 3d 20 bf 5b 93 70 3e
       0.369552 -0.05729962 -0.62593246 0.23493712
0000b0 7d df 25 3e ea 3b 01 3f 87 f5 05 bf 73 e5 3d 3e
       0.16198535 0.50482047 -0.5232777 0.18544559
0000c0 c6 fa bb be 61 40 f7 3e 99 fe 70 3e 34 15 bb 3e
       -0.36714762 0.48291305 0.23534621 0.36539614
0000d0 7c d7 67 be f0 e7 4c be 05 a3 9d be 2e 76 86 be
       -0.22640795 -0.20010352 -0.30788437 -0.2626204
0000e0 d4 5b 48 be c1 20 ad bd a8 06 8a 3d 0d f5 16 bf
       -0.1956628 -0.08453513 0.06739551 -0.5896767
0000f0 98 7e 39 bd cf 5f 3e 3e 88 75 ac be 28 9b ae be
       -0.045286745 0.18591236 -0.3368342 -0.3410275
000100 23 63 a5 3f 6d e9 94 3e e2 7c 03 be aa e3 69 bd
       1.2920879 0.2908434 -0.12840608 -0.057101883
000110 67 a3 12 3f 1e 81 62 be 58 80 69 be 84 69 eb 3e
       0.5728058 -0.22119567 -0.22802866 0.4597894
000120 bf 28 7f bf c4 38 d8 3e 80 5a 9c bf aa 14 de 3d
       -0.9967155 0.4223081 -1.2215118 0.10843785
000130 70 bd 2f 3b 94 22 49 3d 91 f5 07 3f 09 b6 76 3f
       0.0026815794 0.049105242 0.5310908 0.96371514
000140 45 4d 5b 3e 1f 4c 82 be 7e 17 86 be 21 87 96 3e
       0.21416195 -0.254487 -0.26189798 0.2939997
000150 6a a5 19 3f a2 71 5b be 22 6d 1f bf fa 74 9a be
       0.60018027 -0.21430066 -0.622759 -0.3016737
000160 b6 13 c2 3e 60 72 79 3e 7d 06 57 bf a3 2a 69 3e
       0.37905663 0.24360037 -0.83994275 0.22770171
000170 64 44 f7 bd 06 99 15 3e b7 24 c8 3e 04 df 79 be
       -0.12073591 0.14609155 0.3909051 -0.2440148
000180 02 69 19 be a5 ff b8 be aa 13 ec 3d 3b 07 10 bc
       -0.14981464 -0.3613254 0.11527188 -0.008790786
000190 b0 ff 07 bf 68 e4 d2 be 3b f5 7d 3e e1 4b b9 be
       -0.53124523 -0.41189885 0.24800579 -0.36190704
0001a0 27 a0 a5 3d 24 ee 72 bf c6 ae e3 be 83 1c f0 be
       0.08087187 -0.94894624 -0.4446928 -0.46896753
0001b0 62 7a 4c 3e 79 07 b1 bd 79 f3 f3 be ff 28 8f be
       0.1996856 -0.086440034 -0.47646692 -0.27960965
0001c0 a5 a6 5d 3e 93 e7 b0 be 50 de c1 3d 23 6e f8 bc
       0.21645601 -0.34551677 0.09466231 -0.030325955
0001d0 82 a3 0d 3f 8a 16 10 3f cb c2 a6 be 41 f2 6d 3f
       0.5532762 0.5628439 -0.3257049 0.92947775
0001e0 22 1e 1a 3c 72 32 9d 3e a7 73 59 3f 66 ee 96 3e
       0.009406598 0.3070255 0.84942096 0.2947876
0001f0 ae 33 8f be ae 51 3c bf 09 6f 01 3f 73 d8 32 be
       -0.27969116 -0.73562133 0.5056005 -0.17465381
000200 3a a0 b9 bd 2e 3d 69 3e 68 de 4d be 2d 27 ce 3d
       -0.09063764 0.22777244 -0.20104373 0.10066066
000210 87 f0 8c 3e 8e f3 25 be 27 8d d3 bd 93 b8 f5 3d
       0.27527258 -0.1620619 -0.10329657 0.11998095
000220 67 8d 89 bd 2b 11 25 3e 8f 35 be bd 6d 23 ba 3c
       -0.067164235 0.1611983 -0.09287559 0.02272197
000230 3c 2d ab 3d d2 14 56 3e 5d 58 d2 3d d8 f7 0b bd
       0.08358237 0.2090638 0.1027076 -0.03417191
000240 b2 6b e4 3d b5 4e 05 3e cf f4 c8 bd a8 c6 16 bf
       0.11153354 0.13018306 -0.098123185 -0.58896875
000250 32 62 59 be 81 f9 a2 be bd 12 4d 3e 00 c7 39 bd
       -0.21228865 -0.3183098 0.2002668 -0.045355797
000260 b9 63 5c be 98 99 a7 3d 70 c0 76 3e 32 c2 37 be
       -0.21522416 0.081835926 0.24096847 -0.17945173
000270 26 e6 51 be 00 85 09 3e d2 c1 3b 3e 00 55 87 bd
       -0.20497951 0.13429642 0.18335655 -0.06608009
000280 dd a2 46 3e f9 92 8e 3e 36 ec ab 3e f2 01 71 3e
       0.19398065 0.27846506 0.33578652 0.23535898
000290 1a 49 6f be 4f 46 00 bf 04 70 b9 be fe 18 46 be
       -0.2336773 -0.5010728 -0.36218274 -0.19345471
0002a0 87 aa 7f bc 5b f1 de 3e 93 d8 f9 3e 23 a0 c2 be
       -0.015604622 0.43543515 0.48798046 -0.380128
0002b0 65 d6 7e be 87 37 3e be 9a 11 d4 3e 84 48 a1 3b
       -0.24886473 -0.1857587 0.4141968 0.0049219746
0002c0 da 33 5e 3e 5b 14 88 be 07 da 61 3e 76 64 aa be
       0.21699467 -0.2657803 0.22055827 -0.3327977
0002d0 e3 84 33 bd b8 99 d1 3e e3 d9 6d 3e 17 ce 01 be
       -0.043827903 0.4093759 0.23227648 -0.12676273
0002e0 66 f7 5d 3e 52 0f 81 3e 24 3d c2 3b 1e 75 77 3e
       0.21676406 0.25207 0.0059276987 0.2416577
0002f0 10 af 24 3e 03 27 02 bc 39 59 74 3e d7 a9 aa 3e
       0.16082406 -0.007943871 0.2386216 0.33332703
000300 07 40 06 3e 82 79 bc 3e 5a 35 b7 3e f4 02 83 be
       0.13110362 0.36811453 0.35782892 -0.2558819
000310 97 e1 36 3e 2d 9b 31 bf 3e b6 c7 3e ea 30 be be
       0.17859493 -0.69377404 0.39006227 -0.37146693
000320 b8 f4 99 3d ae 5b de 3d fd c7 ac 3e 8c 1a b1 3d
       0.075173795 0.1085733 0.3374633 0.086476415
000330 66 25 be 3d 93 5f 76 3e 38 fb 16 3e 39 8c 94 bd
       0.09284477 0.24059896 0.1474427 -0.07253308
000340 f2 5d 22 3e 02 9a e8 3e 0d 4c b1 3d 03 d9 6c 3e
       0.1585615 0.4543 0.08657084 0.23129658
000350 7e d0 64 be b7 1b 1c be 48 4c a2 be 64 dd 6d be
       -0.22345158 -0.15244947 -0.31698823 -0.23228985
000360 7a ef db 3e ca 8a 8e bd 3d e2 eb 3e e7 1a f9 3c
       0.42956144 -0.06960066 0.46071044 0.030408336
000370 2f 9d a1 be e9 65 90 3e cd ee 03 3f 5a 64 01 3e
       -0.31565234 0.2820275 0.51536256 0.12635937
000380 fc 65 47 3f 83 8b 7c 3e da b6 7c bd f9 e9 c9 3e
       0.7788999 0.24662594 -0.06169782 0.3943632
000390 f4 b2 00 3e 19 4e b9 bd 8d 59 3d be c6 0c 1f 3d
       0.12568265 -0.09048099 -0.18491192 0.03883054
0003a0 64 91 ed bc 18 66 96 be 6e 48 bb 3e 1d 44 50 3d
       -0.028999992 -0.29374766 0.36578697 0.050846208
0003b0 41 fb a2 be 48 3f 18 3f fe 94 4b bf 2c 6d e2 bd
       -0.31832317 0.5947156 -0.7952422 -0.11055979
0003c0 69 e2 d1 3d b2 fe c1 3e b8 17 79 bc 58 f5 b7 3c
       0.102482624 0.3788963 -0.015203409 0.022455856
0003d0 aa 9a 54 3e ab 61 0b 3e 50 6d 9b 3e e7 19 16 3f
       0.20762125 0.13611476 0.30356836 0.58633274
0003e0 9d 80 ec be 98 3f 4c 3e 4f af a1 bd 4a f9 34 3e
       -0.46191874 0.19946134 -0.078947656 0.17673221
0003f0 38 d9 08 be 53 44 03 bf 40 df f5 3e 6d b9 10 bd
       -0.13364112 -0.5127613 0.4802189 -0.035333086

critic.2.bias f4 [16]
000000 c6 3e 46 3e 75 90 a0 bc 21 f3 77 be 4a d4 1a be
       0.19359884 -0.019600132 -0.2421384 -0.15120044
000010 32 ce 79 bd b3 70 94 ba 14 11 e2 3d 68 e3 5b 3e
       -0.06098766 -0.0011325091 0.11038414 0.21473467
000020 e3 67 88 3d 94 79 6c bd 62 b3 84 3c fe f8 93 3e
       0.0666044 -0.057733133 0.016198818 0.28900903
000030 fa f7 dd 3d f2 e1 a7 bd 33 4b e7 bd 97 6f 35 3d
       0.108383134 -0.081973925 -0.1129364 0.044295873

critic.4.weight f4 [32, 16]
000000 78 71 bd be 1b e0 2c 3f 80 0e 12 be 96 ce 26 3e
       -0.37000632 0.6752946 -0.14263344 0.16289744
000010 da 60 8f bf 5c 91 06 3f 9f 16 bc bb b6 65 10 be
       -1.1201432 0.5256555 -0.0057400013 -0.141013
000020 7b 66 30 3f a1 07 76 be 42 d1 cc be bd b7 f2 3d
       0.6890637 -0.24026348 -0.400034 0.118514515
000030 48 61 3e 3f 13 d1 95 3e dc 47 2b 3c 76 fd 0b 3f
       0.7436719 0.29261073 0.010454144 0.54683626
000040 dd 96 45 3e 66 b0 5e be ea c0 56 be be 20 ab bd
       0.19295831 -0.21746978 -0.20972028 -0.083558545
000050 23 aa 18 bf 8f bd 93 be a8 0b 71 3e 9d 1c c2 3e
       -0.5963461 -0.2885556 0.23539603 0.37912455
000060 44 f3 9d 3e 81 08 c4 3e 1b 78 23 be 64 0d b4 3e
       0.3084966 0.38287738 -0.15963785 0.35166466
000070 32 a5 cd be a7 2a 0a be ad fe 1b 3e 29 c8 ba be
       -0.40165097 -0.13492833 0.1523387 -0.36480835
000080 f9 37 62 3d c9 43 30 ba 37 1e c0 be 67 6d a2 be
       0.05522916 -0.0006723968 -0.37523052 -0.31724092
000090 b8 61 5d be 87 e0 37 bf 27 46 94 3e 32 57 9f 3e
       -0.21619308 -0.71826977 0.28959772 0.31121212
0000a0 47 0c 4d 3f 12 52 4a 3f cf 78 12 bd a4 07 7b 3e
       0.8009686 0.7903148 -0.035759743 0.24514633
0000b0 97 91 51 3e f2 86 9d be 50 b9 06 bf 0e 10 cc 3c
       0.20465694 -0.30767018 -0.52626514 0.02491
0000c0 a3 21 e0 3e 6a e8 03 3f a5 7c 71 bd b4 96 d6 be
       0.43775663 0.5152651 -0.05895676 -0.41911852
0000d0 22 54 62 bc 6b 54 1b bf 6d eb 09 3f df 46 c3 3e
       -0.013814004 -0.60675687 0.53874856 0.38140008
0000e0 26 ac 45 3f 7e 96 cf 3e e7 28 fe bd b7 7a bf 3d
       0.772158 0.40544504 -0.12410145 0.09349578
0000f0 b6 dd 24 3e ac 09 f6 be c4 23 69 bd fd f4 8e be
       0.16100201 -0.48054254 -0.056918874 -0.27921286
000100 4b 08 3c bc 92 a7 2a be cb 3d 01 3f d5 40 54 be
       -0.011476587 -0.16665486 0.50484914 -0.20727856
000110 5e a7 d4 3e 20 39 af 3e 27 7a bc be 16 d4 ed bc
       0.4153394 0.3422327 -0.36811945 -0.029031795
000120 79 aa 05 3e cf f5 02 bf 15 86 0b 3e 3e 49 08 bf
       0.13053311 -0.51156324 0.13625367 -0.5323676
000130 d3 ea 8f 3d 88 13 01 3f 18 db 29 be 61 18 2e 3f
       0.07027211 0.5042043 -0.16587484 0.6800595
000140 9b b6 b0 be c1 14 87 bf 34 fa 31 be e0 0a 70 3e
       -0.34514317 -1.0553209 -0.17380601 0.23441648
000150 e7 f9 79 3f 29 92 f9 bd 58 b3 3f be b5 e0 e7 3e
       0.97646946 -0.12186081 -0.18720758 0.45288625
000160 68 5d ae be 7c 01 ff 3e 0d 6b e9 3e 9d e1 1f 3d
       -0.34055638 0.4980582 0.45589486 0.03903352
000170 78 84 f5 be fd b1 d8 3d 18 fc 42 be 9a 70 10 be
       -0.47952628 0.105808236 -0.19041479 -0.14105454
000180 73 11 0e bf 0d 01 db 3e cb f2 d0 3e bb b7 aa 3e
       -0.55495375 0.4277424 0.40810236 0.333433
000190 87 2f 5e be b4 e7 22 3e a9 80 fa be 92 2e 01 3e
       -0.21697818 0.159087 -0.48926285 0.12615421
0001a0 12 6d 92 bf 12 fa 34 bf 7d 0b 69 bc ab c5 65 be
       -1.1439536 -0.70694077 -0.01422393 -0.22438686
0001b0 be 44 84 3e 06 7b 72 3f e0 1f d9 3d 35 98 86 ba
       0.25833696 0.9471897 0.10601783 -0.001026875
0001c0 07 78 82 be ae f4 5f bf 30 91 8b 3e 50 4e 2e 3d
       -0.254822 -0.87482727 0.27259207 0.042555153
0001d0 3a a6 56 3f ed 97 ad bd 93 b4 ca 3e 0c 85 47 3e
       0.8384739 -0.08476243 0.39590892 0.19484347
0001e0 1d 0a 09 be bf ee 8c 3e 27 19 50 3f 0d 65 49 bd
       -0.13382764 0.275259 0.8128838 -0.049168635
0001f0 81 72 3f bf 13 38 9a 3e d6 ef 7c be ae 03 69 bc
       -0.74784094 0.30120906 -0.24700865 -0.014222069
000200 64 5c b4 3e fc 34 3e bf 6d 9d 20 be 1f 35 00 3f
       0.35226738 -0.742996 -0.15685053 0.50081056
000210 2a 8c 8a 3f a5 e7 00 be 6d c1 c0 3e 16 c1 04 be
       1.0824025 -0.12588365 0.37647572 -0.12964281
000220 19 23 18 be a4 e4 d7 3e eb 82 62 3f b6 01 f2 3c
       -0.14857139 0.42166626 0.88481015 0.029541831
000230 5f ea 98 bf 82 71 10 3e 2c 6e 53 be cb f9 7d be
       -1.1946524 0.141058 -0.20647496 -0.2480232
000240 ff 8c 38 be e8 e7 a2 be 6d 60 c4 be d1 e9 81 bc
       -0.18022536 -0.31817555 -0.38354817 -0.015858563
000250 d4 1e 99 3f 78 06 38 be bf 5e c5 3e 5c 44 48 3e
       1.1962533 -0.17971218 0.38548848 0.19557327
000260 6a f0 04 3e 08 47 b1 3e 62 d6 86 3f b8 0c e9 be
       0.12982336 0.34624505 1.0534174 -0.45517516
000270 10 55 8d bf bc ce 1c 3d 7d 85 e3 bd ec 4d f2 bd
       -1.1041584 0.038283095 -0.11109445 -0.11831269
000280 0b 20 61 be 84 52 2b bf c6 3c 35 be 94 a1 7c 3e
       -0.2198488 -0.66922784 -0.17698964 0.24671012
000290 87 6f 8b 3f 05 22 f3 be b5 c3 7e 3e 73 f3 06 bf
       1.089341 -0.47486892 0.24879344 -0.52715224
0002a0 6e d4 91 be 0b c8 10 3f 06 e4 4a 3f 35 9e a3 3c
       -0.28482383 0.5655524 0.79254186 0.0199729
0002b0 d5 4b bc be 87 10 87 be af b1 9b 3c 7f ac d7 bc
       -0.36776605 -0.26379797 0.019005625 -0.02632737
0002c0 b4 a6 9e 3e cd 3a be 3e 14 11 19 bf ab 20 a3 be
       0.3098656 0.37154236 -0.59791684 -0.3186086
0002d0 2d 3b 26 3f 3e e7 3a bf 9f ff 57 3e 59 60 ee 3d
       0.64934045 -0.730091 0.21093605 0.116394706
0002e0 f2 98 57 3f 4d c5 44 3f 0a df 9b bd 09 bb 06 3f
       0.8421775 0.7686356 -0.07610901 0.52629143
0002f0 13 21 2b 3c 89 25 4b bf e7 8f 4e bf 22 e3 eb bd
       0.010444897 -0.7935415 -0.8068833 -0.115179315
000300 b7 fe 01 bf 61 d2 10 be bc 78 b7 3e c2 84 03 3f
       -0.5077929 -0.14142753 0.358343 0.5137445
000310 6f 72 dd be 76 f5 15 3f 1f 6b 44 bf 62 b1 26 be
       -0.43251368 0.5857767 -0.76725954 -0.16278604
000320 a2 d0 11 bf 2b 19 03 bf 9d f7 c5 3e 01 84 70 be
       -0.56958973 -0.5121028 0.38665476 -0.23487855
000330 78 9a 43 bf f9 f3 ef 3d aa cc 15 3e 36 69 02 be
       -0.76407576 0.11716456 0.14628854 -0.12735447
000340 5d fa 98 bd 87 e2 16 be 8c 8d 06 3d 7a c9 ce bd
       -0.07469628 -0.14734851 0.032849833 -0.10097022
000350 d8 68 4b be ba 77 bd 3e 2f 56 05 bf b0 b8 e4 be
       -0.19864213 0.37005407 -0.5208463 -0.44672155
000360 72 f5 74 bf f3 a3 03 bf 0d 24 ec be a3 7c 36 bf
       -0.9568702 -0.5142204 -0.46121255 -0.7128393
000370 85 5c 71 3c dc 40 81 3f ac da ef 3e 1f 9d 48 3e
       0.014731531 1.0097919 0.4684652 0.19591187
000380 ce 1a a1 bd c9 6e ea 3e 40 75 93 bd 9d 61 19 bd
       -0.07866441 0.45787647 -0.07200098 -0.037446607
000390 86 db 15 3f b4 54 01 3d f8 f8 07 3f bf a6 fa 3e
       0.5853809 0.03157492 0.5311427 0.48955342
0003a0 da 9d 31 3f 66 8d 78 3e 52 48 c3 be d7 b1 1a 3f
       0.6938149 0.24272689 -0.38141114 0.6042761
0003b0 46 7b 8c 3f 7a ca 51 3e 1a 23 de 3e 44 b0 06 3f
       1.097512 0.20487395 0.43386155 0.5261271
0003c0 48 1b 2e 3f 4d 88 98 3e a1 3d 8c be cc 61 24 bf
       0.6801038 0.2979149 -0.2739077 -0.64211726
0003d0 43 e4 0d be fd bc d5 be c3 06 89 3e c6 ba 22 3f
       -0.13856606 -0.4174575 0.2676297 0.63566244
0003e0 74 6c 1e 3e 61 c6 43 3f d7 58 15 3f 07 95 54 3e
       0.15471059 0.7647458 0.58338684 0.20759974
0003f0 ff 12 0f 3e ad 9b 55 bf 2d 94 20 bf 73 ad 81 bd
       0.1397209 -0.8344067 -0.627261 -0.06331911

critic.4.bias f4 [32]
000000 ae 3f a6 3d 7d 02 82 3e a6 af bc 3e b7 99 a9 3e
       0.08117615 0.25392523 0.3685276 0.33125088
000010 62 9b 31 be 04 e9 e8 bc 08 90 34 be 0a cb 1f bd
       -0.1734443 -0.028431423 -0.17633069 -0.039011993
000020 7f fd 8d bc ed bf a9 3d 13 0a 1d 3e 9c 77 6b 3e
       -0.01733279 0.0828856 0.15335874 0.22994846
000030 19 54 90 be d8 15 82 be fb a4 1c 3e 32 d9 95 3e
       -0.2818916 -0.2540729 0.1529731 0.2926727
000040 72 0d 5f 3e 2e e3 20 3e 9c b4 46 3e 9d 73 93 bc
       0.21782473 0.15711662 0.19404835 -0.017999465
000050 32 54 64 3d d7 36 5d be 9f 87 42 3c f9 c2 a0 3e
       0.055744357 -0.21602951 0.011873155 0.31398752
000060 0b 6e 95 3e f5 47 71 be 90 03 b7 3e ac 92 dc bc
       0.2918552 -0.23562606 0.35744905 -0.026925407
000070 90 5f 9d be 87 b9 67 3e ea 43 4e 3e 3a 42 13 3e
       -0.3073697 0.22629367 0.20143095 0.14380732

critic.6.weight f4 [1, 32]
000000 9e 68 0a 3f 0c 92 a4 3e 23 a6 c9 3e 83 ad 08 3f
       0.54065883 0.32142675 0.39384565 0.5338976
000010 09 05 fe be 03 c9 15 bf 6a 59 03 bf 1b 0d 35 bf
       -0.49613217 -0.58509845 -0.5130831 -0.7072312
000020 03 ef 12 bf 74 5f d5 be 9d a3 0c bf 43 a5 c4 3e
       -0.5739595 -0.41674387 -0.54937154 0.38407335
000030 58 6f 26 bf 39 2f fc be 99 4a 0c 3f cf 35 db 3e
       -0.6501365 -0.49254778 0.54801327 0.4281449
000040 e8 07 a6 3e d9 e7 ea 3e f4 18 d9 3e 3f e2 c4 be
       0.32427907 0.4588001 0.4240185 -0.38453862
000050 b4 c6 ed 3e e6 f0 26 bf ef 44 c0 be bc 97 e3 3e
       0.4644066 -0.6521133 -0.37552592 0.44451702
000060 28 0d 85 3e b5 56 eb be af b9 b5 3e 4c be fe 3e
       0.259866 -0.4596459 0.35493228 0.4975456
000070 09 32 a1 be f4 0c 30 3f 47 3c 7e 3e c6 8a 27 3e
       -0.31483486 0.68769765 0.24827681 0.16361532

actor.0.weight f4 [64, 9]
000000 9f 68 91 3e a9 cd 53 be 92 80 69 3e 62 47 85 3e
       0.28400132 -0.20683922 0.22802952 0.26031023
000010 4b 14 e9 3e da 2f 2f 3e 9e 20 30 3e 67 40 d1 3e
       0.45523295 0.17108098 0.17199942 0.40869448
000020 03 b2 5d 3e 6f 19 12 bf e9 65 41 3e c7 6b 0d bf
       0.21649937 -0.5707006 0.18886532 -0.5524258
000030 43 66 22 be 8d c9 c9 be cf 05 01 bf 21 12 fe bc
       -0.15859322 -0.39411584 -0.5039949 -0.031014504
000040 d7 2d df bd 21 cc a3 be e0 c6 fe bd 7d ac 62 bb
       -0.10897415 -0.31991675 -0.12440276 -0.0034587674
000050 7b 4b d7 bd 73 1a 71 bd a4 10 a5 be fb 34 7a bc
       -0.10512444 -0.058863115 -0.32239258 -0.015271421
000060 e8 fd 24 3e a3 6d 98 be f9 a5 37 be 0f 9d 83 3e
       0.16112483 -0.29771146 -0.17934407 0.25705764
000070 fa 34 06 3e b5 96 7f be d6 62 2e 3e 9b 62 f5 3d
       0.13106146 -0.24959834 0.1702989 0.11981698
000080 04 6d 67 bd 19 6f bd be ee 06 db 3d 2a 39 0c bf
       -0.05650045 -0.36998823 0.10694681 -0.54774725
000090 57 75 a5 be 6e 46 41 bd 18 a3 7c bd 44 8d 4f be
       -0.32316086 -0.047186308 -0.061678976 -0.20268732
0000a0 9d ea e4 be 25 5b 2d be 8e 48 8c bd 9c 3b ac 3d
       -0.44710246 -0.169293 -0.06849776 0.08409807
0000b0 e3 66 10 3e 53 fc 3f be 94 f0 41 3e a2 0f 38 be
       0.14101748 -0.18748598 0.1893943 -0.17974713
0000c0 2c fd a4 3d 28 f2 36 3e c3 59 2c bd f3 da 12 bf
       0.08056101 0.17865813 -0.04207779 -0.5736534
0000d0 15 55 62 bc 26 2c 4c be f2 87 f6 be 6c fc 0b 3e
       -0.01381423 -0.19938716 -0.48150593 0.1367051
0000e0 96 a9 8c be ff 04 f5 bd 0c b9 38 39 3d 72 22 3d
       -0.27473134 -0.119638436 0.00017616543 0.039659727
0000f0 54 bc 56 be be d3 c3 be bd fd 98 3d d2 f0 5a 3d
       -0.20970279 -0.38247484 0.07470272 0.05345232
000100 a5 a1 71 be 86 87 13 3e d2 85 19 3e dc f3 23 3f
       -0.23596819 0.14407167 0.14992455 0.64043975
000110 76 f8 d1 3d c3 96 d5 bd f7 bf 05 3f 7e cb 64 3e
       0.10252468 -0.10429146 0.5224604 0.22343251
000120 51 3c e1 3d a2 12 6b 3d 6a 71 3a 3e 64 9a 8d 3e
       0.109978326 0.057390817 0.18207327 0.27656853
000130 40 30 be 3d d9 95 51 3e 04 ab b0 bd b9 30 01 3f
       0.09286547 0.20467319 -0.08626369 0.5046497
000140 80 ef 82 3e 8f d3 b4 be ad 9a 77 bc 96 74 3a be
       0.2557335 -0.35317656 -0.015112561 -0.18208537
000150 8f 49 94 3d fa 0d ff 3e 9a 4d 10 be 8c dc 4c be
       0.07240593 0.4981535 -0.14092103 -0.20006007
000160 f5 a1 82 bd 81 9a 14 bf 71 4a 32 3e 79 85 39 3e
       -0.06378547 -0.58048254 0.1741121 0.18117322
000170 96 cf c1 be 04 09 b9 3e 50 dc b8 bc 31 75 0e 3d
       -0.37853688 0.3613969 -0.02256599 0.03477973
000180 05 ab 6f be df 3d bb be 6c ca 34 3e 46 3f 0f be
       -0.23405083 -0.3657064 0.17655343 -0.1398898
000190 d2 58 67 bd 68 5d c5 3e 6f 5e a4 3c 71 21 4e 3e
       -0.05648119 0.38547826 0.02006456 0.20129944
0001a0 c6 01 65 3e 55 26 09 be 5a 2a e1 3e 43 ca 45 3e
       0.22363958 -0.13393529 0.43977624 0.19315438
0001b0 bb f7 d8 bd 06 5a e3 bd 12 a9 57 be d2 56 00 be
       -0.10594126 -0.11101155 -0.21060589 -0.1253312
0001c0 3a 8c 87 3d 57 84 bf bd 22 63 fc 3e fd 95 fe bd
       0.06618543 -0.09351414 0.49294382 -0.12430952
0001d0 fa 4f 59 3e 47 f3 e2 3c 47 34 04 3c 5a a3 9a bd
       0.21221915 0.027703894 0.0080691045 -0.07550688
0001e0 b4 f2 8c 3d 26 0b ba 3e a3 82 60 3d 10 6b fc bd
       0.068822294 0.3633663 0.054812085 -0.12325108
0001f0 01 6c 24 3d 32 9a 56 bd ed 72 44 be 7f 72 26 be
       0.040142063 -0.052393146 -0.19184466 -0.16254614
000200 e4 d3 eb be 5e 4c 82 3d 70 7e 9c be 2b ec 3f 3e
       -0.46060097 0.06362222 -0.30565214 0.18742435
000210 ac 0d b9 3e 1b 88 1d be 94 4c 24 3e 3e ab fc bc
       0.36143243 -0.15383951 0.16044837 -0.030843373
000220 14 58 f0 bc 31 50 79 be f5 ac 22 bd da b5 3c be
       -0.029338874 -0.24346997 -0.039715726 -0.18428746
000230 32 9e 0a be 82 77 ce 3d 45 71 e9 be b9 2a fc bd
       -0.13536909 0.10081388 -0.4559423 -0.12312836
000240 c1 28 5b 3d 49 68 6f be 2a 65 67 bd f5 70 9e 3c
       0.053505663 -0.23379625 -0.056492962 0.019340971
000250 2a 53 a2 3d a8 6a 26 3e 4a a3 81 3e 52 90 3b 3e
       0.079260185 0.16251624 0.25319892 0.18316773
000260 78 b8 a4 3d 1d ec cf 3e e3 56 43 3e f2 45 f7 3e
       0.08042997 0.40609828 0.19076113 0.48295552
000270 39 0a 2b 3e 32 a3 f1 3e a8 ed 99 3d 8a f1 bb 3e
       0.16703118 0.4719482 0.075160325 0.36707717
000280 21 7d b4 3d bb 22 01 3f d3 de 9a be 81 84 17 bd
       0.08812929 0.5044362 -0.30248126 -0.0369916
000290 88 c0 34 be 03 6c 19 be 98 78 ad be 90 6b 93 3d
       -0.1765157 -0.1498261 -0.33881068 0.0719825
0002a0 65 a4 d4 be f1 76 a4 3d 1e a9 27 bf 77 5e 02 3f
       -0.41531673 0.08030499 -0.6549243 0.5092539
0002b0 ba 43 9c be dd 58 16 3e 06 08 33 3d 92 c6 3e 3e
       -0.3052042 0.14682336 0.043708824 0.18630436
0002c0 3a eb a6 3d 98 98 68 bd e9 d5 37 3f 29 7a f1 3d
       0.08150335 -0.05678615 0.71810776 0.11790878
0002d0 ff 0c 91 3d 46 ff f5 3d ed 10 53 be 3c 99 20 be
       0.07082557 0.1201158 -0.20611925 -0.15683454
0002e0 32 50 40 3e 89 91 9e be 2c e7 d4 be e5 e3 a4 3d
       0.18780592 -0.3097041 -0.4158262 0.0805128
0002f0 db 06 a8 be 24 41 96 be f1 48 57 3e 5d 52 5b 3e
       -0.3281773 -0.29346573 0.21023919 0.21418138
000300 c3 ec 9b 3d 73 13 35 be 51 f9 16 3d da d9 b0 be
       0.07613518 -0.176832 0.03685886 -0.34541208
000310 63 40 16 3e 68 4a 53 be 3e 2c f3 bc 01 af 26 3e
       0.14672999 -0.20633852 -0.029684182 0.16277696
000320 d6 45 4b 3e 70 d5 69 3e d0 47 6b 3d 05 00 92 3e
       0.19850859 0.22835326 0.057441533 0.2851564
000330 6a 7b 9e 3e 02 97 3f 3e 7a dc bc 3d d2 b3 00 bd
       0.30953532 0.18709949 0.0922174 -0.03142149
000340 d9 a4 10 be 92 b0 57 3e ae 41 85 3e 44 39 e8 bb
       -0.14125384 0.2106345 0.26026672 -0.0070869047
000350 e7 15 03 be e1 98 09 3e cd 6c 82 be 93 07 41 bd
       -0.12801324 0.13437225 -0.25473633 -0.047126364
000360 41 ff 20 be b1 8f 93 be 54 75 51 bd 44 11 42 3e
       -0.15722372 -0.28820565 -0.051137283 0.18951899
000370 9a 93 34 3c 89 3b b5 3e d9 5e 1f be f0 78 b8 3e
       0.011021519 0.35396984 -0.15563525 0.36029768
000380 d5 94 4a 3e e0 64 3a be 3a 8d 04 3e bb 56 a3 3c
       0.19783337 -0.18202543 0.12944499 0.019938817
000390 4e 11 d2 be fc 51 6c 3c e8 88 08 be db 68 dc 3e
       -0.41028827 0.0144238435 -0.13333476 0.43048748
0003a0 f9 58 24 3e 05 2d 5d 3e f9 f7 b3 3d cf 9a 16 3c
       0.16049565 0.21599205 0.087875314 0.009192183
0003b0 b0 80 85 3d 05 28 16 3c 26 24 9e 3e 51 9f b2 bd
       0.06518686 0.009164815 0.30886954 -0.087217934
0003c0 a4 7d 6c bd 15 19 60 bd c2 ce bf 3e 4b e3 39 3e
       -0.057737008 -0.05471142 0.3746243 0.18153112
0003d0 1a e5 28 be 70 3d 73 3e 6e 07 83 bd c9 e3 64 3e
       -0.16493645 0.23753905 -0.063979015 0.22352518
0003e0 8e 1d 22 be 62 fc d7 3d 08 8a af 3e 96 1d ca bd
       -0.15831587 0.10546185 0.34284997 -0.09868924
0003f0 99 b4 4e be c8 5b 40 be ac a9 d7 3d 61 f6 15 3d
       -0.2018608 -0.18785012 0.10530409 0.03661192

actor.0.bias f4 [64]
000000 4f ae b5 3e 58 ac b8 be 90 15 3d bc a2 7b 7e bd
       0.3548455 -0.36068988 -0.011540785 -0.062129624
000010 7d 7d 5a bd d2 a9 0a be 31 f2 25 be 83 ce 0e 3e
       -0.05334233 -0.13541344 -0.1620567 0.13945965
000020 5a 21 49 3e 26 b5 3e be 1c f4 e8 bd 5d 7a 1e 3e
       0.19641629 -0.1862379 -0.11374685 0.15476365
000030 ca 6b 05 3d 3e e2 fd bc d7 e3 ae 3d a3 00 35 be
       0.0325735 -0.03099167 0.08539551 -0.17676024
000040 8c 9c c9 3d 8b 80 cc 3e ce e8 83 be 0d 18 13 3e
       0.09844312 0.3994182 -0.25763553 0.14364643
000050 35 1e e8 bc d0 f2 47 be ef 70 e9 3d 27 0d a4 3b
       -0.028334716 -0.1952622 0.113984935 0.0050064507
000060 69 fa 16 3d 68 29 3c 3c ca 3c 3d bb 6c c6 f1 3c
       0.036859903 0.011484481 -0.0028875344 0.02951356
000070 2d 29 67 be ae 0a 20 3d d3 f9 dd 3d 39 05 c7 3d
       -0.22574301 0.039072685 0.10838666 0.09717793
000080 4c 63 ea bb 34 a7 7a bd bd ca 7e 3e 04 38 c3 bd
       -0.0071529504 -0.061194614 0.24882026 -0.095321685
000090 c8 12 40 bd 75 5f 85 3d 79 fe 72 bb d4 7b 5e bc
       -0.04689291 0.065123476 -0.0037077947 -0.013579328
0000a0 c1 81 ca 3c 78 d7 0f 3e 72 b9 ef bd af 47 05 3e
       0.024720075 0.14047039 -0.11705293 0.13015626
0000b0 8b 49 29 3c 22 fe 42 3e a2 36 13 bc af 20 66 be
       0.010332475 0.19042256 -0.008985193 -0.22473405
0000c0 17 c2 a4 3d ab de 9e 3d 23 b2 15 bd b2 37 ba bc
       0.08044832 0.07757314 -0.036546838 -0.022731636
0000d0 7c fb 82 3d 14 a5 6a 3d 45 18 94 be 9b c0 ad bd
       0.06395623 0.057286337 -0.28924766 -0.08484002
0000e0 a6 6a a6 3e bb 14 eb 3d c7 e2 57 3e b1 d6 c4 bd
       0.3250324 0.114785634 0.21082602 -0.09611262
0000f0 24 ba 7c 3c ac 62 02 3d c8 42 cc 3d b0 f2 31 3d
       0.015425239 0.031832382 0.09973675 0.043444335

actor.2.weight f4 [16, 64]
000000 4a 4b 20 be 89 b5 90 3e f8 82 ed bc 5f ea f0 bd
       -0.1565372 0.282635 -0.028993115 -0.11763453
000010 6a 2e 03 3e 09 fe 26 bd e7 bf 05 3d 96 3a ee 3d
       0.12810674 -0.04076961 0.032653715 0.11632268
000020 5c 72 8f bd 4c f8 11 3e 8f 7f de 3d de 97 64 bd
       -0.07004234 0.14254874 0.108641736 -0.055808894
000030 38 a4 ad 3e 00 f2 3c 3d 5c a2 32 3e 9e f1 12 3f
       0.3391435 0.046129227 0.17444748 0.5739993
000040 db d1 ed 3d 72 8e 33 be eb 99 f2 3c dd 9d a1 be
       0.116122924 -0.17534807 0.02961441 -0.31565753
000050 f2 7a 01 3d 34 24 3c 3d 19 9d 43 be b0 0b f4 3d
       0.03161139 0.045932963 -0.19102897 0.11916292
000060 3a 36 c7 be 9a 7a 2b be 49 47 0b 3e 56 22 f7 bd
       -0.3890856 -0.16745988 0.13601412 -0.12067096
000070 6b 15 0b 3e 9e c6 7e 3e ba 5e 22 3d 29 dd 02 3e
       0.13582389 0.24880454 0.03964112 0.12779678
000080 ae 0b 1b be e4 64 8d bd 52 37 c1 3d 4a 6e d6 3d
       -0.15141174 -0.06904009 0.0943438 0.10470255
000090 93 0c 83 be 91 31 2c bd 9f 8b 88 3e 47 fa 81 3c
       -0.2559553 -0.042039458 0.26669022 0.015866412
0000a0 7f 8d a1 3d 33 89 98 3e f8 29 a7 be b0 ff 80 3e
       0.07888316 0.29792175 -0.32649207 0.25195074
0000b0 38 93 07 3e 67 69 f2 bd b2 ed b7 3e ff 56 c0 3d
       0.13239753 -0.1183651 0.35923535 0.09391593
0000c0 e9 73 6d be 32 e3 ac be 6b 44 64 bd 11 1d e4 3d
       -0.23188747 -0.33767086 -0.05572931 0.111383565
0000d0 d7 1a 4c be 96 a3 8a be dd b3 9f bb 33 b6 b3 3e
       -0.19932114 -0.2707793 -0.0048737363 0.35099944
0000e0 42 8c a6 be 53 02 83 be d8 65 60 bd c4 ba 77 be
       -0.32528883 -0.2558771 -0.054784626 -0.24192339
0000f0 44 43 80 bd 3a 45 80 be aa f6 cf bd 11 4d 55 3e
       -0.0626283 -0.25052816 -0.10154469 0.2083018
000100 46 2a 10 bc de 01 95 3c cf 1a 8f 3e 24 b8 b0 bd
       -0.008799141 0.018189367 0.2795014 -0.08628872
000110 7b 50 c4 3c 77 da 8d 3e f2 f9 1d be 22 7d 76 be
       0.023964157 0.27705738 -0.15427378 -0.24071172
000120 23 3a 16 3e fb 4c 27 3f 4b 2b 39 be 5d 3a 14 3e
       0.14670615 0.6535184 -0.18082921 0.14475389
000130 f9 6c 9c be 84 59 42 be e5 a3 ac be 1e 33 16 bc
       -0.3055189 -0.1897946 -0.33718792 -0.009167461
000140 25 6f cf bc 5b 22 3d 3d 3a f1 c0 3c ac b1 90 3d
       -0.025321553 0.046175342 0.023552526 0.07065138
000150 01 03 25 3e 24 43 32 3e c8 13 c2 be 70 a4 33 be
       0.16114427 0.17408425 -0.37905717 -0.17543197
000160 f1 d6 0d 3e 38 16 8a be b6 a2 41 ba 3c 0d 92 3b
       0.13851525 -0.26970077 -0.00073866115 0.004457144
000170 b2 15 52 3e 0f 39 8e be 0d b0 0e bc a4 f7 6d 3d
       0.20516089 -0.27777907 -0.008708966 0.058097497
000180 d3 15 b8 bd 1b 96 33 be 20 e8 37 be 4e 5c 0e 3e
       -0.08988538 -0.1753773 -0.17959642 0.13902399
000190 21 b4 8a 3d 5e a8 06 be 94 a9 71 3d 87 50 25 bd
       0.06772638 -0.13150164 0.058999613 -0.04036
0001a0 f3 1e a5 be 16 73 02 3d b9 05 18 be 17 48 e4 3c
       -0.32250175 0.031848036 -0.14845933 0.027866406
0001b0 b1 89 45 3d de a3 e9 bd 98 bd 72 bd 0a 06 bf 3d
       0.048227016 -0.11408208 -0.059262842 0.09327324
0001c0 aa de 4d 3e 8d 0c 83 3e 3a eb 06 3e 48 91 28 bd
       0.20104471 0.25595513 0.1317567 -0.041154176
0001d0 c5 33 29 3e 8a 5c 83 be a6 97 3a 3e 4a 52 47 bd
       0.16523655 -0.2565654 0.18221912 -0.04866246
0001e0 e5 ed c5 bd 6c 66 e6 bd 75 3a 1b be 38 f4 7b be
       -0.096645154 -0.11250004 -0.15159018 -0.24604881
0001f0 e0 bf 90 3e 86 84 2a 3e 4f 82 b2 3e 6b ea c9 3d
       0.2827139 0.16652116 0.34865043 0.09859165
000200 25 16 11 be 22 d1 af bd bf c3 51 3e 00 8d 97 bd
       -0.14168604 -0.08584811 0.20484827 -0.073999405
000210 0d 59 19 be ec 4f a7 be 62 98 43 be 16 4f 0b bd
       -0.14975376 -0.32678163 -0.19101098 -0.03401097
000220 3e eb 72 be 47 f2 7d be 99 f4 88 3b 16 c6 3b 3b
       -0.2372255 -0.24799453 0.004179549 0.0028652004
000230 4b 57 4f 3d d2 2f 15 bd cf 2f ab 3e 09 18 ff 3d
       0.05062036 -0.036422558 0.33434913 0.12455756
000240 ca df 6a 3e bc 42 bf 3d 85 e1 df 3d 50 d0 60 bc
       0.22936931 0.093389004 0.10931686 -0.013721541
000250 6c 7c 4c be 19 d2 49 be 78 82 1c 3e d2 00 15 3e
       -0.19969338 -0.19709052 0.15284145 0.14551094
000260 fd 4b 15 be 81 b9 1c 3e ac fe 85 be c1 88 d3 bd
       -0.14579768 0.15305139 -0.26170862 -0.10328818
000270 2c c8 cf bd e9 a3 69 3e 29 7e 8e bd 63 d6 b1 3e
       -0.10145602 0.22816433 -0.06957657 0.34733877
000280 b8 34 4a be 3a b0 72 be ff 3e d8 bc 69 21 b1 bd
       -0.19746673 -0.23700038 -0.026397226 -0.086489506
000290 64 8d 55 be 2b a5 c8 3e a4 fa ac ba 7d 30 60 3e
       -0.20854717 0.39188513 -0.0013197255 0.21893497
0002a0 ff 3a 9c 3e 0e ce 4c be 91 6f ab be 7e 17 4e 3d
       0.3051376 -0.20000479 -0.33483556 0.050315373
0002b0 f8 ad b0 be 30 c6 83 3e dc 94 ae bc 1b 97 9f bd
       -0.34507728 0.25737143 -0.021311216 -0.07792493
0002c0 3d 28 80 3e 5a a8 95 3e 01 fb 1a be ad c7 ff 3c
       0.250307 0.29230005 -0.15134813 0.031223143
0002d0 00 58 30 3e 5f b7 17 3e 77 5e 67 3c 5d 53 d6 3d
       0.1722107 0.14816044 0.014121643 0.10465119
0002e0 1b 67 a0 bc 6e 43 8e 3e 21 99 ad 3e 42 93 1a bf
       -0.019580415 0.2778582 0.3390589 -0.6038095
0002f0 48 87 84 3d 4d 72 c2 3d d6 1d 8f 3e bb c3 98 3d
       0.06471115 0.094944574 0.2795245 0.074592076
000300 79 c2 df be c7 40 02 3f 8e f1 ac 3e 03 ab 68 3e
       -0.43703058 0.5088009 0.33778042 0.22721486
000310 6e e6 8f bc ba f5 9a 3d c5 ff 88 3e a5 6a 81 be
       -0.017565932 0.075664 0.26757637 -0.25276676
000320 64 2a b4 3c 44 25 94 3e 7a cb ba 3e 3d 36 f6 be
       0.02199287 0.2893468 0.36483365 -0.48088256
000330 36 f4 83 be 8b 4d 94 bd b1 d7 9a 3d d7 e7 b0 3e
       -0.25772256 -0.07241353 0.07560671 0.3455188
000340 4e b1 ad be 57 3a 95 be 32 ea ac 3e f5 c2 2c be
       -0.33924335 -0.29146072 0.33772427 -0.16871245
000350 67 c9 85 3e e0 2b 29 3e d6 4c 34 be 37 29 82 be
       0.2613022 0.16520643 -0.17607436 -0.2542207
000360 cc fb 17 bd db de f5 3c e7 a5 a3 bd 5d 16 d9 bd
       -0.037105367 0.030013492 -0.07990628 -0.105999686
000370 1a ea 29 3f 54 f1 8d 3e 03 f8 e8 be 1a 48 bc be
       0.66372836 0.2772318 -0.45501718 -0.3677376
000380 ad 6d ea 3e 00 0e d7 3d 4f c1 22 be 0f 77 65 3e
       0.457868 0.10500717 -0.15894054 0.22408698
000390 b7 54 8a 3d 38 82 6f bd 39 e8 50 3c a4 f4 f5 3e
       0.06754439 -0.058473796 0.012750679 0.48038208
0003a0 b9 1b fc 3c b0 cc b6 be e9 96 f2 3d 57 22 0f be
       0.030774938 -0.3570304 0.1184519 -0.13977943
0003b0 bd 53 03 bd c2 b2 a9 be 25 52 da bd 61 4a fb 3d
       -0.03206228 -0.33144194 -0.10660199 0.12270046
0003c0 f5 40 07 bd 90 5c e1 be d5 9d 86 3e 1c d1 9b 3e
       -0.033020932 -0.44015932 0.2629229 0.30432975
0003d0 f7 55 1c be d8 b1 ee 3e 34 e4 c7 3e c8 ce 11 3f
       -0.15267168 0.4662006 0.39041293 0.5695615
0003e0 e8 81 27 bf 0b b5 00 bf 74 a5 58 bf aa d1 4d 3e
       -0.65432596 -0.5027625 -0.8462746 0.20099512
0003f0 92 c2 b3 3e cb ca a9 bc b5 c9 52 be ab 92 51 3d
       0.35109383 -0.020726582 -0.20584758 0.051165264

actor.2.bias f4 [16]
000000 f0 6e c6 bd 31 b2 1a bc b5 cb 93 3d 7a 89 95 be
       -0.096891284 -0.009441898 0.072165884 -0.2920645
000010 95 6e 7f bd 7c f5 16 3e 25 c8 90 3e 72 f2 2d be
       -0.06236132 0.14742082 0.28277698 -0.16987017
000020 69 a4 ea bb cc bc bd be e0 ba 27 3e eb b6 0e 3d
       -0.0071607125 -0.37058103 0.16379881 0.034842413
000030 12 65 a1 3d 31 70 14 3d 17 10 2f be 5c 9f 33 3e
       0.07880606 0.036239807 -0.17095982 0.1754126

actor.4.weight f4 [32, 16]
000000 24 c7 e1 3c 3f 2a 81 3e d6 70 b0 be d3 55 14 3f
       0.027560778 0.25227544 -0.34461087 0.5794346
000010 07 12 d1 bd 27 5d 45 be dd 28 02 bf 20 5a 2c 3d
       -0.102085166 -0.19273816 -0.508436 0.042078137
000020 2f bf 92 bd b8 e5 3e 3f 5e 30 de 3e cb 50 60 be
       -0.071653716 0.74569273 0.43396276 -0.2190582
000030 4b f5 ff bd 3c 5d 8f bd ee 4a d4 3e b7 97 b9 3d
       -0.12497958 -0.07000205 0.41463417 0.090621404
000040 ed 0e 0d be f1 d0 c3 3d 82 96 98 3e 86 a4 e2 be
       -0.13775225 0.09561337 0.29802328 -0.44266146
000050 aa a9 ce be 21 bd 9e 3d bc eb 51 3e 42 d7 05 bf
       -0.40363818 0.07750917 0.20500082 -0.5228158
000060 ff 56 e4 3e 86 cc 50 be f0 1c 11 3e c8 19 5e be
       0.44597623 -0.2039052 0.14171195 -0.21689522
000070 1f e5 62 be 63 88 b0 3e 2a 04 2e 3e 91 c4 00 bd
       -0.22157715 0.34479055 0.16993776 -0.03143746
000080 55 fa ad bd 6d 2d c7 be b0 15 52 be 41 ce ce be
       -0.08495013 -0.38901845 -0.20516086 -0.40391734
000090 02 68 17 3c 86 97 9a 3e e4 8a be 3e 22 a1 6f be
       0.009241106 0.30193728 0.3721534 -0.23401311
0000a0 2d eb 78 be 9c cb f2 be 98 62 1f 3f 8e c2 01 3e
       -0.24308462 -0.47420967 0.6225982 0.12671873
0000b0 37 a8 68 3e 27 70 60 3c bb ae 16 3e 60 94 1b bb
       0.22720419 0.013698614 0.14715092 -0.0023739561
0000c0 9b 86 e7 bd 1d 52 3c be 4b 8d 1c be f1 b7 90 be
       -0.11304971 -0.18390699 -0.15288274 -0.28265336
0000d0 f7 bd 1c bd 7d b7 e5 3e e9 8a ad 3e 56 2c 97 be
       -0.038267102 0.44866553 0.33895043 -0.29526013
0000e0 27 0e e5 3e 39 dc 44 3e e4 f1 0c bd 20 d4 c7 3b
       0.4473736 0.19224633 -0.034410372 0.0060982853
0000f0 a6 ba b5 3e 12 cf 63 3e 63 07 a1 be c7 87 03 3e
       0.35493964 0.2224696 -0.31450948 0.12844764
000100 54 15 ec be 78 6c ca 3d 4b 54 38 bc 68 ed 84 be
       -0.46110022 0.0988397 -0.011250566 -0.25962377
000110 96 0d af be 82 70 cf be 32 5f 01 bf 7e 3a b8 3e
       -0.34190053 -0.40515524 -0.5053588 0.35982126
000120 e8 6d ae 3e 65 95 d1 3e f2 1f 9c be e1 be b0 3e
       0.34068227 0.4093429 -0.30493122 0.3452063
000130 15 d3 57 3e 08 9e 9f be 09 04 67 bd 8b 2c 81 3c
       0.21076615 -0.31175256 -0.056400333 0.01576831
000140 c4 72 0e bd 6c 03 63 3e 17 58 29 be e4 28 a8 be
       -0.034777418 0.22169274 -0.1653751 -0.32843697
000150 ac 69 e0 bd 49 24 56 bd 87 fe 08 bc 08 a3 9c 3e
       -0.10957655 -0.052280698 -0.008361465 0.30593133
000160 db 55 03 be 03 ae 8a 3e dc ef a8 bd 00 7f 91 3d
       -0.1282572 0.27085885 -0.082488745 0.071043015
000170 ec 03 c0 3b b5 45 d2 3e 48 b4 94 bb 1f 0b a2 be
       0.0058598425 0.41068807 -0.0045380928 -0.3164911
000180 ae 81 3e be ab 02 d3 be 3b 37 a2 3e 78 ca 86 be
       -0.18604156 -0.41212973 0.31682763 -0.26326346
000190 69 d1 29 bc f2 c7 b2 3d 7b 09 35 3d d1 44 0b bf
       -0.010364869 0.08729543 0.044198494 -0.5440188
0001a0 5e 24 48 3d a3 cb 13 bb f8 96 32 be 9f 99 4f 3f
       0.048862807 -0.0022551797 -0.17440403 0.8109378
0001b0 82 3e 36 bc fe 97 bd 3e 4f 56 56 3d 58 57 22 bc
       -0.011123301 0.37030023 0.052328404 -0.00990852
0001c0 1b 0c ad be 71 2b 2d be 91 44 45 bd 36 f4 26 bf
       -0.33798298 -0.16911103 -0.048161093 -0.65216386
0001d0 ad 41 1e bf 14 9f 96 3e ee be 3f be 8e 27 c7 be
       -0.61818963 0.29418242 -0.18725178 -0.38897365
0001e0 78 95 96 be d6 8e 4b bf 43 be e3 3e 64 3a 3e bc
       -0.2941091 -0.79514825 0.44481096 -0.011610601
0001f0 9c 9b 9a 3d f0 55 0b 3f 59 9f 83 be 77 2d 87 be
       0.075492114 0.54428005 -0.2570751 -0.26401874
000200 b4 c6 39 3d 83 c8 d7 be cc 06 f4 be 25 b7 2c be
       0.045355514 -0.42145166 -0.47661436 -0.16866739
000210 0c 67 6e be 69 9b 1c 3f 50 4f 21 3e ed ff 02 3e
       -0.23281497 0.6117464 0.15752912 0.1279294
000220 af 03 01 bd 65 f8 c5 ba 00 2c 90 be 8c 09 53 be
       -0.031497654 -0.0015103935 -0.2815857 -0.2060911
000230 94 50 eb bd 23 35 ba bd 6c f3 09 3f 5c c7 9c 3e
       -0.114899784 -0.09092166 0.5388706 0.3062085
000240 b8 5e 7e bd d7 ee cb be 10 c7 4b 3b a1 34 5b 3d
       -0.06210205 -0.39830658 0.0031093992 0.053516988
000250 c4 b5 8f bd fc 01 2a be d1 75 30 be 09 35 96 3e
       -0.07017091 -0.1660232 -0.17232443 0.29337338
000260 bd d4 03 3f a2 3b 37 3e cc 66 f8 3e 62 9d ad bd
       0.5149649 0.17893842 0.48515928 -0.08477284
000270 48 d3 8f bd b8 9a a4 be 8c 3d f1 3c 97 96 0b be
       -0.070227206 -0.3214929 0.029448293 -0.13631664
000280 02 3a 01 bf 21 fa d5 3d c9 fa a6 3e 32 ca a7 be
       -0.5047914 0.10448099 0.3261321 -0.3277145
000290 82 da b8 3b 7f 76 bf 3e 35 e1 26 3f 98 8d bf be
       0.0056412825 0.37395093 0.6518739 -0.37412715
0002a0 e1 45 04 3e 44 29 a5 bd 18 9b 34 3e 49 5f ac be
       0.12917282 -0.080645114 0.17637289 -0.33666447
0002b0 ef 5f b3 3e a0 70 d0 3e 4e f2 b8 3d d8 df 80 3e
       0.3503413 0.40710926 0.09030591 0.2517078
0002c0 54 dd fe bc ca 93 09 3e 2b 1f f0 3d d3 c9 ad bd
       -0.031111397 0.13435283 0.11724695 -0.084857605
0002d0 91 d8 e1 3e a2 cb c6 3c 20 37 0c be ef aa e1 be
       0.4411054 0.024267022 -0.13692904 -0.44075724
0002e0 6b da 44 3e 12 2b 0f 3e 3d 89 c5 3c 07 d3 c5 3e
       0.19223945 0.13981274 0.024113292 0.38637564
0002f0 9f e2 64 be 4a eb 5a 3e eb 80 63 be f9 c9 06 3e
       -0.22352074 0.21378818 -0.22217147 0.13162984
000300 12 88 14 bf 7e e7 d6 3c 02 42 8b be 0a 13 92 3e
       -0.58020127 0.026233431 -0.27198797 0.2853015
000310 22 36 bf 3e b1 f6 9e be d2 19 4d 3e 8b 12 02 be
       0.37345988 -0.31047586 0.20029381 -0.12702386
000320 8f 7a e6 3d 14 79 ed 3d c5 72 26 be a2 aa 31 3d
       0.11253845 0.115953594 -0.16254719 0.04337562
000330 97 ba 47 be d5 6c c3 be 5a 5c 95 3d f4 d7 fa be
       -0.19504772 -0.3816897 0.07293005 -0.48992884
000340 df c4 8e 3d c4 1d fd 3e 23 f0 fc bd 82 32 4b 3d
       0.06971144 0.49436772 -0.1235049 0.049608715
000350 19 4d d0 3e e1 40 1f bf 6a d2 89 3c d3 49 59 3e
       0.4068382 -0.6220837 0.016823966 0.21219568
000360 7c c5 1e 3e 57 f7 6c 3d 41 e6 6d 3d 66 01 2a be
       0.15505022 0.05785307 0.058080915 -0.16602096
000370 67 f8 c9 3d 7e 2c b8 be 5c fd 25 3f 37 76 e1 bd
       0.09861832 -0.35971445 0.6483972 -0.11008876
000380 73 08 34 be 76 c7 f5 3d 2a 23 85 be ba d2 da bd
       -0.17581348 0.12000935 -0.2600339 -0.10684724
000390 f6 93 32 3e 0d b0 16 3e 79 e1 74 be d5 98 2b 3e
       0.17439255 0.14715596 -0.23914136 0.1675752
0003a0 74 92 4c 3e df dd 05 be 37 a5 5c 3d c6 6d bd be
       0.19977742 -0.13072918 0.0538685 -0.36997813
0003b0 74 77 1f be 59 01 73 3e 64 f1 b9 be 1e e2 50 3e
       -0.15572912 0.23730983 -0.3631698 0.20398757
0003c0 6f 35 99 bd e3 90 d3 be fc 54 34 3e 9d 65 a1 3d
       -0.07480895 -0.41321477 0.17610544 0.07880709
0003d0 0c af 16 3e 02 18 8c be 47 00 56 bd bc 67 77 3d
       0.14715213 -0.27362067 -0.05224636 0.060401663
0003e0 52 ec c5 be 9b d1 08 3b d1 c9 c0 be 32 18 c3 be
       -0.3865686 0.0020876888 -0.37653974 -0.38104397
0003f0 1c 1a 1f be 8f d4 2b be 00 9b 5c be 77 7b 61 3e
       -0.15537304 -0.16780303 -0.21543503 0.22019754

actor.4.bias f4 [32]
000000 1c 32 1d be 3f 20 57 3d ce e7 46 3e 8f de fc 3d
       -0.15351146 0.052520987 0.19424364 0.12347137
000010 92 77 3e 3b 31 b0 72 bd 23 22 a9 3d 19 d6 7f 3e
       0.0029062969 -0.05925006 0.08258464 0.24984016
000020 e9 9d 3e bc f6 d4 8b bd 61 0f 11 3e 40 c0 ec 3d
       -0.011634328 -0.068277285 0.14166023 0.11560106
000030 98 3f 44 bd eb 18 0f be bb 7a 88 3b 6d 72 7a bd
       -0.04791221 -0.13974349 0.0041650212 -0.06114428
000040 3b 64 b3 3c c8 8c d0 3d 5a b8 5d bd 94 6f 14 be
       0.02189838 0.10183102 -0.05413089 -0.14495689
000050 de 50 a4 bd 5b 64 e1 bd 3c a8 1d 3d 36 85 a6 3c
       -0.08023237 -0.110054694 0.03849052 0.020327192
000060 65 62 17 3e 7b a2 20 bd cc 01 32 be 8f 77 10 3c
       0.14783628 -0.039217453 -0.17383498 0.0088175675
000070 bf cb 01 be d9 4b 8f 3d 59 b8 b8 bd 0f 89 f4 bd
       -0.12675379 0.06996889 -0.090195365 -0.11940204
