ckpts/ppo_nu.pt (torch, 22652 bytes, 16 tensors)

log_std f4 [1, 5]
000000 00 00 00 00 00 00 00 00 00 00 00 00 00 00 00 00
       0.0 0.0 0.0 0.0
000010 00 00 00 00
       0.0

critic.0.weight f4 [64, 6]
000000 b5 d2 0f be 57 f2 40 be 3c 6f ab bd 5c 12 0f bd
       -0.14045222 -0.18842445 -0.08370826 -0.03492962
000010 d8 e4 8a be a1 ab 18 be 59 0b 86 bd ee 86 6f bd
       -0.2712772 -0.14909221 -0.06545133 -0.05847829
000020 95 d6 31 3e 71 27 34 3e f5 88 17 be 8b b0 80 3e
       0.17367013 0.1759317 -0.14798339 0.25134692
000030 12 9e 89 be 60 59 48 be f2 7f 89 be 3f 4a 15 be
       -0.2687841 -0.19565344 -0.26855427 -0.14579104
000040 e0 ac 90 be 7a fd 69 be d2 ce 58 be 84 87 41 be
       -0.28256893 -0.228506 -0.21172646 -0.18899351
000050 60 91 17 bd 97 a5 e6 3c 9e 02 c4 bd 68 af e8 bd
       -0.037003875 0.028155131 -0.09570812 -0.11361581
000060 53 9e a8 bd 3f 02 f6 be 27 a0 ae be b2 00 cc be
       -0.08233323 -0.4804859 -0.34106562 -0.3984428
000070 40 44 28 be 21 06 82 be f4 6e f3 3c d1 28 32 3e
       -0.16432285 -0.253953 0.029715993 0.17398383
000080 0f 5d 82 3e 75 44 88 bd b7 ec 85 3d 13 88 80 3d
       0.25461623 -0.06653682 0.065392904 0.06275954
000090 d9 e6 81 bd b7 f9 a5 be fb e0 63 3d 75 f6 0f be
       -0.06342859 -0.3241708 0.05563448 -0.1405886
0000a0 9d 18 9a bd 42 a4 49 be d4 1a 91 3d dd a8 05 3f
       -0.07524226 -0.19691566 0.07085195 0.5221079
0000b0 d5 0c 80 3e 93 70 ab 3e ff f1 55 be b2 92 2e 3d
       0.2500979 0.33484325 -0.20893095 0.04262037
0000c0 ff 6e 97 3d cb 3f 64 3e 06 c2 0a 3e 4b 2f 83 bd
       0.07394218 0.2228996 0.13550577 -0.06405505
0000d0 89 5d 69 be 0a 3b f8 bd 27 73 a1 bb 4d 30 78 3e
       -0.22789587 -0.12120636 -0.0049270573 0.24237175
0000e0 b6 6f 67 3d fb 90 b2 3e 95 64 89 bb 70 85 05 3e
       0.05650302 0.34876236 -0.0041928985 0.13039184
0000f0 be cb 88 be ab b8 ca bd 96 2c 35 3c 3f 93 b5 be
       -0.26717943 -0.09898504 0.011057993 -0.35463902
000100 02 db 72 be 1e 7c 7d 3e 85 d9 a4 3e 0d f9 b7 3d
       -0.23716357 0.24754378 0.32197204 0.089830495
000110 c2 84 da 3d cb 18 18 be 88 21 5d be 43 12 d8 3d
       0.10669853 -0.14853208 -0.21594822 0.10550358
000120 59 9f 32 3c 92 4a d6 bb 82 9c 91 3e 96 ef 1b 3e
       0.010902249 -0.006539651 0.28439718 0.15228114
000130 44 5e 13 3e c1 99 58 3d 72 15 4c be 51 e6 c3 be
       0.14391428 0.052881006 -0.19930056 -0.38261655
000140 f8 9a 2a bd 8e c8 7f 3d e1 8c a9 be ce 35 6d be
       -0.041651696 0.062447123 -0.33115295 -0.23165056
000150 81 09 3e 3e 54 b5 06 be c4 d7 2e be 5c dc d9 3c
       0.18558313 -0.13155109 -0.17074496 0.026594333
000160 db 93 5c bc 26 7c 17 3e ef 58 b8 be 90 b1 c1 be
       -0.013462986 0.14793453 -0.3600535 -0.37830782
000170 84 86 5f be 2b e6 2c be 77 ee 0c be de 8e 99 be
       -0.21828657 -0.16884677 -0.13762842 -0.29991812
000180 7c 02 00 3f 6b 45 35 be 7d 08 83 3d 39 d0 31 3e
       0.5000379 -0.17702262 0.063981034 0.17364587
000190 ea 23 9d 3e ac c6 e4 3e 03 46 47 be ae 3a 13 3e
       0.30691463 0.44682825 -0.19460301 0.14377853
0001a0 e2 f0 ff 3c c1 ab ab 3e ff 0d 21 3e e4 07 b3 3e
       0.031242792 0.33529475 0.15727995 0.34966958
0001b0 ff 7b f3 3d 55 13 ba 3e fb ab 32 be a0 bd b2 3e
       0.11888885 0.36342874 -0.17448418 0.34910297
0001c0 54 b3 9e 3d bd 52 9c 3e ee fc 95 3d 32 bb 7d bd
       0.07749048 0.30531874 0.07323633 -0.0619461
0001d0 c5 5a 89 be 44 5f 9e 3d 37 5d 5a 3e 56 dc bb 3d
       -0.26827064 0.07733014 0.21324621 0.09172885
0001e0 ea 15 4d bd 26 74 71 be ca 07 44 be 3f 43 74 3d
       -0.050069727 -0.23579463 -0.19143596 0.059634443
0001f0 73 fc af be de 5d 79 be eb 08 cd 3d cb ac 65 bd
       -0.3437229 -0.24352214 0.100114666 -0.05607299
000200 cd f8 3e be ec e9 e4 bd cb cc ab be f6 2b 20 be
       -0.18649597 -0.111774296 -0.33554682 -0.1564177
000210 eb 64 60 3c 83 cd 07 3e 05 a9 8d be f7 ca 39 3e
       0.013695936 0.1326199 -0.27668014 0.18143831
000220 5f b9 28 3d ce a6 d4 bd 2e ed 82 3e 94 69 ea 3d
       0.04119241 -0.10383378 0.2557158 0.11445919
000230 c5 8f a3 3d 25 b1 6d 3d 17 9d 19 ba 86 82 b0 bc
       0.07986406 0.058030266 -0.0005859895 -0.021546613
000240 e5 ab 7b 3c 68 b5 62 be 9b ff bc 3e fe 66 87 3d
       0.015360807 -0.22139513 0.36913761 0.06611441
000250 ac ee fd bd c0 8b 1c 3e 17 ef 7f 3e 9c 2f af ba
       -0.12399039 0.15287685 0.2499355 -0.0013365629
000260 68 83 f7 bd 61 93 6d 3e 74 b1 cd be 61 f5 ec 3d
       -0.12085611 0.23200752 -0.40174448 0.1157024
000270 82 10 8d bd 5a 03 7b 3e ae a0 ff 3e f8 49 57 bb
       -0.06887914 0.24512997 0.49927276 -0.0032850485
000280 78 b4 a6 3e 92 f8 45 be bb ca ed 3c 01 54 aa 3e
       0.32559562 -0.19333103 0.029027333 0.33267215
000290 b4 10 89 3e 05 82 cc bd 1c 3f 9c 3d 75 53 81 3e
       0.26770556 -0.09985737 0.07629225 0.25258985
0002a0 86 a8 87 be bf af f8 bc a4 18 69 3c 03 40 01 bf
       -0.2649576 -0.03035724 0.014227066 -0.504883
0002b0 ad 6b f3 be 67 9b a2 be 3a b4 01 bd 88 8c fc 3d
       -0.47543088 -0.31759188 -0.031666018 0.12331492
0002c0 2b 33 d7 bd eb 2a d1 3e a7 f6 03 be 56 9c a4 be
       -0.105078064 0.40853056 -0.12887059 -0.32150525
0002d0 11 0a 8c bd 8d d4 df bd 57 d9 b5 3e f6 33 50 3e
       -0.068378575 -0.10929213 0.3551738 0.20332322
0002e0 33 90 83 3e fb ab 65 3d 1b 27 e2 bd c0 4c ed bd
       0.25695953 0.056072216 -0.11042615 -0.115869045
0002f0 af 89 25 3e 07 59 8a 3e 73 f1 4d be 35 39 81 be
       0.16165803 0.27021047 -0.20111637 -0.25238958
000300 e1 ea cc 3d 39 d0 86 be 26 b4 26 be d9 67 93 be
       0.10005737 -0.26330736 -0.16279659 -0.28790167
000310 3a 12 c5 bd e6 e6 da bc de 5c 92 3e bd b9 80 3e
       -0.09622617 -0.02672143 0.28586477 0.25141707
000320 30 88 28 3e 26 4d 7d 3e bf 00 6a 3e bb 32 2d be
       0.16458201 0.24736461 0.22851847 -0.16913883
000330 fa c3 1b 3d ad d2 9e bd 21 15 97 be 8a 82 06 bd
       0.038028695 -0.07755027 -0.29508308 -0.032839336
000340 f5 6a ef bd 65 2f b0 3e 08 91 b4 be 22 18 7e be
       -0.11690322 0.3441116 -0.352669 -0.24813893
000350 e5 2d d5 3d c9 56 cc bd 34 b5 57 be e3 62 1e 3d
       0.10409144 -0.099774905 -0.21065217 0.038668524
000360 d0 7d df bd ec 46 82 be 47 49 92 bd 27 4f 02 3e
       -0.10912669 -0.25444734 -0.07142883 0.12725507
000370 bf 0f af 3c 98 ca 20 3e 27 ab 64 bd 25 f6 28 3d
       0.021369813 0.15702283 -0.055827286 0.041250367
000380 e8 93 92 be 43 79 7d be 55 76 bd be 61 05 d0 bd
       -0.2862847 -0.24753289 -0.37004343 -0.10157276
000390 29 3a b5 3e 35 08 ce be 8c 0a 21 be f7 5b dd be
       0.35395935 -0.40240636 -0.1572668 -0.43234226
0003a0 ac d5 47 bd 82 54 8f be 6f 62 1d bd d2 4c 30 3e
       -0.048787758 -0.27994162 -0.03842395 0.17216805
0003b0 b4 37 a2 3e 05 c6 e8 3d 68 05 bd 3e 3d c2 3d 3e
       0.31683123 0.11365894 0.36918187 0.18531127
0003c0 f3 6b 50 3d 8b 27 38 3e ab cc 44 3e bd 89 a1 bd
       0.0508842 0.17983834 0.192187 -0.078875996
0003d0 1c 07 35 3e 05 30 82 bc a6 57 21 3d e0 0a 2c be
       0.17678493 -0.015892038 0.03939023 -0.16801023
0003e0 8e f6 37 3d 0a a4 c6 3d 0e 34 95 3e 68 73 22 3d
       0.044912867 0.09699257 0.29141277 0.03966084
0003f0 cd 51 41 be 02 9c a5 3c 4f f2 7f be 2f 81 ad be
       -0.18878861 0.020215992 -0.24994777 -0.33887622

critic.0.bias f4 [64]
000000 3e d8 d3 bd e4 f9 85 3d 82 4e ce bd 7e 69 bb bd
       -0.10343979 0.065418035 -0.10073568 -0.091509804
000010 52 53 e9 bd 2e 02 ea ba 41 2d c6 bd 60 97 d6 3d
       -0.11392845 -0.0017853433 -0.096766 0.10478091
000020 3f 44 58 3d d0 1a d0 3d bf 05 07 be 39 d0 88 bd
       0.05279946 0.10161364 -0.13185786 -0.0668034
000030 b4 bf d5 3d 6e 0d bd bd 42 8c 9f 3d c8 58 e8 bd
       0.10436955 -0.09231077 0.07790424 -0.11345059
000040 ab ea fa 3d 7a 19 c6 3d 78 0a ef 3d b3 01 35 bc
       0.122517906 0.09672828 0.11671919 -0.011047768
000050 ea 81 cf bd 7b b2 e5 bd 6f 9f c5 3d 48 1f cf bc
       -0.10132201 -0.11215683 0.0964955 -0.02528347
000060 c3 d7 98 3c 0c b1 74 bd 36 3c d4 3d 69 c8 f5 3d
       0.01865757 -0.059739158 0.10363047 0.12001116
000070 bf b9 06 be 1f c0 81 bd dd 50 b2 3d 05 cc c0 bd
       -0.13156794 -0.06335472 0.0870683 -0.09413914
000080 46 8a b6 bd 68 72 e9 3d 5e 46 b5 bd fb 82 e9 bd
       -0.08913092 0.113987744 -0.08851312 -0.11401936
000090 f9 f5 bf 3d f4 e2 98 bd f2 63 d0 bd 84 ad d9 3d
       0.093730874 -0.07465163 -0.10175313 0.106287986
0000a0 6b f3 94 3c 87 ea bc 3d 51 4b c5 bd e4 56 c2 bd
       0.018182477 0.0922442 -0.09633506 -0.09489229
0000b0 7b ee 76 3d c6 05 ea bd 34 ed cf 3d 09 77 0a be
       0.060286026 -0.114268824 0.10152665 -0.13521971
0000c0 02 7d ee 3d 9a 54 b5 bd 1a e9 b4 bd e1 cf df bd
       0.11644937 -0.08854027 -0.08833523 -0.10928322
0000d0 10 cd 9a 3d b2 4a e5 3c f2 70 c2 bd 0d 19 e9 3d
       0.07558644 0.027989719 -0.09494199 0.11381731
0000e0 9d 35 a2 3d f0 2f 07 3e 0a e4 03 3e f7 f7 fa bd
       0.07920382 0.1320188 0.12879959 -0.12254327
0000f0 41 80 c2 3d 7e 2e c6 3d 95 2a 06 be 76 8f d2 bd
       0.09497119 0.096768364 -0.13102181 -0.10281269

critic.2.weight f4 [16, 64]
000000 c5 31 b8 3e 7c 8b 55 be 51 d7 8c 3e a3 95 7a be
       0.3597547 -0.2085399 0.27508023 -0.24471144
000010 bf a3 79 3c 4a 59 da bd 76 ee 49 3e 14 9b 5a 3c
       0.015236794 -0.10661562 0.19719872 0.013342638
000020 59 2e 06 be 6a 18 e5 be 38 5e cf 3e da f6 3d 3d
       -0.13103618 -0.4474519 0.4050157 0.046377994
000030 ad 0c 33 be cd c7 2b be c7 e5 d2 b9 c3 df be 3c
       -0.17485304 -0.16775437 -0.0004022552 0.023300057
000040 0b c0 87 bb 77 33 b4 bd 77 df ae bd d3 ef eb bc
       -0.0041427664 -0.08798879 -0.08538716 -0.02880088
000050 d1 15 eb 3e 66 8a fc 3d 23 aa 69 be af ce 56 be
       0.45915082 0.12331085 -0.22818808 -0.20977281
000060 6a c2 a3 be a5 10 a3 be 32 c5 4f be 47 42 da bd
       -0.31984264 -0.31848636 -0.20290068 -0.10657173
000070 15 d9 4c bd 5f e2 08 3d 21 fe 2b be de de 94 3e
       -0.050011713 0.03341901 -0.16796161 0.29076284
000080 cb 9e d8 3e e2 24 2f bd 5e da 15 3e 1c 5f 53 bc
       0.4230865 -0.042759784 0.14634082 -0.012901094
000090 33 32 3b ba 35 3c de bd 91 aa 14 3e 0f 86 0f be
       -0.0007140964 -0.10851327 0.14518191 -0.14015983
0000a0 5b 0a 8e bd 0b 49 53 3d 4c fb f3 3d 48 c3 28 3d
       -0.06935569 0.05158333 0.119131655 0.04120186
0000b0 ae 32 4d be 57 f8 ea 3d c0 c8 2b be 65 58 c9 3e
       -0.20038864 0.11473148 -0.16775799 0.39325252
0000c0 27 f8 97 be c2 0f ef 3d db fc 36 3e a2 9c b6 3e
       -0.29681513 0.116729274 0.17869894 0.35666376
0000d0 37 19 3b 3c e3 2f 61 be 9d f5 3f 3e 92 1e a6 bd
       0.011419586 -0.21990924 0.18746038 -0.081112996
0000e0 09 04 eb 3c 86 93 e4 bd cd 83 c5 be 57 5b e6 bd
       0.028688448 -0.1116095 -0.3857712 -0.112478904
0000f0 69 95 4c be 06 13 d6 be dd d5 f8 3d 4f eb 16 3d
       -0.1997887 -0.4181139 0.12150166 0.0368455
000100 78 2b 96 be f9 a0 d3 3d 14 eb e3 3c 91 96 30 be
       -0.2933004 0.103334375 0.027822055 -0.17244937
000110 41 bb 20 be 49 ee 87 3d 32 f8 96 3c 64 fa c3 3d
       -0.15696432 0.06637246 0.018428896 0.095692426
000120 12 2a 6a be 83 da a2 3d 85 e5 9e be a0 1a 65 3e
       -0.22867611 0.07951834 -0.31034485 0.22373438
000130 df ce 27 3e 70 5f 09 bb e2 37 84 be 42 60 02 bf
       0.16387509 -0.0020961426 -0.25823885 -0.5092813
000140 fa 69 b8 bd 62 21 ed 3d ba 78 d7 3e e7 39 61 be
       -0.090045884 0.11578633 0.42084295 -0.21994744
000150 21 f0 32 3e 23 13 dd be 9c 8a d1 3d 7a 9c d2 bd
       0.17474414 -0.43178663 0.10231516 -0.10283752
000160 9b 23 06 3e c6 c9 29 bc e0 f5 49 3d 32 92 11 3d
       0.1309952 -0.010363048 0.04930675 0.035539813
000170 fe 7b a8 3d 45 7d d1 3e f3 c4 c2 3c da 82 c8 3d
       0.08226775 0.40915886 0.023775553 0.09790583
000180 1a c6 47 bd 26 b2 a2 bd 91 fa 0c 3e 2a 9f 88 3d
       -0.04877291 -0.07944135 0.13767458 0.06670983
000190 11 92 77 3d 00 5a d0 bd 6c ec da be 3b 1a 33 3e
       0.060442034 -0.10173416 -0.427585 0.17490475
0001a0 21 8a 5d 3e 46 8e 3b 3e 5c ee 55 3b 23 f0 79 bd
       0.21634723 0.18315992 0.0032643294 -0.061020028
0001b0 0f 06 d5 3e 60 a6 e0 bd 0a 6f 08 3f 78 f6 14 3d
       0.41606185 -0.109692335 0.5329443 0.036367863
0001c0 76 a6 75 3e c5 ac 75 3d 9b 83 80 be c4 1c 54 be
       0.23989281 0.05997922 -0.25100407 -0.20714098
0001d0 d6 fc 45 bd 50 77 83 be a6 cc 4d be 6e b8 77 3d
       -0.048336826 -0.25676966 -0.20097598 0.06047862
0001e0 b3 1d 90 3d a1 c5 e4 3c e7 82 c1 3d 02 14 28 be
       0.07036915 0.027926268 0.09448796 -0.16413882
0001f0 7f 96 60 3e b8 cf 54 3e 20 25 70 3e 62 71 bc be
       0.2193241 0.20782363 0.23451662 -0.36805254
000200 fa c1 8e bd 1b 88 45 bd 01 c5 7e be 1f db c6 bd
       -0.06970592 -0.048225503 -0.24879839 -0.09709763
000210 ca e9 37 be 4c 30 45 3e a8 08 6d be 35 be 2f be
       -0.17960277 0.19256705 -0.23147833 -0.17162402
000220 0a bf 06 3e 5c a6 79 3c b1 70 7d be bf 7f be 3c
       0.13158813 0.015237417 -0.2475002 0.023254273
000230 47 39 80 3e b9 80 da be f1 2a 30 3e 35 9e e0 bd
       0.250437 -0.42676333 0.17203881 -0.109676756
000240 34 0f fa bc 71 69 01 3d d3 68 c6 3c 09 c1 90 bd
       -0.030524828 0.031594697 0.024219906 -0.070680685
000250 69 f9 10 be 97 cb 04 be ac e1 b1 3e a8 ad 8a bc
       -0.14157642 -0.12968288 0.34742486 -0.016928509
000260 85 01 71 3d 92 77 a4 bd e3 04 38 be 3d 48 ba 3e
       0.05883934 -0.08030619 -0.17970614 0.36383238
000270 a3 98 8f be ed c7 f3 bd 2b af 40 3e 56 ed 01 bd
       -0.2804614 -0.11903367 0.18816821 -0.03172048
000280 31 49 c6 bd c7 5f 1d 3e 97 91 70 be be 00 81 be
       -0.09681929 0.15368567 -0.23493038 -0.2519588
000290 1a 19 98 3d 5b 5a 37 3d ed 3f 1c be 3c 32 94 bc
       0.07426663 0.044763904 -0.15258761 -0.01809036
0002a0 97 5a 0f 3f e2 38 f9 3b 0d 00 16 bd 41 4f fc 3d
       0.55997604 0.007605658 -0.036621142 0.12319804
0002b0 d6 b3 d6 3e e3 c1 58 be 99 a1 47 3e f2 6f 7b bc
       0.4193408 -0.21167712 0.19495238 -0.015346514
0002c0 cc 30 a4 3e da 9a 67 3d 9d d2 c1 3d 66 32 5a 3e
       0.3206848 0.056544162 0.094639994 0.21308288
0002d0 e0 a1 cb 3e 87 b6 49 3e 6d 8d ff bd 83 1b 0e 3d
       0.39771938 0.19698535 -0.12478147 0.034694206
0002e0 f8 7a 98 bd ab 67 5a be b6 d8 18 3e 06 31 f5 bd
       -0.074453294 -0.21328609 0.14926419 -0.11972241
0002f0 fc 0b ea 3d b4 0e 84 be 69 c3 54 be 78 d4 91 bd
       0.11428067 -0.25792468 -0.20777668 -0.07120603
000300 4b e6 80 be 19 0e 68 3d c4 ba 40 bc 5c 53 f4 bd
       -0.251757 0.05665407 -0.011763278 -0.11929962
000310 e9 ab 9f be db cb be 3e 2d 5a 08 be 3a 8d e8 3e
       -0.31185845 0.37264904 -0.1331565 0.45420247
000320 12 bf 9a bd 6b ab af bd 07 87 50 3d 76 06 4c be
       -0.07555975 -0.08577617 0.050910022 -0.1992434
000330 29 98 47 be 6e ce 30 be ab 6a 22 be 9d 38 a0 bc
       -0.19491638 -0.17266247 -0.15861003 -0.019558245
000340 9f 3a d1 3e d2 82 3e 3e 35 f6 a3 3d 8e a6 60 bd
       0.40865037 0.18604591 0.08005945 -0.05484634
000350 39 0c 65 be 6e be cf bd 76 6b 60 3d 27 e4 f2 bd
       -0.22367944 -0.101437435 0.054789983 -0.11859923
000360 3f 12 83 bd 15 84 ff 3e bd bf 7a be bc 45 d3 3e
       -0.063999645 0.49905458 -0.24487205 0.4126414
000370 d3 a6 4d 3b 02 0b 5d 3e de 3a 9d 3d 95 5c 46 be
       0.0031379953 0.2158623 0.07677244 -0.19371255
000380 d6 47 f5 bd a4 a2 4d 3e 4a 66 66 3c 00 bc 12 3d
       -0.11976592 0.20081574 0.014062474 0.035823822
000390 cd f7 63 be a6 ea a4 be 25 3f 40 be 3f 04 af 3e
       -0.22262497 -0.32210273 -0.18774088 0.34182927
0003a0 72 54 26 3c 6a 5e 3d be a2 01 e2 3b 25 9b 52 be
       0.010151969 -0.18493047 0.0068971673 -0.20566995
0003b0 d5 63 0f 3d 7f 25 2a bd 53 4a 24 3e b4 71 fb bd
       0.035007317 -0.041539665 0.16043977 -0.122775465
0003c0 83 3d 81 3e 5a 8e c4 3b 42 ce 07 be 8c 99 b1 be
       0.25242242 0.005998415 -0.13262275 -0.3468746
0003d0 57 62 c2 3e 69 3a 01 be 7e ba 12 be 04 9c 77 3e
       0.37965652 -0.12619938 -0.14328954 0.24180609
0003e0 76 fb ef be fd 5a 9e 3e 9b 10 f4 3d f4 22 05 be
       -0.46871537 0.30928794 0.1191723 -0.13001615
0003f0 19 d8 a1 3e e5 ee bc 3d 3c d1 a7 bd 6e 3e d3 be
       0.31610182 0.09225253 -0.08194205 -0.41258568

critic.2.bias f4 [16]
000000 eb 79 bf bd 6b d2 c5 3d f9 c3 14 3d a0 46 e4 3d
       -0.09349426 0.09659275 0.036319707 0.11146283
000010 67 a0 cc 3d b1 1b e3 3d 7c 39 a8 3d 59 dc e0 3d
       0.09991532 0.11089266 0.08214089 0.10979528
000020 70 43 b0 bd 5b 3b ec 3d 61 25 b2 bd 51 58 b4 3d
       -0.08606613 0.11534759 -0.08698536 0.088059075
000030 2b f6 bf 3d 0e 89 c0 3d 23 12 f1 3d 6e 10 ed bd
       0.09373125 0.09401141 0.117710374 -0.11575399

critic.4.weight f4 [32, 16]
000000 d2 07 53 bd b6 71 1c be a8 db 4a 3f 78 58 9d be
       -0.05152113 -0.15277752 0.7924142 -0.3073156
000010 ba 5d f2 3e 85 16 00 3e 30 43 1d 3f 41 9d 02 3f
       0.47337133 0.1250859 0.61430645 0.510212
000020 7f 9b 85 be de e9 8d 3e 43 92 4b be 2c 7b 5c be
       -0.26095197 0.2771749 -0.19880013 -0.21531361
000030 58 cc e5 3e 59 56 a3 3c 34 00 0b 3e a3 33 8d ba
       0.44882464 0.019938635 0.13574296 -0.0010772835
000040 1c da fd be bf 6e bf 3d 08 81 b6 bd c7 60 57 3c
       -0.49580467 0.09347295 -0.089113295 0.013145632
000050 66 6c 68 be b6 2d 02 3f a4 46 e7 3e 26 ee 00 3e
       -0.226976 0.50851 0.45171082 0.12590846
000060 9c ae 46 be 9f 59 b2 3e 23 31 35 be 6c 9c 4b be
       -0.19402546 0.34834 -0.17694525 -0.19883889
000070 d2 e2 75 3e 19 fe 96 3e 11 2c 96 3e 77 44 42 be
       0.24012306 0.29490736 0.29330495 -0.1897143
000080 f7 f8 79 3e a3 5d df be e7 44 17 be fc 60 51 be
       0.24411379 -0.43626127 -0.14772378 -0.20447153
000090 97 e0 4f bd e3 6c e2 be 4b 21 22 3c 48 cf 9e 3e
       -0.050751295 -0.442237 0.009895633 0.31017518
0000a0 aa 9f 4b 3e 3a e8 02 bf 5c 6f b3 3e 7f d9 83 bc
       0.19885126 -0.511356 0.35045898 -0.016094921
0000b0 48 7c 88 be 13 d2 1c 3e 41 38 60 be fc 20 d1 3b
       -0.2665732 0.15314512 -0.21896459 0.006382106
0000c0 9f 90 47 bf 7c df bd 3e 37 0e c3 3e 93 9a 6d 3e
       -0.7795505 0.37084568 0.38096783 0.23203497
0000d0 72 ac 53 bd 3a 41 a6 3d dc e2 4d 3e 85 4d d4 3e
       -0.05167813 0.0811791 0.20106071 0.41465393
0000e0 10 10 e5 3e ce b9 ff bd a5 9c da bd 8b 36 a3 3e
       0.44738817 -0.12486611 -0.10674409 0.3187755
0000f0 cd 16 5b 3e 48 12 d3 bc ea 9f 70 3e 9d 11 4f be
       0.21395417 -0.025765553 0.23498502 -0.20221563
000100 83 16 82 3c 4c cd 09 bf 2d 1d 1c bf 2f d6 bb bd
       0.015879875 -0.53828883 -0.6098202 -0.09171712
000110 c5 74 3b be c2 58 de bd 28 d9 ad 3e a5 61 bc bd
       -0.18306263 -0.10856773 0.3395474 -0.09198312
000120 cf d4 b9 3e cb 62 ca bd df 7c b9 3e a5 b3 06 3e
       0.36295173 -0.098821245 0.36228082 0.13154466
000130 1f 51 89 be eb de 37 be 96 c6 a4 bd 31 2a 71 3e
       -0.26819703 -0.1795613 -0.0804569 0.23551251
000140 ad c9 a4 3e c3 15 b7 bd c4 de f7 bd 9d db 66 bd
       0.32185116 -0.089396976 -0.12103036 -0.056361783
000150 1b ca 18 bf ff a9 85 3d c8 57 12 be ff 3e 41 3e
       -0.5968339 0.06526565 -0.14291298 0.18871687
000160 03 11 02 3f b1 b2 80 be 85 1d 86 3e fd f1 03 3d
       0.5080721 -0.2513633 0.26194397 0.0322132
000170 b5 66 8b bd 6d 78 25 be f6 46 0c be 5a 0e 84 3e
       -0.06806699 -0.1615922 -0.13698944 0.257922
000180 dc 21 8b be e7 7f cd 3d 51 b6 9f bd 68 0a c7 3e
       -0.2717427 0.10034161 -0.07798446 0.38875127
000190 75 da d0 3e c7 ac 6b be 97 85 99 3e 6d 7f f7 3e
       0.4079167 -0.23015128 0.29984733 0.48339406
0001a0 87 ca 34 be bd 04 56 3f d7 c7 4a be 23 66 bb 3c
       -0.17655383 0.8360098 -0.19802795 0.022875851
0001b0 25 49 90 be 9c fd 82 3d 3f bf 5a 3e 8d 97 9c be
       -0.28180805 0.063960284 0.21362017 -0.30584374
0001c0 41 ba 1e bd 26 75 12 3e a4 d4 15 be 0f 49 9e 3e
       -0.038751844 0.14302501 -0.14631897 0.30915114
0001d0 20 56 f3 3e ed 86 81 3e a3 32 1d 3f dd c3 0b 3e
       0.47526646 0.25298253 0.6140539 0.13648935
0001e0 e6 89 96 3e 78 db e1 3d ff 62 03 bf 21 a6 4e be
       0.29402083 0.110281885 -0.5132293 -0.2018056
0001f0 34 71 99 3e e7 74 00 3f 4b 44 b6 3e 01 c6 8e 3e
       0.2996918 0.5017838 0.35598978 0.2788544
000200 84 ea c0 3e ef 47 ce bd 00 42 72 be 49 c7 aa be
       0.3767892 -0.10072314 -0.2365799 -0.33355168
000210 82 69 96 bd 8d 50 6e be 3b 69 a4 3d 4d ec 69 bf
       -0.07344343 -0.23272915 0.080278836 -0.9137619
000220 0a 07 cd 3e 60 98 21 be f3 65 15 3e b8 c3 3c 3e
       0.40044433 -0.15780783 0.14589672 0.18434036
000230 39 d2 d0 3d a4 de ec bd 62 f6 e5 3d 00 d0 9e 3e
       0.10196347 -0.11565903 0.112286344 0.31018066
000240 fa fa 27 be ce 9e 27 3d 13 34 9e be 25 c4 c8 be
       -0.16404334 0.040922932 -0.30899104 -0.39212146
000250 7a b7 66 3d 3d ce c3 be c4 06 e3 bd 35 2d 66 be
       0.05632732 -0.38243285 -0.11085275 -0.22478183
000260 e8 0f 58 be 77 66 f3 be 0d ef 07 3e e9 99 b0 be
       -0.21099818 -0.47539112 0.13274784 -0.34492424
000270 3a 30 bb be 54 0f 3d bd 4b 31 0a be d6 39 e3 3e
       -0.3656023 -0.046157196 -0.13495366 0.44380063
000280 de 27 b5 be aa 93 d8 be af 24 72 3e 5c 82 8d bc
       -0.3538198 -0.4230016 0.23646806 -0.017274074
000290 92 60 bd 3d ee e9 a8 3d 05 32 25 bd e9 7b 5a be
       0.09246935 0.082477435 -0.040330905 -0.2133633
0002a0 30 4c 3e be 14 b2 b5 3e 11 83 ec be 2e 16 de 3e
       -0.1858375 0.35487425 -0.46193746 0.43376297
0002b0 f9 88 40 bd 7b ba 18 3f 7a 45 05 3e a8 89 21 be
       -0.047005627 0.59659547 0.13014784 -0.15775168
0002c0 83 c5 cf be a8 56 27 3d 13 fa 76 3e 2e 74 f4 3e
       -0.40580377 0.040854126 0.24118833 0.47744888
0002d0 f5 10 9a 3e df 29 14 3f 7f 74 9f 3e 8b ef 89 bd
       0.30091062 0.5787639 0.31143567 -0.06735142
0002e0 8e 0e b4 be 22 40 29 bc ec 09 e0 be f5 90 09 3e
       -0.35167354 -0.010330232 -0.4375757 0.13434203
0002f0 38 7c 19 bc 49 7e 22 3e 88 3d e5 3e 46 d6 4e be
       -0.009367995 0.15868486 0.44773507 -0.20198926
000300 a7 84 27 3e d6 2f e5 be 06 14 21 bf b4 a8 a5 be
       0.16359197 -0.44763058 -0.6292118 -0.32355273
000310 74 87 99 be 1a 8e c6 3d 11 43 8e be 0b 87 81 ba
       -0.29986155 0.096950725 -0.27785543 -0.0009882165
000320 6f e0 11 3e 11 7e 15 bf 3d 27 49 bd 7f 31 e5 be
       0.14245771 -0.5839549 -0.049109686 -0.44764325
000330 d4 b7 c2 3e ae 69 aa be 84 af 43 be 28 70 6d 3d
       0.38030875 -0.33283752 -0.19109923 0.05796829
000340 34 0e ff bd f5 11 08 be 6c 9d 9b be bc 99 15 be
       -0.12453881 -0.132881 -0.3039354 -0.14609426
000350 f8 21 82 3d 99 9f e9 bd ef 33 18 be 6e 4e 79 be
       0.06354135 -0.11407394 -0.14863561 -0.24346325
000360 c1 cf d9 bd 4a ec b9 3c 65 f6 1a 3f 75 e9 dc bd
       -0.10635329 0.02269568 0.6053222 -0.10786716
000370 0a 77 a7 3e 1e d9 d1 be c2 d5 22 bf a7 63 2f 3f
       0.32708007 -0.4098596 -0.6360742 0.6851143
000380 03 84 86 3e 50 f1 c6 3d 4a 18 1d 3d fd a0 9e 3c
       0.26272592 0.097139955 0.038353242 0.019363875
000390 9f 2a 17 3f 6b e8 79 bc 46 ae 5b bd 79 93 08 3f
       0.5904941 -0.015253167 -0.053632997 0.53350025
0003a0 20 27 b3 be 00 cd 0c be 4e 05 91 be e3 f8 de 3e
       -0.34990788 -0.13750076 -0.2832436 0.4354926
0003b0 c4 05 39 3e d6 e7 36 3e c5 fa 40 3f 42 75 b6 3d
       0.18068606 0.17861876 0.75382644 0.08909084
0003c0 ee c7 99 bd 20 ad 9d 3c 9b bc a2 3d 1c d2 31 3f
       -0.07508837 0.019247591 0.0794613 0.69461226
0003d0 21 52 eb 3e 3a dc f0 3e a4 08 c0 bd 15 68 60 3e
       0.45961097 0.4704302 -0.09376648 0.21914704
0003e0 6d be 44 be 1a 6a 17 3e 72 b4 23 bd d9 59 f3 3d
       -0.19213267 0.14786568 -0.039967008 0.118823715
0003f0 ed bf a6 3c a1 02 af be 6f a2 d8 3e f6 8b 2a 3e
       0.02035519 -0.34181693 0.42311427 0.16654953

critic.4.bias f4 [32]
000000 b1 8a e0 3d f6 c0 48 3d 4b ac 04 be 75 64 08 3e
       0.10963953 0.049012147 -0.1295635 0.13319571
000010 1f b6 fe bd 99 06 24 be 74 25 18 3e 87 c6 17 3e
       -0.124370806 -0.16018142 0.14858037 0.14821826
000020 9f 17 07 be 2f 0d 23 be d7 40 1d 3e 46 5f 96 3d
       -0.13192604 -0.15922998 0.15356766 0.07342391
000030 80 9d ca bd c6 84 0d be ed e3 f2 3d 47 d7 2e 3e
       -0.09893322 -0.1382018 0.1185988 0.1707431
000040 85 71 a2 3b 8f 30 ed bd bc f8 d0 bd 84 02 3e 3e
       0.0049573802 -0.115815274 -0.10203692 0.18555647
000050 14 6a 08 be bd f0 20 3e 63 98 c1 bd 63 5b 1d be
       -0.13321716 0.15716834 -0.094528936 -0.15366893
000060 c3 5d 03 be cb 95 0e be 89 bf c7 3d 05 b1 1d 3e
       -0.12828736 -0.13924329 0.09753329 0.15399559
000070 1c 85 9e bd 12 32 0b be fd ea b4 bd 26 a7 c5 bd
       -0.07740232 -0.13593319 -0.08833883 -0.09651022

critic.6.weight f4 [1, 32]
000000 9b c5 e7 3e a2 f9 9b 3e 0b d2 1b bf 37 82 9b 3e
       0.45267949 0.30463892 -0.60867375 0.30372784
000010 30 d4 17 bf 86 fb bb be fd e7 98 3e 83 d9 9f 3e
       -0.5930815 -0.36715335 0.29864493 0.31220636
000020 d5 ff c3 be 9c 27 b1 be a0 19 06 3f b7 ff eb 3e
       -0.38281122 -0.34600532 0.5238285 0.46093532
000030 e5 7d e9 be 57 b3 91 be 18 c5 f6 3e 8b ae c8 3e
       -0.45603862 -0.28457138 0.48197246 0.39195666
000040 7f 15 7b 3e 7d e7 b0 be 37 e3 cc be cb 22 ab 3e
       0.24519919 -0.34551612 -0.400171 0.33424982
000050 0f 47 90 be 72 21 9b 3e 63 36 1f bf 19 76 c5 be
       -0.28179213 0.30298954 -0.6219236 -0.38566664
000060 65 43 34 bf c9 5b 1d bf 7c 0d cc 3e 42 07 b1 3e
       -0.70415336 -0.6146818 0.39854038 0.3457585
000070 90 b9 a2 be 96 50 9f be 0d 15 f4 be d5 6c f3 be
       -0.31782198 -0.3111617 -0.4767231 -0.4754397

actor.0.weight f4 [64, 6]
000000 93 4e 16 3d 37 9c 1c 3d fa df 12 be cf 17 7a be
       0.036696028 0.038234916 -0.14343253 -0.24423145
000010 31 20 7b bd de 77 ba 3d 1c 79 7d be 0a b3 4c 3e
       -0.061309997 0.09104894 -0.24753231 0.19990173
000020 44 dd 80 3d 4b da 82 3d dc 1e 87 bd 9d b7 fa bd
       0.06292203 0.06389292 -0.06597683 -0.12242053
000030 6e ff 3e be dd c7 88 3e a9 8f 66 be c7 e4 a8 bc
       -0.18652126 0.26714984 -0.2251574 -0.020616902
000040 98 8c 81 bd 2d cf 42 bd be 85 75 be 9e 79 40 be
       -0.06325644 -0.04756086 -0.239768 -0.18796393
000050 e5 b2 8c bd 9a 50 64 ba ee 01 91 3e f4 cb 66 3d
       -0.06870059 -0.00087095203 0.28321785 0.05634685
000060 da 23 d4 be 0d 3a 9a be ee 2e 60 be 82 0d 59 be
       -0.41433603 -0.30122414 -0.21892902 -0.21196559
000070 fe 42 25 3e af b7 64 bd 53 77 34 3d ae 07 af be
       0.16138837 -0.055839237 0.04405911 -0.34185547
000080 0e b7 8a be 51 1a 3e 3d 34 fb 90 be c7 19 47 be
       -0.27092785 0.046411816 -0.28316653 -0.19443427
000090 59 bf 06 3e d0 2b 44 bd 1d 17 b3 be 1d 04 27 bd
       0.13158931 -0.047893345 -0.34978572 -0.040775407
0000a0 79 90 17 3e 9e 2c 08 bc 27 47 e1 bb cd e7 43 3e
       0.14801206 -0.008311419 -0.006874937 0.19131394
0000b0 54 73 cc bd 27 7c d6 3d 5a 48 03 3e 9c c5 6b be
       -0.099829346 0.10472899 0.12820569 -0.230246
0000c0 4f 5f a8 be a6 36 bd bd bc 82 09 3d 42 6c a4 be
       -0.32885215 -0.09238939 0.033571944 -0.32113844
0000d0 b3 80 12 be 4c 52 26 3e c3 4d 5c be ce 1d e8 bd
       -0.14306907 0.16242331 -0.21514039 -0.1133381
0000e0 a4 a9 c4 be 52 ba f3 bb 03 83 a1 3d 0b fe 18 3e
       -0.38410676 -0.0074379826 0.078863166 0.1494066
0000f0 07 47 53 3e 03 68 e5 3d 06 0d 94 bd cd 2f 3b be
       0.20632564 0.11201479 -0.072290465 -0.18279953
000100 22 84 41 be 3d d9 6f be f0 aa 9c be f7 fc 69 be
       -0.18898061 -0.23422714 -0.30599165 -0.22850405
000110 4d 8a ec 3d dc 35 1c 3e c4 97 c3 3c 16 5c 80 3d
       0.11549816 0.1525492 0.023876078 0.06267564
000120 3f 74 9f be 1f fa 2a 3c 81 2a 9d 3d 31 5e 13 be
       -0.31143376 0.01043561 0.076741226 -0.143914
000130 52 5d 95 bd 15 7c 3f 3e d9 8b 96 bc eb d2 1b be
       -0.0729319 0.18699677 -0.018377231 -0.15217178
000140 67 f8 02 3e 72 be 91 be 5b 40 00 3e 39 45 53 bc
       0.1279007 -0.2846561 0.1252455 -0.012894922
000150 21 31 29 3e 4d 69 04 be af 98 18 3e bb 45 48 3d
       0.16522647 -0.12930794 0.14901994 0.048894625
000160 4c 15 1d 3e 6c a6 07 3d 14 7e 32 be 69 73 bc 3d
       0.15340155 0.033117697 -0.17430907 0.092017
000170 42 b6 29 be 11 e5 bb be df be 48 3d f1 60 6b be
       -0.16573432 -0.366982 0.049010154 -0.22986199
000180 8d 89 b9 3d 9f 67 04 be 79 30 d2 bd 7a 03 9a 3d
       0.09059439 -0.12930153 -0.10263152 0.07520194
000190 bc e5 5f 3e dc 2e 76 3d e2 71 54 be 06 e1 76 3e
       0.2186498 0.060103282 -0.20746568 0.24109277
0001a0 b4 2a 2a be d0 7c 1e 3e 46 ab 1c 3c 50 dc a7 3d
       -0.16617852 0.154773 0.009562319 0.08196318
0001b0 99 ae 2d be 49 dd 48 3e 0d 12 f7 3c c8 51 e4 bd
       -0.16961135 0.19615664 0.030159974 -0.11148411
0001c0 8a d7 b6 3d 8c 75 9d bd 9c 91 ba 3a af 64 41 be
       0.089278296 -0.07688436 0.0014234069 -0.18886064
0001d0 f0 d7 be 3d 9a a2 d3 3e 19 72 95 bb 3f ea b1 3e
       0.093185306 0.41334993 -0.0045607206 0.34749028
0001e0 90 37 c9 bd 4e e5 49 be 5d 9f 38 3d 87 62 85 be
       -0.09825051 -0.19716379 0.045073856 -0.26051733
0001f0 df 15 4d bd 9d 79 04 3e fe 35 3b be d8 80 9e bc
       -0.050069686 0.12937017 -0.18282315 -0.019348547
000200 31 a9 73 bd 45 d8 94 bd 1d 6d 13 be ce 99 9b bb
       -0.059487525 -0.07267813 -0.14397092 -0.0047485596
000210 da 01 32 3e 4d 81 07 be ea 54 9c 3d ee 09 ff 3b
       0.17383519 -0.13232918 0.076333836 0.007783166
000220 d5 6f 90 3d 15 0f 86 bc a0 18 df 3d d0 f9 67 be
       0.0705258 -0.016364614 0.10893369 -0.2265389
000230 f5 cc 1c 3e 25 1c 04 be 26 ca c0 be 78 69 3b be
       0.1531256 -0.12901361 -0.37654227 -0.18301952
000240 c9 85 d1 3d 47 c5 1a be de e3 fd bd ac dc 36 3e
       0.102305956 -0.15114318 -0.12396978 0.17857617
000250 b9 16 9b bc 66 4c 6a 3d b7 17 8f bd db 4b 96 3e
       -0.018931733 0.057201765 -0.06986945 0.29354748
000260 e8 2e 6f 3d 19 f7 fb 3c 31 a6 2c 3e fd be 4f 3e
       0.058394343 0.030757474 0.16860272 0.202877
000270 ce dd 2e be 4d d9 ed bd 6b 38 1d 3e 74 6e 41 3e
       -0.170768 -0.116137125 0.15353553 0.18889791
000280 12 59 06 be 5b 0e 88 be fe 74 7c bd 77 24 26 3d
       -0.13119915 -0.26573452 -0.06163501 0.04056212
000290 9d 2b fd bc c6 05 20 3e 9c 39 29 be 42 fa e5 3d
       -0.030904585 0.15627202 -0.16525882 0.112293735
0002a0 a3 19 54 3d a3 9e 04 bd 0a 82 d4 3e 27 9a f7 bd
       0.05178226 -0.03237785 0.41505462 -0.12089949
0002b0 41 72 a3 3c 78 c0 a2 bd a6 e7 53 3e 33 c8 17 3e
       0.019951941 -0.07946867 0.20693836 0.14822464
0002c0 96 54 a0 bd 7a ab 97 3e 36 9c 68 be 14 26 be bd
       -0.078286335 0.29623014 -0.2271584 -0.092846066
0002d0 2c f2 ad 3d a4 b5 47 be 7b 0d 99 3e 2e e3 3f 3e
       0.08493456 -0.19502884 0.29893097 0.18739006
0002e0 2d 8c fc bd 0e f1 04 bd 06 e8 4f 3e af 89 9e be
       -0.12331424 -0.03245645 0.20303354 -0.3096442
0002f0 50 20 83 bd e6 39 8d be bf d3 e8 be ab c7 34 bd
       -0.064026475 -0.27583236 -0.4547405 -0.04413573
000300 7e 82 d2 bd 3a cf 22 be 09 d3 09 3e 17 e0 be bd
       -0.10278796 -0.15899363 0.1345941 -0.093200855
000310 f1 c8 47 3e 58 ac 27 bd aa 8a 0d 3d a2 7a 9d bc
       0.19510247 -0.040935844 0.03455607 -0.019223515
000320 05 ea 53 3d 5d 4f de 3e 2e aa c5 bc f0 51 a2 bd
       0.05173685 0.43419924 -0.024129 -0.079257846
000330 e3 ee b0 bd 37 7c ab be 73 27 90 be c3 0a 58 3e
       -0.08639314 -0.33493206 -0.28155097 0.21097855
000340 c7 df ca bd 4e 8f 89 be e7 00 6c 3d 46 5a bd bd
       -0.099059634 -0.26867145 0.057618048 -0.09245734
000350 27 10 ce bd 64 cf 9b 3e cc ae e8 bd 30 bc 23 bd
       -0.100616746 0.30431664 -0.11361465 -0.03997439
000360 27 84 f0 bd c8 7c dd bd b4 4e af be d5 1a a8 bd
       -0.11743956 -0.10814816 -0.34239733 -0.08208243
000370 f7 9f cc be d1 ac 64 be 3c b5 34 3e ae 99 ca 3e
       -0.39965793 -0.22331549 0.1764726 0.39570373
000380 86 b0 d1 bd d8 97 32 3d 31 5f d7 be b6 25 84 3e
       -0.10238747 0.04360184 -0.42064813 0.2581002
000390 fa ba 06 3e 6e 49 4e 3e 88 de 1b 3e cb 81 93 3e
       0.13157263 0.20145199 0.15221608 0.28809962
0003a0 c6 e1 00 3e 17 5d 61 bd 46 4a 55 be fc 8e 08 3c
       0.12586126 -0.055020418 -0.20829114 0.008334871
0003b0 4f 05 03 3e e6 c2 06 3e 45 6c 74 bd 55 5d 1f 3e
       0.12794994 0.13160285 -0.059673566 0.15562947
0003c0 ac 5f 71 be 1f fe 88 3d b1 1e 2d 3e ef d4 89 bc
       -0.23571652 0.06689095 0.16906239 -0.016825167
0003d0 2d 90 40 3e 59 77 dd 3d 70 8d 1a 3d 60 e7 b5 be
       0.18804999 0.108137794 0.03773254 -0.35528088
0003e0 03 4e 64 3e cd 32 17 3d 2b 02 c5 bd 92 4d 3a 3d
       0.22295384 0.03691368 -0.09619554 0.045484133
0003f0 00 a2 0d be fc 30 94 be 56 08 66 be a9 66 06 3e
       -0.1383133 -0.28943622 -0.22464117 0.13125099

actor.0.bias f4 [64]
000000 ad 41 87 bc 31 45 d5 bc ca ca d2 bd c8 09 17 bc
       -0.016510809 -0.02603397 -0.10292585 -0.009218641
000010 e0 1b 0d bd a0 9b e3 bd ff a1 1b be ae fc 9d 3d
       -0.03445041 -0.111136675 -0.15198515 0.077142105
000020 67 ba 4e bc 66 5e 18 be 65 59 91 3d b7 eb 94 3c
       -0.012617684 -0.1487976 0.07097129 0.018178804
000030 01 ba cb ba d0 8e d7 3c 5b e3 17 bc 4f 7c f8 bc
       -0.0015543104 0.026313215 -0.009270514 -0.030332712
000040 ef c9 6b bd 11 d4 ff 3c 57 33 5d 3d 99 95 01 3c
       -0.057565626 0.03122905 0.05400404 0.007909202
000050 93 ee 5a bc 44 12 77 bd ed 5a 0a bd 1b 9b 97 3c
       -0.013362545 -0.060320154 -0.03377812 0.018506577
000060 49 f2 0f 3d df eb 0e 3d 62 ed 08 3d 05 95 64 3d
       0.03514317 0.034892913 0.03342951 0.05580618
000070 f4 0f ae 3d 45 13 fa 3c 40 af 31 3d 4e a5 a1 bd
       0.084991366 0.030526767 0.043380022 -0.078928575
000080 bb 3a 15 3c 33 5b 12 3d 64 53 04 3d 63 eb c1 bb
       0.009108241 0.035731506 0.03230609 -0.005917953
000090 e8 ff 03 be 74 c9 1f 3c 52 64 1a 3d 6b 10 e4 3c
       -0.12890589 0.00975262 0.03769333 0.02783986
0000a0 4d ec e3 3d f6 49 85 bd 9c c0 50 bc 0e 6d 40 bd
       0.11129055 -0.065082476 -0.012741234 -0.046979003
0000b0 26 bf a6 3d 78 b8 87 3d be c1 a6 3c 66 c4 2d ba
       0.081419274 0.066269815 0.020356055 -0.0006628692
0000c0 ad 80 ab bc b4 f4 45 3d 3d 9c 23 bd d0 11 7b bd
       -0.02093538 0.04832907 -0.039943922 -0.061296284
0000d0 1f ec e7 bb 91 94 89 3c b9 71 90 bd d2 de 1d 3e
       -0.0070777084 0.016794475 -0.07052941 0.1541703
0000e0 60 26 82 3c cd 34 91 3d ca c0 8a 3c 16 15 4b be
       0.01588744 0.07090149 0.016937632 -0.19832262
0000f0 b8 41 f7 bd e4 de 56 bd c9 b1 ae 3d 2c 33 c1 3c
       -0.12073082 -0.05245866 0.085300036 0.023583971

actor.2.weight f4 [16, 64]
000000 5b e6 ad bd a5 10 0d 3e e0 d6 d7 3e 69 1e 76 3e
       -0.084912024 0.1377588 0.42156124 0.24035038
000010 ba 95 d8 bd 8d 40 1c 3e c9 3e a8 3e f8 3c b7 bd
       -0.10575433 0.15258999 0.328604 -0.08947176
000020 c5 14 17 3e a0 fe bd 3d bd 4c c0 bd a5 e7 50 3c
       0.14754017 0.092770815 -0.09389637 0.012750541
000030 0a 2b e0 bd e8 4f a5 3d 74 3c 49 3e 4d 0d 1d be
       -0.10945709 0.080718815 0.19651967 -0.15337105
000040 12 bc 4d 3d a6 b1 37 bc 20 32 bd 3e 46 b8 aa be
       0.050228186 -0.011211788 0.36952305 -0.33343714
000050 ae b1 08 3f bb dc 42 bd c3 13 0c be 8f 83 bf 3c
       0.5339612 -0.047573786 -0.13679413 0.023378162
000060 3a 49 91 bd 6a ed 0f be 48 6c ab 3d ed f3 4c bb
       -0.07094045 -0.1405541 0.083702624 -0.003127332
000070 03 a0 2f be 9c 12 36 be 77 0f 30 3e b2 1a fa 3c
       -0.17150883 -0.17780536 0.171934 0.030530307
000080 e3 0e 0e bd 05 91 93 bd 75 60 a8 3c 3e 2c e6 bc
       -0.034682166 -0.07205395 0.020553807 -0.028097268
000090 7e 7b 38 3e a1 70 37 be 69 df 0c bd f1 9b 1b 3e
       0.18015859 -0.17914058 -0.034392748 0.15196206
0000a0 91 e8 14 be 6a 46 17 bc cf ba 46 3e 26 14 85 3e
       -0.14541842 -0.009233097 0.194072 0.25991935
0000b0 5a ad 88 be 74 e2 59 be e5 64 c9 bd d0 6e b6 bc
       -0.26694757 -0.21277791 -0.09833697 -0.022269636
0000c0 ab b4 dd 3e db 40 27 3e da 0d 87 3e 17 27 ba 3e
       0.433019 0.16333334 0.26377755 0.36357948
0000d0 27 24 f5 bd fd 15 3b 3d b0 9a b6 be 11 0a 1e be
       -0.11969786 0.045675267 -0.35664892 -0.15433528
0000e0 2c 91 4f bc e0 29 6c 3d 4e 15 56 bd 37 84 8a 3e
       -0.012668889 0.057657123 -0.05226641 0.27053997
0000f0 b0 46 75 3e 5c e5 fe 3d 21 68 53 bd 79 83 c5 bd
       0.23952746 0.124460906 -0.051612977 -0.09644217
000100 0a 05 71 3e 4b b2 04 3e 2b f1 5c 3d e0 e0 c7 bd
       0.23537078 0.12958638 0.053940933 -0.097596884
000110 01 c5 bf 3d e7 03 61 bd 14 b7 3c be e0 21 ff 3d
       0.093637474 -0.054935362 -0.18429214 0.12457633
000120 9e 9b 97 be 0b f5 70 be 7a a4 20 be 90 83 17 3e
       -0.29610914 -0.23530976 -0.15687743 0.14796281
000130 46 af 9f 3d fa 6d c4 3d 76 1e 09 be e9 29 f2 bd
       0.07797103 0.09591289 -0.13390526 -0.118244
000140 0f 78 81 be 68 79 58 3e 9a 46 42 3d 29 7e 00 3e
       -0.2528691 0.21140063 0.047430612 0.12548126
000150 3e af 05 bd 70 dd 0e 3e 02 5e 50 be b8 15 3b be
       -0.032637827 0.13951659 -0.20348361 -0.18270004
000160 9f c6 76 3d 3a a6 ab 3e 5f 9a 33 3e 4b 6e ff bd
       0.060248014 0.33525258 0.17539357 -0.124722086
000170 79 58 80 3e d2 e8 0e 3c e1 36 ca 3d 3e bc da bc
       0.250675 0.008722501 0.098737486 -0.026701089
000180 f2 e7 8a bd d2 94 69 3e b6 c8 3e 3e 1c 39 a1 3e
       -0.06782521 0.22810677 0.18631253 0.31488883
000190 0f 88 4a be 8c c1 29 3c 17 e2 a2 3e 7d 11 8f bd
       -0.19778465 0.010361087 0.31813118 -0.069857575
0001a0 88 22 ad 3b 52 a3 05 3e e1 8b 45 be 45 7d 52 3e
       0.0052836575 0.13050583 -0.19291641 0.20555599
0001b0 da 0b 18 be 11 d6 c3 bb 26 50 c0 bc 15 d9 ea bd
       -0.14848271 -0.0059764464 -0.023475718 -0.11467186
0001c0 d8 76 53 3e d5 69 09 3e d8 4a 60 3e 57 71 09 be
       0.20650804 0.13419278 0.2190355 -0.13422142
0001d0 3c b9 36 3e 8c 99 ed 3e 1d 2e 12 be 5b 11 61 3e
       0.17844099 0.4640621 -0.14275403 0.21979277
0001e0 61 1f f6 bc dc c7 91 be 7d 63 12 3d 3b cf ea bd
       -0.03004426 -0.28472793 0.03573941 -0.11465307
0001f0 bc a4 6e 3d ff 3f 06 3e 37 bd 92 3e 2f e9 19 3e
       0.05826257 0.1311035 0.28659984 0.15030359
000200 2a 7e b9 bd 53 4b 30 bd b2 09 88 bc 56 7f 12 3d
       -0.09057267 -0.043040585 -0.016606186 0.03576597
000210 10 cf 74 be 59 75 32 be 68 83 9b be 6b 67 d3 3c
       -0.23907113 -0.17427577 -0.30373693 0.02580615
000220 9a c8 95 be 51 88 b1 bc 5a 78 b0 be 76 ce 4f bd
       -0.2925461 -0.021671446 -0.3446682 -0.050734006
000230 f8 8d b4 bd be 81 33 3e d1 30 a6 3d 54 9f b3 bd
       -0.08816141 0.17529961 0.0811478 -0.08770624
000240 d2 78 72 bb b6 3d 9b 3e f9 ba 56 3e 23 5a 7b 3e
       -0.0036998284 0.3032052 0.20969762 0.24546103
000250 1e ae d3 bd 2e 3f 28 be 49 95 a1 be 4e 28 23 bd
       -0.103359446 -0.16430351 -0.31559208 -0.03983336
000260 53 a6 6a 3e 60 f3 76 bd aa 37 6e be 85 af f5 3d
       0.2291501 -0.060290694 -0.23263422 0.11996368
000270 c2 90 14 bd 8e 65 8a 3e 45 07 02 3e 73 e3 26 be
       -0.036270864 0.27030605 0.12698086 -0.16297702
000280 ed 89 08 3e 60 30 bc 3d 21 11 25 3c 59 ad c3 3e
       0.13333865 0.09188914 0.010074885 0.3821819
000290 4e 1b 47 be 12 94 1a be 95 36 a2 3d a3 f3 95 bd
       -0.1944401 -0.15095547 0.07920567 -0.07321861
0002a0 58 66 85 3e 34 60 c1 be a0 81 74 be 08 b3 08 3e
       0.26054645 -0.3776871 -0.23877573 0.13349545
0002b0 a4 13 55 3e bc 59 d1 3c 18 c0 c8 be a2 5d cc bc
       0.20808274 0.025555484 -0.39209056 -0.024946991
0002c0 a1 75 02 bd 21 e2 d2 3d fd 32 96 bd 7e 35 a3 be
       -0.03185046 0.10297037 -0.07333944 -0.3187675
0002d0 f8 17 b2 3d 11 ed ad be 27 a0 b0 bd 9c c9 89 3b
       0.08695978 -0.3396993 -0.08624297 0.004204942
0002e0 55 83 70 3e 50 5e 94 3d df 8a 1c 3e b6 ce 49 be
       0.23487599 0.07244551 0.1528735 -0.1970776
0002f0 9d 67 46 be 83 93 8b be e0 09 09 3c 1f 73 3b be
       -0.19375463 -0.2726098 0.008364171 -0.18305634
000300 90 16 6c 3d f0 11 f7 3c c4 77 24 be e3 e4 43 be
       0.057638705 0.03015992 -0.16061312 -0.19130282
000310 98 8f 1f bc c1 d6 8d 3e 16 52 7f bc db 55 fe bd
       -0.009738825 0.27702907 -0.015583536 -0.124187194
000320 37 ca 87 be 77 c2 02 3d 7c c2 12 be f3 08 26 bd
       -0.26521465 0.031923737 -0.14332002 -0.04053588
000330 f3 fa fa 3d db 4d 02 be 13 32 59 3e 12 6b c2 3d
       0.12254896 -0.12725012 0.21210508 0.09493078
000340 41 76 70 3e a0 22 b1 bc 68 32 e1 bd c2 99 21 3e
       0.2348261 -0.021622956 -0.10995942 0.1578131
000350 1a 98 92 bd 50 3b d4 3e b6 7b 04 bd aa 8f fb 3c
       -0.07157917 0.41451502 -0.032344542 0.030708153
000360 58 30 bc 3c 72 23 0e be 80 ea a4 3e bc 5d f8 3d
       0.02297227 -0.13880709 0.3221016 0.121272534
000370 03 17 47 3d 9c 1e f1 3d a3 f0 24 3d 9f ed 8f bd
       0.04860593 0.117734164 0.04026855 -0.070277445
000380 e1 80 3a bd e7 77 26 bd 61 bd 92 be e8 6b ad 3e
       -0.045533065 -0.04064169 -0.2866011 0.33871388
000390 93 ef 8e 3e 09 af 6a be 00 82 96 bd 69 15 f8 bd
       0.27917156 -0.22918333 -0.07349014 -0.12113459
0003a0 bf b1 ad 3c 44 ce ae 3e 6f dd 22 3e 05 2f 49 be
       0.02120292 0.34141743 0.15904783 -0.19646843
0003b0 8f 01 a8 be 26 cc 3d be 56 66 72 3b 7e 6a fb 3b
       -0.3281369 -0.18534908 0.0036987267 0.007672607
0003c0 76 1d 47 3e d5 4d 26 be 18 84 af 3d 19 cf c8 3e
       0.19444832 -0.16240628 0.08570117 0.39220503
0003d0 72 95 08 3d 7e d9 e5 be b4 e7 44 3d 8d a4 f7 bd
       0.033345647 -0.44892496 0.04807253 -0.120919324
0003e0 43 43 ac 3c 72 53 7a bd 7f 2d 28 3e 3b 70 6d 3e
       0.021028167 -0.061114736 0.16423605 0.23187344
0003f0 45 62 d2 3e d0 a4 30 3e 99 bd b3 be 74 42 4a 3e
       0.410906 0.17250371 -0.3510559 0.19751912

actor.2.bias f4 [16]
000000 2b bf 82 bd 50 de a4 3c 87 fa 9e 3d 4e 0d 8b bd
       -0.06384119 0.020125538 0.07762628 -0.06789647
000010 53 93 87 bc bf 60 07 bd 0c b9 ef 3c 64 e6 a2 bd
       -0.016549742 -0.03305125 0.029263042 -0.079541
000020 53 53 ae bd 17 67 62 3d 60 7b ac bd 4a ef f5 bc
       -0.085119866 0.055274095 -0.084219694 -0.030021328
000030 36 5e 97 3b 45 80 46 bd f3 04 8d bc c3 30 65 3c
       0.004619385 -0.04846217 -0.017214274 0.0139886765

actor.4.weight f4 [32, 16]
000000 f2 72 e7 3e 38 15 a4 be a6 37 7e 3e d2 a9 bd 3d
       0.45204884 -0.3204744 0.24825916 0.09260906
000010 6c 9c ee 3d 2a 2e ca bc a8 ea b3 be cd 2e 0f be
       0.11650929 -0.024680216 -0.35139966 -0.13982697
000020 33 38 dc 3e e8 b5 40 3b 25 8f c8 3d 1e a1 24 3e
       0.43011627 0.00294053 0.09792928 0.16077086
000030 3e 00 45 3d 9e 0f fa 3e fc 1f 3e 3d 54 48 46 3e
       0.048095934 0.4884004 0.04641722 0.19363528
000040 3e be 47 be 43 9a 30 3c 43 6b 28 3e 43 9f 3e 3f
       -0.19506165 0.010778966 0.16447167 0.74461764
000050 04 22 4c be df 5f 8b be fd e1 14 3e 7b dd 0a be
       -0.19934851 -0.2722158 0.14539333 -0.1356105
000060 f8 4b 0b 3e 5e c6 1b 3e 48 61 7b bd e6 41 99 be
       0.13603199 0.1521239 -0.06137207 -0.2993309
000070 e4 50 e9 bd f9 d0 08 bd ac 51 61 bd 5b 74 13 be
       -0.11392382 -0.033402417 -0.05500953 -0.14399855
000080 26 67 dd bc a8 54 34 be 79 ae 01 3d 2a 66 bd 3e
       -0.027026724 -0.17610419 0.03166053 0.36992007
000090 ef 7b da bd f0 3f 68 be a4 55 fb 3d 74 2c 7e 3e
       -0.1066817 -0.2268064 0.12272194 0.24821645
0000a0 d4 69 a2 3e 5c ad 47 bd 15 b4 39 3e 4b d0 13 3e
       0.31721365 -0.048749313 0.18135102 0.14434926
0000b0 d6 5a 0e 3d 1c 95 0e 3f 5b 65 ad bd 15 35 7c 3d
       0.034754597 0.5569627 -0.08466598 0.06157406
0000c0 2f cb a7 3e b6 a3 08 be ed 12 32 bd 2a 4a b4 be
       0.32772204 -0.13343701 -0.04347508 -0.35212833
0000d0 4c 17 1a 3e 2e e2 85 3e a0 07 e0 3e 91 97 71 3d
       0.1504795 0.26149124 0.43755817 0.058982436
0000e0 f9 c7 5f be 3b 25 2f be 24 00 a9 be b1 04 92 3e
       -0.21853627 -0.17104046 -0.3300792 0.28519204
0000f0 71 b1 a7 be 83 6d 2c 3e bf b3 bc 3d 7c 78 8b 3d
       -0.32752565 0.1683865 0.09213971 0.0681009
000100 f4 5b 91 3e b0 7e a5 3d 21 59 55 3e ae 34 91 3c
       0.28390467 0.08080804 0.20834781 0.017725315
000110 ed 48 5e be b7 31 bb be 69 67 b6 3d 38 10 30 bc
       -0.21707506 -0.36561367 0.08906443 -0.010746054
000120 0e 5e ea be b7 1b a4 3e 5b ed ff 3c 45 26 65 3e
       -0.45774883 0.32052395 0.03124111 0.2237788
000130 e1 df c9 be a0 0c 10 bf e7 f8 76 3e 05 6a 14 be
       -0.3942862 -0.56269264 0.24118386 -0.14493568
000140 d8 c9 31 bb 8b 0c d8 bd 08 23 1a bf c9 a7 8b 3e
       -0.0027128365 -0.105492674 -0.60209703 0.27276447
000150 d4 db 3d be f2 68 97 be dd ae 53 3d bf fb 8b be
       -0.18540889 -0.29572254 0.051680434 -0.27340505
000160 48 c6 ab bd f7 4e 34 be 80 00 16 3f 8e 90 20 3e
       -0.083874285 -0.17608248 0.5859451 0.15680143
000170 e8 be cc bc 08 56 83 3e 41 69 8d 3d 1b 2e 29 3d
       -0.024993375 0.25651574 0.06904841 0.041303735
000180 c5 36 ab bc 99 e5 8b be bb d5 30 3e 31 3c 16 3e
       -0.02090014 -0.27323607 0.17269032 0.14671399
000190 0b cf a8 3d 19 5e d2 bd 4f 1b b9 be 76 19 9a be
       0.08242615 -0.10271854 -0.36153647 -0.3009755
0001a0 53 49 cb be 18 59 e6 3e 2b 0b 9c be dc 04 dc 3e
       -0.3970438 0.44989848 -0.3047727 0.42972457
0001b0 28 b1 1f be e9 95 f9 bd ce 4d 28 be 14 6c 19 bd
       -0.15594923 -0.12186796 -0.1643593 -0.037456587
0001c0 d4 6d ae be 38 ec ad bb 2b bb 03 3f aa b8 97 be
       -0.34068167 -0.0053077005 0.5145747 -0.29633075
0001d0 cf 14 1e be a5 fc 98 3e bd 73 04 be fa 40 53 be
       -0.15437625 0.29880252 -0.12934776 -0.20630255
0001e0 f4 c4 0b be f2 e8 83 3e 23 31 13 3f b4 51 4e 3c
       -0.1364935 0.2576366 0.5749685 0.012592722
0001f0 d8 7b d9 3e cb fd 73 be 67 7b 96 3e 9a c4 f3 be
       0.42477298 -0.23827283 0.29391024 -0.47610933
000200 6f 62 e7 3e f4 b8 91 3e 33 dc 19 3e 3e 7e 50 3e
       0.45192286 0.2846142 0.15025406 0.20360658
000210 14 b0 e2 bd 35 2d de 3d 5c 2a 1f bf 30 46 cc bc
       -0.110687405 0.10848466 -0.6217401 -0.024935812
000220 b5 b1 76 be 36 93 65 bd 9a 30 c5 bb b5 8d 79 be
       -0.24091227 -0.056048594 -0.0060177566 -0.24370463
000230 bc af ab be e5 9c 27 3e f5 4f 8a 3d 74 2e 28 be
       -0.33532512 0.16368444 0.06753532 -0.1642397
000240 01 3a 26 3e 38 c4 8e be 9d aa de 3b 72 b1 a4 bc
       0.16233064 -0.27884078 0.006795241 -0.020104144
000250 c8 9b 74 be c5 ac 27 be 1c 00 a5 be 6c 14 a3 3e
       -0.23887551 -0.163745 -0.32226646 0.31851518
000260 bb a3 1d be f2 f8 12 bf 8e f7 69 3d 1f fc 3a 3e
       -0.1539449 -0.5741111 0.057120852 0.18260239
000270 58 81 5f 3e c7 13 33 3e b7 87 d0 be e3 71 4b 3d
       0.21826684 0.17488013 -0.40728542 0.049669158
000280 e1 99 8d be a2 f6 e6 3d 8b 4e 85 3d 8d 87 a5 bd
       -0.27656463 0.1127751 0.065091215 -0.08082495
000290 89 b9 1f bf 8e 69 3b bd c7 85 2e 3e 5c ae a1 be
       -0.6239248 -0.04575496 0.1704322 -0.31578338
0002a0 8d 5f 81 be bf 1d 1f bd 9c ba 83 3d 89 ae 26 be
       -0.25268212 -0.038846727 0.06432077 -0.16277517
0002b0 06 e4 01 bf e5 0d eb bd 5c 13 02 be 4e 6a f5 3e
       -0.5073856 -0.114772595 -0.12702698 0.47932667
0002c0 b6 9d 0c 3e b9 5f 04 bf c0 a8 aa be b0 3f 91 be
       0.13732037 -0.5170856 -0.3333187 -0.28368902
0002d0 66 1e 96 3e 51 a4 60 be d1 f7 31 be d6 4a de 3d
       0.29320067 -0.21937682 -0.1737969 0.108541176
0002e0 e5 e8 5f 3e e4 b9 9b be b7 a3 06 3f 86 0a f2 bd
       0.21866186 -0.3041526 0.5259356 -0.118184134
0002f0 70 6a c1 be 23 6f 84 3e e5 6f ca bc 8e 16 b8 be
       -0.37776518 0.2586604 -0.024711559 -0.35954708
000300 83 df 48 bd e8 0a 00 bd 3d af d8 3d 4e 75 75 3e
       -0.049041282 -0.0312604 0.10580299 0.2397053
000310 10 b0 c1 3e e1 13 2f 3d e1 be 18 3e 38 4c a9 3e
       0.37829638 0.042743567 0.14916565 0.33065963
000320 6c e7 ac 3d a9 f0 27 3d 0f 77 5c be 02 d3 eb bd
       0.08442578 0.041000996 -0.21529792 -0.11514856
000330 1c e0 b8 be 5d 35 93 bd be db bf be 74 e2 86 be
       -0.36108482 -0.071879126 -0.37472337 -0.26344645
000340 b8 cf 6b 3e 93 53 1c bd 60 b2 a1 be be 2c 7b be
       0.23028457 -0.03816564 -0.31581402 -0.24528787
000350 55 75 59 bd 27 2b 9d be 09 35 b6 bd 54 21 43 3e
       -0.053090412 -0.30696985 -0.088968344 0.19055682
000360 20 8a b0 ba 4a 96 3a 3e 46 81 dd bd 35 0c 54 be
       -0.0013468899 0.18221393 -0.108156726 -0.20707782
000370 60 22 dd bc ab 0b 68 3c ba b3 34 3e 7b 0c 1e be
       -0.02699393 0.014162938 0.17646685 -0.15434448
000380 24 de 19 3d 9b 18 25 3d 30 b6 1c 3e 9b 56 69 3e
       0.037565365 0.04030667 0.15303874 0.22786944
000390 a8 a3 e6 3d 4b be c9 3e 88 1b 1a 3d a5 0c b9 3e
       0.11261684 0.39402995 0.037623912 0.3614246
0003a0 7c c0 d7 be f1 da 85 3e 97 6d a0 3e 19 5b 32 be
       -0.4213904 0.26143602 0.3133361 -0.17417563
0003b0 cd ee 1a be 04 9d 20 3e 2f a6 0a 3d 65 e7 a9 bd
       -0.15130158 0.15684897 0.03384989 -0.08296088
0003c0 b4 77 f3 3e a1 06 5f be ec 63 ea bd 3d 10 64 3e
       0.47552264 -0.21779872 -0.1144484 0.2227182
0003d0 f7 7e c2 be 00 17 f1 3e b9 66 21 3e dc f6 dd bb
       -0.3798749 0.4708786 0.15761842 -0.0067738127
0003e0 af 6e 5b 3e 4c 3e be 3e 5f e5 16 3e 0a 97 8b 3e
       0.21428941 0.37156904 0.14735936 0.2726367
0003f0 93 dd fa 3d 93 a5 4d 3e 35 b7 a5 3e d1 c5 c8 3e
       0.12249293 0.20082693 0.32366338 0.39213422

actor.4.bias f4 [32]
000000 15 13 26 bd 98 d5 1d 3c 57 74 0f bd d0 99 32 bc
       -0.04054554 0.009633444 -0.03502306 -0.01090093
000010 4f b2 cb 3b 1a 3a 81 bd 18 e8 81 3d 4e 29 84 3c
       0.0062163244 -0.0630991 0.063430965 0.016132977
000020 91 bf 32 bd 62 37 7f bd 39 2e 02 3d 25 1b 00 bd
       -0.043639723 -0.062308677 0.031782363 -0.031275887
000030 e8 0a 22 3c c6 d1 0b 3d 4c 98 5b bc b5 83 a7 bc
       0.009890296 0.034135602 -0.01340301 -0.020448545
000040 98 19 4a bd 8a 91 d5 bc cd 05 f8 bc 14 9a 6a 3c
       -0.049340814 -0.026070375 -0.030276204 0.014318962
000050 92 0b 85 3d d6 6f 7d 3d a9 16 67 bd 9c 94 05 3d
       0.064963475 0.061874233 -0.056418095 0.032612428
000060 71 15 6b bd b7 f9 dd 3c 84 eb 54 bd 21 43 6c 3d
       -0.057393495 0.027096612 -0.051982418 0.057681207
000070 2b 15 e0 3b bc 77 64 bd 3b 6e 3c 3c cb a3 3d bc
       0.006838461 -0.05577825 0.01150089 -0.011574696
